<?xml version="1.0"?>
<net name="onnx_Frontend_IR" version="11">
	<layers>
		<layer id="0" name="input_image" type="Parameter" version="opset1">
			<data shape="1,3,256,256" element_type="f32" />
			<output>
				<port id="0" precision="FP32" names="input_image">
					<dim>1</dim>
					<dim>3</dim>
					<dim>256</dim>
					<dim>256</dim>
				</port>
			</output>
		</layer>
		<layer id="1" name="Constant_18939_compressed" type="Const" version="opset1">
			<data element_type="f16" shape="1, 3, 1, 1" offset="0" size="6" />
			<output>
				<port id="0" precision="FP16">
					<dim>1</dim>
					<dim>3</dim>
					<dim>1</dim>
					<dim>1</dim>
				</port>
			</output>
		</layer>
		<layer id="2" name="Constant_18939" type="Convert" version="opset1">
			<data destination_type="f32" />
			<rt_info>
				<attribute name="decompression" version="0" />
			</rt_info>
			<input>
				<port id="0" precision="FP16">
					<dim>1</dim>
					<dim>3</dim>
					<dim>1</dim>
					<dim>1</dim>
				</port>
			</input>
			<output>
				<port id="1" precision="FP32">
					<dim>1</dim>
					<dim>3</dim>
					<dim>1</dim>
					<dim>1</dim>
				</port>
			</output>
		</layer>
		<layer id="3" name="Multiply_27422" type="Multiply" version="opset1">
			<data auto_broadcast="numpy" />
			<input>
				<port id="0" precision="FP32">
					<dim>1</dim>
					<dim>3</dim>
					<dim>256</dim>
					<dim>256</dim>
				</port>
				<port id="1" precision="FP32">
					<dim>1</dim>
					<dim>3</dim>
					<dim>1</dim>
					<dim>1</dim>
				</port>
			</input>
			<output>
				<port id="2" precision="FP32">
					<dim>1</dim>
					<dim>3</dim>
					<dim>256</dim>
					<dim>256</dim>
				</port>
			</output>
		</layer>
		<layer id="4" name="Constant_27424" type="Const" version="opset1">
			<data element_type="f32" shape="1, 3, 1, 1" offset="6" size="12" />
			<output>
				<port id="0" precision="FP32">
					<dim>1</dim>
					<dim>3</dim>
					<dim>1</dim>
					<dim>1</dim>
				</port>
			</output>
		</layer>
		<layer id="5" name="/0/Div" type="Add" version="opset1">
			<data auto_broadcast="numpy" />
			<input>
				<port id="0" precision="FP32">
					<dim>1</dim>
					<dim>3</dim>
					<dim>256</dim>
					<dim>256</dim>
				</port>
				<port id="1" precision="FP32">
					<dim>1</dim>
					<dim>3</dim>
					<dim>1</dim>
					<dim>1</dim>
				</port>
			</input>
			<output>
				<port id="2" precision="FP32" names="/0/Div_output_0">
					<dim>1</dim>
					<dim>3</dim>
					<dim>256</dim>
					<dim>256</dim>
				</port>
			</output>
		</layer>
		<layer id="6" name="onnx::Conv_1256_compressed" type="Const" version="opset1">
			<data element_type="f16" shape="32, 3, 3, 3" offset="18" size="1728" />
			<output>
				<port id="0" precision="FP16" names="onnx::Conv_1256">
					<dim>32</dim>
					<dim>3</dim>
					<dim>3</dim>
					<dim>3</dim>
				</port>
			</output>
		</layer>
		<layer id="7" name="onnx::Conv_1256" type="Convert" version="opset1">
			<data destination_type="f32" />
			<rt_info>
				<attribute name="decompression" version="0" />
			</rt_info>
			<input>
				<port id="0" precision="FP16">
					<dim>32</dim>
					<dim>3</dim>
					<dim>3</dim>
					<dim>3</dim>
				</port>
			</input>
			<output>
				<port id="1" precision="FP32">
					<dim>32</dim>
					<dim>3</dim>
					<dim>3</dim>
					<dim>3</dim>
				</port>
			</output>
		</layer>
		<layer id="8" name="/1/layer1/layer1.0/Conv/WithoutBiases" type="Convolution" version="opset1">
			<data strides="2, 2" dilations="1, 1" pads_begin="0, 0" pads_end="1, 1" auto_pad="explicit" />
			<input>
				<port id="0" precision="FP32">
					<dim>1</dim>
					<dim>3</dim>
					<dim>256</dim>
					<dim>256</dim>
				</port>
				<port id="1" precision="FP32">
					<dim>32</dim>
					<dim>3</dim>
					<dim>3</dim>
					<dim>3</dim>
				</port>
			</input>
			<output>
				<port id="2" precision="FP32">
					<dim>1</dim>
					<dim>32</dim>
					<dim>128</dim>
					<dim>128</dim>
				</port>
			</output>
		</layer>
		<layer id="9" name="Reshape_15182_compressed" type="Const" version="opset1">
			<data element_type="f16" shape="1, 32, 1, 1" offset="1746" size="64" />
			<output>
				<port id="0" precision="FP16">
					<dim>1</dim>
					<dim>32</dim>
					<dim>1</dim>
					<dim>1</dim>
				</port>
			</output>
		</layer>
		<layer id="10" name="Reshape_15182" type="Convert" version="opset1">
			<data destination_type="f32" />
			<rt_info>
				<attribute name="decompression" version="0" />
			</rt_info>
			<input>
				<port id="0" precision="FP16">
					<dim>1</dim>
					<dim>32</dim>
					<dim>1</dim>
					<dim>1</dim>
				</port>
			</input>
			<output>
				<port id="1" precision="FP32">
					<dim>1</dim>
					<dim>32</dim>
					<dim>1</dim>
					<dim>1</dim>
				</port>
			</output>
		</layer>
		<layer id="11" name="/1/layer1/layer1.0/Conv" type="Add" version="opset1">
			<data auto_broadcast="numpy" />
			<input>
				<port id="0" precision="FP32">
					<dim>1</dim>
					<dim>32</dim>
					<dim>128</dim>
					<dim>128</dim>
				</port>
				<port id="1" precision="FP32">
					<dim>1</dim>
					<dim>32</dim>
					<dim>1</dim>
					<dim>1</dim>
				</port>
			</input>
			<output>
				<port id="2" precision="FP32" names="/1/layer1/layer1.0/Conv_output_0">
					<dim>1</dim>
					<dim>32</dim>
					<dim>128</dim>
					<dim>128</dim>
				</port>
			</output>
		</layer>
		<layer id="12" name="/1/layer1/layer1.2/Clip" type="Clamp" version="opset1">
			<data min="0" max="6" />
			<input>
				<port id="0" precision="FP32">
					<dim>1</dim>
					<dim>32</dim>
					<dim>128</dim>
					<dim>128</dim>
				</port>
			</input>
			<output>
				<port id="1" precision="FP32" names="/1/layer1/layer1.2/Clip_output_0">
					<dim>1</dim>
					<dim>32</dim>
					<dim>128</dim>
					<dim>128</dim>
				</port>
			</output>
		</layer>
		<layer id="13" name="Reshape_15195_compressed" type="Const" version="opset1">
			<data element_type="f16" shape="32, 1, 1, 3, 3" offset="1810" size="576" />
			<output>
				<port id="0" precision="FP16">
					<dim>32</dim>
					<dim>1</dim>
					<dim>1</dim>
					<dim>3</dim>
					<dim>3</dim>
				</port>
			</output>
		</layer>
		<layer id="14" name="Reshape_15195" type="Convert" version="opset1">
			<data destination_type="f32" />
			<rt_info>
				<attribute name="decompression" version="0" />
			</rt_info>
			<input>
				<port id="0" precision="FP16">
					<dim>32</dim>
					<dim>1</dim>
					<dim>1</dim>
					<dim>3</dim>
					<dim>3</dim>
				</port>
			</input>
			<output>
				<port id="1" precision="FP32">
					<dim>32</dim>
					<dim>1</dim>
					<dim>1</dim>
					<dim>3</dim>
					<dim>3</dim>
				</port>
			</output>
		</layer>
		<layer id="15" name="/1/layer1/layer1.3/layer1.3.0/conv_dw/Conv/WithoutBiases" type="GroupConvolution" version="opset1">
			<data strides="1, 1" pads_begin="1, 1" pads_end="1, 1" dilations="1, 1" auto_pad="explicit" />
			<input>
				<port id="0" precision="FP32">
					<dim>1</dim>
					<dim>32</dim>
					<dim>128</dim>
					<dim>128</dim>
				</port>
				<port id="1" precision="FP32">
					<dim>32</dim>
					<dim>1</dim>
					<dim>1</dim>
					<dim>3</dim>
					<dim>3</dim>
				</port>
			</input>
			<output>
				<port id="2" precision="FP32">
					<dim>1</dim>
					<dim>32</dim>
					<dim>128</dim>
					<dim>128</dim>
				</port>
			</output>
		</layer>
		<layer id="16" name="Reshape_15245_compressed" type="Const" version="opset1">
			<data element_type="f16" shape="1, 32, 1, 1" offset="2386" size="64" />
			<output>
				<port id="0" precision="FP16">
					<dim>1</dim>
					<dim>32</dim>
					<dim>1</dim>
					<dim>1</dim>
				</port>
			</output>
		</layer>
		<layer id="17" name="Reshape_15245" type="Convert" version="opset1">
			<data destination_type="f32" />
			<rt_info>
				<attribute name="decompression" version="0" />
			</rt_info>
			<input>
				<port id="0" precision="FP16">
					<dim>1</dim>
					<dim>32</dim>
					<dim>1</dim>
					<dim>1</dim>
				</port>
			</input>
			<output>
				<port id="1" precision="FP32">
					<dim>1</dim>
					<dim>32</dim>
					<dim>1</dim>
					<dim>1</dim>
				</port>
			</output>
		</layer>
		<layer id="18" name="/1/layer1/layer1.3/layer1.3.0/conv_dw/Conv" type="Add" version="opset1">
			<data auto_broadcast="numpy" />
			<input>
				<port id="0" precision="FP32">
					<dim>1</dim>
					<dim>32</dim>
					<dim>128</dim>
					<dim>128</dim>
				</port>
				<port id="1" precision="FP32">
					<dim>1</dim>
					<dim>32</dim>
					<dim>1</dim>
					<dim>1</dim>
				</port>
			</input>
			<output>
				<port id="2" precision="FP32" names="/1/layer1/layer1.3/layer1.3.0/conv_dw/Conv_output_0">
					<dim>1</dim>
					<dim>32</dim>
					<dim>128</dim>
					<dim>128</dim>
				</port>
			</output>
		</layer>
		<layer id="19" name="/1/layer1/layer1.3/layer1.3.0/act1/Clip" type="Clamp" version="opset1">
			<data min="0" max="6" />
			<input>
				<port id="0" precision="FP32">
					<dim>1</dim>
					<dim>32</dim>
					<dim>128</dim>
					<dim>128</dim>
				</port>
			</input>
			<output>
				<port id="1" precision="FP32" names="/1/layer1/layer1.3/layer1.3.0/act1/Clip_output_0">
					<dim>1</dim>
					<dim>32</dim>
					<dim>128</dim>
					<dim>128</dim>
				</port>
			</output>
		</layer>
		<layer id="20" name="onnx::Conv_1262_compressed" type="Const" version="opset1">
			<data element_type="f16" shape="24, 32, 1, 1" offset="2450" size="1536" />
			<output>
				<port id="0" precision="FP16" names="onnx::Conv_1262">
					<dim>24</dim>
					<dim>32</dim>
					<dim>1</dim>
					<dim>1</dim>
				</port>
			</output>
		</layer>
		<layer id="21" name="onnx::Conv_1262" type="Convert" version="opset1">
			<data destination_type="f32" />
			<rt_info>
				<attribute name="decompression" version="0" />
			</rt_info>
			<input>
				<port id="0" precision="FP16">
					<dim>24</dim>
					<dim>32</dim>
					<dim>1</dim>
					<dim>1</dim>
				</port>
			</input>
			<output>
				<port id="1" precision="FP32">
					<dim>24</dim>
					<dim>32</dim>
					<dim>1</dim>
					<dim>1</dim>
				</port>
			</output>
		</layer>
		<layer id="22" name="/1/layer1/layer1.3/layer1.3.0/conv_pw/Conv/WithoutBiases" type="Convolution" version="opset1">
			<data strides="1, 1" dilations="1, 1" pads_begin="0, 0" pads_end="0, 0" auto_pad="explicit" />
			<input>
				<port id="0" precision="FP32">
					<dim>1</dim>
					<dim>32</dim>
					<dim>128</dim>
					<dim>128</dim>
				</port>
				<port id="1" precision="FP32">
					<dim>24</dim>
					<dim>32</dim>
					<dim>1</dim>
					<dim>1</dim>
				</port>
			</input>
			<output>
				<port id="2" precision="FP32">
					<dim>1</dim>
					<dim>24</dim>
					<dim>128</dim>
					<dim>128</dim>
				</port>
			</output>
		</layer>
		<layer id="23" name="Reshape_15262_compressed" type="Const" version="opset1">
			<data element_type="f16" shape="1, 24, 1, 1" offset="3986" size="48" />
			<output>
				<port id="0" precision="FP16">
					<dim>1</dim>
					<dim>24</dim>
					<dim>1</dim>
					<dim>1</dim>
				</port>
			</output>
		</layer>
		<layer id="24" name="Reshape_15262" type="Convert" version="opset1">
			<data destination_type="f32" />
			<rt_info>
				<attribute name="decompression" version="0" />
			</rt_info>
			<input>
				<port id="0" precision="FP16">
					<dim>1</dim>
					<dim>24</dim>
					<dim>1</dim>
					<dim>1</dim>
				</port>
			</input>
			<output>
				<port id="1" precision="FP32">
					<dim>1</dim>
					<dim>24</dim>
					<dim>1</dim>
					<dim>1</dim>
				</port>
			</output>
		</layer>
		<layer id="25" name="/1/layer1/layer1.3/layer1.3.0/conv_pw/Conv" type="Add" version="opset1">
			<data auto_broadcast="numpy" />
			<input>
				<port id="0" precision="FP32">
					<dim>1</dim>
					<dim>24</dim>
					<dim>128</dim>
					<dim>128</dim>
				</port>
				<port id="1" precision="FP32">
					<dim>1</dim>
					<dim>24</dim>
					<dim>1</dim>
					<dim>1</dim>
				</port>
			</input>
			<output>
				<port id="2" precision="FP32" names="/1/layer1/layer1.3/layer1.3.0/conv_pw/Conv_output_0">
					<dim>1</dim>
					<dim>24</dim>
					<dim>128</dim>
					<dim>128</dim>
				</port>
			</output>
		</layer>
		<layer id="26" name="onnx::Conv_1265_compressed" type="Const" version="opset1">
			<data element_type="f16" shape="144, 24, 1, 1" offset="4034" size="6912" />
			<output>
				<port id="0" precision="FP16" names="onnx::Conv_1265">
					<dim>144</dim>
					<dim>24</dim>
					<dim>1</dim>
					<dim>1</dim>
				</port>
			</output>
		</layer>
		<layer id="27" name="onnx::Conv_1265" type="Convert" version="opset1">
			<data destination_type="f32" />
			<rt_info>
				<attribute name="decompression" version="0" />
			</rt_info>
			<input>
				<port id="0" precision="FP16">
					<dim>144</dim>
					<dim>24</dim>
					<dim>1</dim>
					<dim>1</dim>
				</port>
			</input>
			<output>
				<port id="1" precision="FP32">
					<dim>144</dim>
					<dim>24</dim>
					<dim>1</dim>
					<dim>1</dim>
				</port>
			</output>
		</layer>
		<layer id="28" name="/1/layer1/layer1.4/layer1.4.0/conv_pw/Conv/WithoutBiases" type="Convolution" version="opset1">
			<data strides="1, 1" dilations="1, 1" pads_begin="0, 0" pads_end="0, 0" auto_pad="explicit" />
			<input>
				<port id="0" precision="FP32">
					<dim>1</dim>
					<dim>24</dim>
					<dim>128</dim>
					<dim>128</dim>
				</port>
				<port id="1" precision="FP32">
					<dim>144</dim>
					<dim>24</dim>
					<dim>1</dim>
					<dim>1</dim>
				</port>
			</input>
			<output>
				<port id="2" precision="FP32">
					<dim>1</dim>
					<dim>144</dim>
					<dim>128</dim>
					<dim>128</dim>
				</port>
			</output>
		</layer>
		<layer id="29" name="Reshape_15277_compressed" type="Const" version="opset1">
			<data element_type="f16" shape="1, 144, 1, 1" offset="10946" size="288" />
			<output>
				<port id="0" precision="FP16">
					<dim>1</dim>
					<dim>144</dim>
					<dim>1</dim>
					<dim>1</dim>
				</port>
			</output>
		</layer>
		<layer id="30" name="Reshape_15277" type="Convert" version="opset1">
			<data destination_type="f32" />
			<rt_info>
				<attribute name="decompression" version="0" />
			</rt_info>
			<input>
				<port id="0" precision="FP16">
					<dim>1</dim>
					<dim>144</dim>
					<dim>1</dim>
					<dim>1</dim>
				</port>
			</input>
			<output>
				<port id="1" precision="FP32">
					<dim>1</dim>
					<dim>144</dim>
					<dim>1</dim>
					<dim>1</dim>
				</port>
			</output>
		</layer>
		<layer id="31" name="/1/layer1/layer1.4/layer1.4.0/conv_pw/Conv" type="Add" version="opset1">
			<data auto_broadcast="numpy" />
			<input>
				<port id="0" precision="FP32">
					<dim>1</dim>
					<dim>144</dim>
					<dim>128</dim>
					<dim>128</dim>
				</port>
				<port id="1" precision="FP32">
					<dim>1</dim>
					<dim>144</dim>
					<dim>1</dim>
					<dim>1</dim>
				</port>
			</input>
			<output>
				<port id="2" precision="FP32" names="/1/layer1/layer1.4/layer1.4.0/conv_pw/Conv_output_0">
					<dim>1</dim>
					<dim>144</dim>
					<dim>128</dim>
					<dim>128</dim>
				</port>
			</output>
		</layer>
		<layer id="32" name="/1/layer1/layer1.4/layer1.4.0/act1/Clip" type="Clamp" version="opset1">
			<data min="0" max="6" />
			<input>
				<port id="0" precision="FP32">
					<dim>1</dim>
					<dim>144</dim>
					<dim>128</dim>
					<dim>128</dim>
				</port>
			</input>
			<output>
				<port id="1" precision="FP32" names="/1/layer1/layer1.4/layer1.4.0/act1/Clip_output_0">
					<dim>1</dim>
					<dim>144</dim>
					<dim>128</dim>
					<dim>128</dim>
				</port>
			</output>
		</layer>
		<layer id="33" name="ShapeOf_30252" type="ShapeOf" version="opset3">
			<data output_type="i64" />
			<input>
				<port id="0" precision="FP32">
					<dim>1</dim>
					<dim>144</dim>
					<dim>128</dim>
					<dim>128</dim>
				</port>
			</input>
			<output>
				<port id="1" precision="I64">
					<dim>4</dim>
				</port>
			</output>
		</layer>
		<layer id="34" name="Constant_30253" type="Const" version="opset1">
			<data element_type="i64" shape="" offset="11234" size="8" />
			<rt_info>
				<attribute name="precise" version="0" />
			</rt_info>
			<output>
				<port id="0" precision="I64" />
			</output>
		</layer>
		<layer id="35" name="Constant_30254" type="Const" version="opset1">
			<data element_type="i64" shape="" offset="11242" size="8" />
			<rt_info>
				<attribute name="precise" version="0" />
			</rt_info>
			<output>
				<port id="0" precision="I64" />
			</output>
		</layer>
		<layer id="36" name="Gather_30255" type="Gather" version="opset8">
			<data batch_dims="0" />
			<input>
				<port id="0" precision="I64">
					<dim>4</dim>
				</port>
				<port id="1" precision="I64" />
				<port id="2" precision="I64" />
			</input>
			<output>
				<port id="3" precision="I64" names="/1/layer1/layer1.4/layer1.4.0/conv_dw/Gather_1_output_0" />
			</output>
		</layer>
		<layer id="37" name="/1/layer1/layer1.4/layer1.4.0/conv_dw/Constant_7" type="Const" version="opset1">
			<data element_type="i64" shape="" offset="11250" size="8" />
			<rt_info>
				<attribute name="precise" version="0" />
			</rt_info>
			<output>
				<port id="0" precision="I64" names="/1/layer1/layer1.4/layer1.4.0/conv_dw/Constant_7_output_0" />
			</output>
		</layer>
		<layer id="38" name="/1/layer1/layer1.4/layer1.4.0/conv_dw/Div_1" type="Divide" version="opset1">
			<data auto_broadcast="numpy" m_pythondiv="true" />
			<input>
				<port id="0" precision="I64" />
				<port id="1" precision="I64" />
			</input>
			<output>
				<port id="2" precision="I64" names="/1/layer1/layer1.4/layer1.4.0/conv_dw/Cast_2_output_0,/1/layer1/layer1.4/layer1.4.0/conv_dw/Cast_3_output_0,/1/layer1/layer1.4/layer1.4.0/conv_dw/Div_1_output_0" />
			</output>
		</layer>
		<layer id="39" name="Constant_27431" type="Const" version="opset1">
			<data element_type="i64" shape="" offset="11250" size="8" />
			<rt_info>
				<attribute name="precise" version="0" />
			</rt_info>
			<output>
				<port id="0" precision="I64" />
			</output>
		</layer>
		<layer id="40" name="Multiply_27426" type="Multiply" version="opset1">
			<data auto_broadcast="numpy" />
			<input>
				<port id="0" precision="I64" />
				<port id="1" precision="I64" />
			</input>
			<output>
				<port id="2" precision="I64" />
			</output>
		</layer>
		<layer id="41" name="Constant_27437" type="Const" version="opset1">
			<data element_type="i64" shape="" offset="11258" size="8" />
			<rt_info>
				<attribute name="precise" version="0" />
			</rt_info>
			<output>
				<port id="0" precision="I64" />
			</output>
		</layer>
		<layer id="42" name="/1/layer1/layer1.4/layer1.4.0/conv_dw/Add_3" type="Add" version="opset1">
			<data auto_broadcast="numpy" />
			<input>
				<port id="0" precision="I64" />
				<port id="1" precision="I64" />
			</input>
			<output>
				<port id="2" precision="I64" names="/1/layer1/layer1.4/layer1.4.0/conv_dw/Add_3_output_0" />
			</output>
		</layer>
		<layer id="43" name="/1/layer1/layer1.4/layer1.4.0/conv_dw/Sub_3" type="Subtract" version="opset1">
			<data auto_broadcast="numpy" />
			<input>
				<port id="0" precision="I64" />
				<port id="1" precision="I64" />
			</input>
			<output>
				<port id="2" precision="I64" names="/1/layer1/layer1.4/layer1.4.0/conv_dw/Sub_3_output_0" />
			</output>
		</layer>
		<layer id="44" name="/1/layer1/layer1.4/layer1.4.0/conv_dw/Constant_12" type="Const" version="opset1">
			<data element_type="i64" shape="" offset="11266" size="8" />
			<rt_info>
				<attribute name="precise" version="0" />
			</rt_info>
			<output>
				<port id="0" precision="I64" names="/1/layer1/layer1.4/layer1.4.0/conv_dw/Constant_12_output_0" />
			</output>
		</layer>
		<layer id="45" name="/1/layer1/layer1.4/layer1.4.0/conv_dw/Div_2" type="Divide" version="opset1">
			<data auto_broadcast="numpy" m_pythondiv="true" />
			<input>
				<port id="0" precision="I64" />
				<port id="1" precision="I64" />
			</input>
			<output>
				<port id="2" precision="I64" names="/1/layer1/layer1.4/layer1.4.0/conv_dw/Cast_4_output_0,/1/layer1/layer1.4/layer1.4.0/conv_dw/Cast_5_output_0,/1/layer1/layer1.4/layer1.4.0/conv_dw/Div_2_output_0" />
			</output>
		</layer>
		<layer id="46" name="Constant_87" type="Const" version="opset1">
			<data element_type="i64" shape="1" offset="11242" size="8" />
			<rt_info>
				<attribute name="precise" version="0" />
			</rt_info>
			<output>
				<port id="0" precision="I64" names="onnx::Unsqueeze_602">
					<dim>1</dim>
				</port>
			</output>
		</layer>
		<layer id="47" name="/1/layer1/layer1.4/layer1.4.0/conv_dw/Unsqueeze_4" type="Unsqueeze" version="opset1">
			<input>
				<port id="0" precision="I64" />
				<port id="1" precision="I64">
					<dim>1</dim>
				</port>
			</input>
			<output>
				<port id="2" precision="I64" names="/1/layer1/layer1.4/layer1.4.0/conv_dw/Unsqueeze_4_output_0,/1/layer1/layer1.4/layer1.4.0/conv_dw/Unsqueeze_output_0">
					<dim>1</dim>
				</port>
			</output>
		</layer>
		<layer id="48" name="/1/layer1/layer1.4/layer1.4.0/conv_dw/Sub_4" type="Subtract" version="opset1">
			<data auto_broadcast="numpy" />
			<input>
				<port id="0" precision="I64" />
				<port id="1" precision="I64" />
			</input>
			<output>
				<port id="2" precision="I64" names="/1/layer1/layer1.4/layer1.4.0/conv_dw/Sub_4_output_0" />
			</output>
		</layer>
		<layer id="49" name="Constant_89" type="Const" version="opset1">
			<data element_type="i64" shape="1" offset="11242" size="8" />
			<rt_info>
				<attribute name="precise" version="0" />
			</rt_info>
			<output>
				<port id="0" precision="I64" names="onnx::Unsqueeze_604">
					<dim>1</dim>
				</port>
			</output>
		</layer>
		<layer id="50" name="/1/layer1/layer1.4/layer1.4.0/conv_dw/Unsqueeze_5" type="Unsqueeze" version="opset1">
			<input>
				<port id="0" precision="I64" />
				<port id="1" precision="I64">
					<dim>1</dim>
				</port>
			</input>
			<output>
				<port id="2" precision="I64" names="/1/layer1/layer1.4/layer1.4.0/conv_dw/Unsqueeze_1_output_0,/1/layer1/layer1.4/layer1.4.0/conv_dw/Unsqueeze_5_output_0">
					<dim>1</dim>
				</port>
			</output>
		</layer>
		<layer id="51" name="Constant_30257" type="Const" version="opset1">
			<data element_type="i64" shape="" offset="11266" size="8" />
			<rt_info>
				<attribute name="precise" version="0" />
			</rt_info>
			<output>
				<port id="0" precision="I64" />
			</output>
		</layer>
		<layer id="52" name="Constant_30258" type="Const" version="opset1">
			<data element_type="i64" shape="" offset="11242" size="8" />
			<rt_info>
				<attribute name="precise" version="0" />
			</rt_info>
			<output>
				<port id="0" precision="I64" />
			</output>
		</layer>
		<layer id="53" name="Gather_30259" type="Gather" version="opset8">
			<data batch_dims="0" />
			<input>
				<port id="0" precision="I64">
					<dim>4</dim>
				</port>
				<port id="1" precision="I64" />
				<port id="2" precision="I64" />
			</input>
			<output>
				<port id="3" precision="I64" names="/1/layer1/layer1.4/layer1.4.0/conv_dw/Gather_output_0" />
			</output>
		</layer>
		<layer id="54" name="/1/layer1/layer1.4/layer1.4.0/conv_dw/Constant_2" type="Const" version="opset1">
			<data element_type="i64" shape="" offset="11250" size="8" />
			<rt_info>
				<attribute name="precise" version="0" />
			</rt_info>
			<output>
				<port id="0" precision="I64" names="/1/layer1/layer1.4/layer1.4.0/conv_dw/Constant_2_output_0" />
			</output>
		</layer>
		<layer id="55" name="/1/layer1/layer1.4/layer1.4.0/conv_dw/Div" type="Divide" version="opset1">
			<data auto_broadcast="numpy" m_pythondiv="true" />
			<input>
				<port id="0" precision="I64" />
				<port id="1" precision="I64" />
			</input>
			<output>
				<port id="2" precision="I64" names="/1/layer1/layer1.4/layer1.4.0/conv_dw/Cast_1_output_0,/1/layer1/layer1.4/layer1.4.0/conv_dw/Cast_output_0,/1/layer1/layer1.4/layer1.4.0/conv_dw/Div_output_0" />
			</output>
		</layer>
		<layer id="56" name="Constant_27444" type="Const" version="opset1">
			<data element_type="i64" shape="" offset="11250" size="8" />
			<rt_info>
				<attribute name="precise" version="0" />
			</rt_info>
			<output>
				<port id="0" precision="I64" />
			</output>
		</layer>
		<layer id="57" name="Multiply_27439" type="Multiply" version="opset1">
			<data auto_broadcast="numpy" />
			<input>
				<port id="0" precision="I64" />
				<port id="1" precision="I64" />
			</input>
			<output>
				<port id="2" precision="I64" />
			</output>
		</layer>
		<layer id="58" name="Constant_27450" type="Const" version="opset1">
			<data element_type="i64" shape="" offset="11258" size="8" />
			<rt_info>
				<attribute name="precise" version="0" />
			</rt_info>
			<output>
				<port id="0" precision="I64" />
			</output>
		</layer>
		<layer id="59" name="/1/layer1/layer1.4/layer1.4.0/conv_dw/Add_1" type="Add" version="opset1">
			<data auto_broadcast="numpy" />
			<input>
				<port id="0" precision="I64" />
				<port id="1" precision="I64" />
			</input>
			<output>
				<port id="2" precision="I64" names="/1/layer1/layer1.4/layer1.4.0/conv_dw/Add_1_output_0" />
			</output>
		</layer>
		<layer id="60" name="/1/layer1/layer1.4/layer1.4.0/conv_dw/Sub_1" type="Subtract" version="opset1">
			<data auto_broadcast="numpy" />
			<input>
				<port id="0" precision="I64" />
				<port id="1" precision="I64" />
			</input>
			<output>
				<port id="2" precision="I64" names="/1/layer1/layer1.4/layer1.4.0/conv_dw/Sub_1_output_0" />
			</output>
		</layer>
		<layer id="61" name="/1/layer1/layer1.4/layer1.4.0/conv_dw/Constant_13" type="Const" version="opset1">
			<data element_type="i64" shape="" offset="11266" size="8" />
			<rt_info>
				<attribute name="precise" version="0" />
			</rt_info>
			<output>
				<port id="0" precision="I64" names="/1/layer1/layer1.4/layer1.4.0/conv_dw/Constant_13_output_0" />
			</output>
		</layer>
		<layer id="62" name="/1/layer1/layer1.4/layer1.4.0/conv_dw/Div_3" type="Divide" version="opset1">
			<data auto_broadcast="numpy" m_pythondiv="true" />
			<input>
				<port id="0" precision="I64" />
				<port id="1" precision="I64" />
			</input>
			<output>
				<port id="2" precision="I64" names="/1/layer1/layer1.4/layer1.4.0/conv_dw/Cast_6_output_0,/1/layer1/layer1.4/layer1.4.0/conv_dw/Cast_7_output_0,/1/layer1/layer1.4/layer1.4.0/conv_dw/Div_3_output_0" />
			</output>
		</layer>
		<layer id="63" name="Constant_91" type="Const" version="opset1">
			<data element_type="i64" shape="1" offset="11242" size="8" />
			<rt_info>
				<attribute name="precise" version="0" />
			</rt_info>
			<output>
				<port id="0" precision="I64" names="onnx::Unsqueeze_606">
					<dim>1</dim>
				</port>
			</output>
		</layer>
		<layer id="64" name="/1/layer1/layer1.4/layer1.4.0/conv_dw/Unsqueeze_6" type="Unsqueeze" version="opset1">
			<input>
				<port id="0" precision="I64" />
				<port id="1" precision="I64">
					<dim>1</dim>
				</port>
			</input>
			<output>
				<port id="2" precision="I64" names="/1/layer1/layer1.4/layer1.4.0/conv_dw/Unsqueeze_2_output_0,/1/layer1/layer1.4/layer1.4.0/conv_dw/Unsqueeze_6_output_0">
					<dim>1</dim>
				</port>
			</output>
		</layer>
		<layer id="65" name="/1/layer1/layer1.4/layer1.4.0/conv_dw/Sub_5" type="Subtract" version="opset1">
			<data auto_broadcast="numpy" />
			<input>
				<port id="0" precision="I64" />
				<port id="1" precision="I64" />
			</input>
			<output>
				<port id="2" precision="I64" names="/1/layer1/layer1.4/layer1.4.0/conv_dw/Sub_5_output_0" />
			</output>
		</layer>
		<layer id="66" name="Constant_93" type="Const" version="opset1">
			<data element_type="i64" shape="1" offset="11242" size="8" />
			<rt_info>
				<attribute name="precise" version="0" />
			</rt_info>
			<output>
				<port id="0" precision="I64" names="onnx::Unsqueeze_608">
					<dim>1</dim>
				</port>
			</output>
		</layer>
		<layer id="67" name="/1/layer1/layer1.4/layer1.4.0/conv_dw/Unsqueeze_7" type="Unsqueeze" version="opset1">
			<input>
				<port id="0" precision="I64" />
				<port id="1" precision="I64">
					<dim>1</dim>
				</port>
			</input>
			<output>
				<port id="2" precision="I64" names="/1/layer1/layer1.4/layer1.4.0/conv_dw/Unsqueeze_3_output_0,/1/layer1/layer1.4/layer1.4.0/conv_dw/Unsqueeze_7_output_0">
					<dim>1</dim>
				</port>
			</output>
		</layer>
		<layer id="68" name="/1/layer1/layer1.4/layer1.4.0/conv_dw/ConstantOfShape" type="Const" version="opset1">
			<data element_type="i64" shape="4" offset="11274" size="32" />
			<rt_info>
				<attribute name="precise" version="0" />
			</rt_info>
			<output>
				<port id="0" precision="I64" names="/1/layer1/layer1.4/layer1.4.0/conv_dw/ConstantOfShape_output_0">
					<dim>4</dim>
				</port>
			</output>
		</layer>
		<layer id="69" name="/1/layer1/layer1.4/layer1.4.0/conv_dw/Concat_2" type="Concat" version="opset1">
			<data axis="0" />
			<input>
				<port id="0" precision="I64">
					<dim>1</dim>
				</port>
				<port id="1" precision="I64">
					<dim>1</dim>
				</port>
				<port id="2" precision="I64">
					<dim>1</dim>
				</port>
				<port id="3" precision="I64">
					<dim>1</dim>
				</port>
				<port id="4" precision="I64">
					<dim>4</dim>
				</port>
			</input>
			<output>
				<port id="5" precision="I64" names="/1/layer1/layer1.4/layer1.4.0/conv_dw/Concat_2_output_0">
					<dim>8</dim>
				</port>
			</output>
		</layer>
		<layer id="70" name="/1/layer1/layer1.4/layer1.4.0/conv_dw/Constant_16" type="Const" version="opset1">
			<data element_type="i64" shape="2" offset="11306" size="16" />
			<rt_info>
				<attribute name="precise" version="0" />
			</rt_info>
			<output>
				<port id="0" precision="I64" names="/1/layer1/layer1.4/layer1.4.0/conv_dw/Constant_16_output_0">
					<dim>2</dim>
				</port>
			</output>
		</layer>
		<layer id="71" name="/1/layer1/layer1.4/layer1.4.0/conv_dw/Reshape" type="Reshape" version="opset1">
			<data special_zero="true" />
			<input>
				<port id="0" precision="I64">
					<dim>8</dim>
				</port>
				<port id="1" precision="I64">
					<dim>2</dim>
				</port>
			</input>
			<output>
				<port id="2" precision="I64" names="/1/layer1/layer1.4/layer1.4.0/conv_dw/Reshape_output_0">
					<dim>4</dim>
					<dim>2</dim>
				</port>
			</output>
		</layer>
		<layer id="72" name="/1/layer1/layer1.4/layer1.4.0/conv_dw/Constant_18" type="Const" version="opset1">
			<data element_type="i64" shape="1" offset="11322" size="8" />
			<rt_info>
				<attribute name="precise" version="0" />
			</rt_info>
			<output>
				<port id="0" precision="I64" names="/1/layer1/layer1.4/layer1.4.0/conv_dw/Constant_18_output_0">
					<dim>1</dim>
				</port>
			</output>
		</layer>
		<layer id="73" name="/1/layer1/layer1.4/layer1.4.0/conv_dw/Constant_19" type="Const" version="opset1">
			<data element_type="i64" shape="1" offset="11330" size="8" />
			<rt_info>
				<attribute name="precise" version="0" />
			</rt_info>
			<output>
				<port id="0" precision="I64" names="/1/layer1/layer1.4/layer1.4.0/conv_dw/Constant_19_output_0">
					<dim>1</dim>
				</port>
			</output>
		</layer>
		<layer id="74" name="/1/layer1/layer1.4/layer1.4.0/conv_dw/Constant_20" type="Const" version="opset1">
			<data element_type="i64" shape="1" offset="11322" size="8" />
			<rt_info>
				<attribute name="precise" version="0" />
			</rt_info>
			<output>
				<port id="0" precision="I64" names="/1/layer1/layer1.4/layer1.4.0/conv_dw/Constant_20_output_0">
					<dim>1</dim>
				</port>
			</output>
		</layer>
		<layer id="75" name="/1/layer1/layer1.4/layer1.4.0/conv_dw/Constant_17" type="Const" version="opset1">
			<data element_type="i64" shape="1" offset="11242" size="8" />
			<rt_info>
				<attribute name="precise" version="0" />
			</rt_info>
			<output>
				<port id="0" precision="I64" names="/1/layer1/layer1.4/layer1.4.0/conv_dw/Constant_17_output_0">
					<dim>1</dim>
				</port>
			</output>
		</layer>
		<layer id="76" name="/1/layer1/layer1.4/layer1.4.0/conv_dw/Slice" type="Slice" version="opset8">
			<input>
				<port id="0" precision="I64">
					<dim>4</dim>
					<dim>2</dim>
				</port>
				<port id="1" precision="I64">
					<dim>1</dim>
				</port>
				<port id="2" precision="I64">
					<dim>1</dim>
				</port>
				<port id="3" precision="I64">
					<dim>1</dim>
				</port>
				<port id="4" precision="I64">
					<dim>1</dim>
				</port>
			</input>
			<output>
				<port id="5" precision="I64" names="/1/layer1/layer1.4/layer1.4.0/conv_dw/Slice_output_0">
					<dim>4</dim>
					<dim>2</dim>
				</port>
			</output>
		</layer>
		<layer id="77" name="Constant_15336" type="Const" version="opset1">
			<data element_type="i64" shape="2" offset="11338" size="16" />
			<rt_info>
				<attribute name="precise" version="0" />
			</rt_info>
			<output>
				<port id="0" precision="I64">
					<dim>2</dim>
				</port>
			</output>
		</layer>
		<layer id="78" name="/1/layer1/layer1.4/layer1.4.0/conv_dw/Transpose" type="Transpose" version="opset1">
			<input>
				<port id="0" precision="I64">
					<dim>4</dim>
					<dim>2</dim>
				</port>
				<port id="1" precision="I64">
					<dim>2</dim>
				</port>
			</input>
			<output>
				<port id="2" precision="I64" names="/1/layer1/layer1.4/layer1.4.0/conv_dw/Transpose_output_0">
					<dim>2</dim>
					<dim>4</dim>
				</port>
			</output>
		</layer>
		<layer id="79" name="Constant_20604" type="Const" version="opset1">
			<data element_type="i64" shape="1" offset="11322" size="8" />
			<rt_info>
				<attribute name="precise" version="0" />
			</rt_info>
			<output>
				<port id="0" precision="I64">
					<dim>1</dim>
				</port>
			</output>
		</layer>
		<layer id="80" name="/1/layer1/layer1.4/layer1.4.0/conv_dw/Reshape_1" type="Reshape" version="opset1">
			<data special_zero="true" />
			<input>
				<port id="0" precision="I64">
					<dim>2</dim>
					<dim>4</dim>
				</port>
				<port id="1" precision="I64">
					<dim>1</dim>
				</port>
			</input>
			<output>
				<port id="2" precision="I64" names="/1/layer1/layer1.4/layer1.4.0/conv_dw/Cast_9_output_0,/1/layer1/layer1.4/layer1.4.0/conv_dw/Reshape_1_output_0">
					<dim>8</dim>
				</port>
			</output>
		</layer>
		<layer id="81" name="Constant_15340" type="Const" version="opset1">
			<data element_type="i64" shape="" offset="11242" size="8" />
			<rt_info>
				<attribute name="precise" version="0" />
			</rt_info>
			<output>
				<port id="0" precision="I64" />
			</output>
		</layer>
		<layer id="82" name="Split_15341" type="Split" version="opset1">
			<data num_splits="2" />
			<input>
				<port id="0" precision="I64">
					<dim>8</dim>
				</port>
				<port id="1" precision="I64" />
			</input>
			<output>
				<port id="2" precision="I64">
					<dim>4</dim>
				</port>
				<port id="3" precision="I64">
					<dim>4</dim>
				</port>
			</output>
		</layer>
		<layer id="83" name="/1/layer1/layer1.4/layer1.4.0/conv_dw/Constant_22_compressed" type="Const" version="opset1">
			<data element_type="f16" shape="" offset="11354" size="2" />
			<output>
				<port id="0" precision="FP16" names="/1/layer1/layer1.4/layer1.4.0/conv_dw/Constant_22_output_0" />
			</output>
		</layer>
		<layer id="84" name="/1/layer1/layer1.4/layer1.4.0/conv_dw/Constant_22" type="Convert" version="opset1">
			<data destination_type="f32" />
			<rt_info>
				<attribute name="decompression" version="0" />
			</rt_info>
			<input>
				<port id="0" precision="FP16" />
			</input>
			<output>
				<port id="1" precision="FP32" />
			</output>
		</layer>
		<layer id="85" name="/1/layer1/layer1.4/layer1.4.0/conv_dw/Pad" type="Pad" version="opset12">
			<data pad_mode="constant" />
			<input>
				<port id="0" precision="FP32">
					<dim>1</dim>
					<dim>144</dim>
					<dim>128</dim>
					<dim>128</dim>
				</port>
				<port id="1" precision="I64">
					<dim>4</dim>
				</port>
				<port id="2" precision="I64">
					<dim>4</dim>
				</port>
				<port id="3" precision="FP32" />
			</input>
			<output>
				<port id="4" precision="FP32" names="/1/layer1/layer1.4/layer1.4.0/conv_dw/Pad_output_0">
					<dim>1</dim>
					<dim>144</dim>
					<dim>129</dim>
					<dim>129</dim>
				</port>
			</output>
		</layer>
		<layer id="86" name="Reshape_15544_compressed" type="Const" version="opset1">
			<data element_type="f16" shape="144, 1, 1, 3, 3" offset="11356" size="2592" />
			<output>
				<port id="0" precision="FP16">
					<dim>144</dim>
					<dim>1</dim>
					<dim>1</dim>
					<dim>3</dim>
					<dim>3</dim>
				</port>
			</output>
		</layer>
		<layer id="87" name="Reshape_15544" type="Convert" version="opset1">
			<data destination_type="f32" />
			<rt_info>
				<attribute name="decompression" version="0" />
			</rt_info>
			<input>
				<port id="0" precision="FP16">
					<dim>144</dim>
					<dim>1</dim>
					<dim>1</dim>
					<dim>3</dim>
					<dim>3</dim>
				</port>
			</input>
			<output>
				<port id="1" precision="FP32">
					<dim>144</dim>
					<dim>1</dim>
					<dim>1</dim>
					<dim>3</dim>
					<dim>3</dim>
				</port>
			</output>
		</layer>
		<layer id="88" name="/1/layer1/layer1.4/layer1.4.0/conv_dw/Conv/WithoutBiases" type="GroupConvolution" version="opset1">
			<data strides="2, 2" pads_begin="0, 0" pads_end="0, 0" dilations="1, 1" auto_pad="explicit" />
			<input>
				<port id="0" precision="FP32">
					<dim>1</dim>
					<dim>144</dim>
					<dim>129</dim>
					<dim>129</dim>
				</port>
				<port id="1" precision="FP32">
					<dim>144</dim>
					<dim>1</dim>
					<dim>1</dim>
					<dim>3</dim>
					<dim>3</dim>
				</port>
			</input>
			<output>
				<port id="2" precision="FP32">
					<dim>1</dim>
					<dim>144</dim>
					<dim>64</dim>
					<dim>64</dim>
				</port>
			</output>
		</layer>
		<layer id="89" name="Reshape_15594_compressed" type="Const" version="opset1">
			<data element_type="f16" shape="1, 144, 1, 1" offset="13948" size="288" />
			<output>
				<port id="0" precision="FP16">
					<dim>1</dim>
					<dim>144</dim>
					<dim>1</dim>
					<dim>1</dim>
				</port>
			</output>
		</layer>
		<layer id="90" name="Reshape_15594" type="Convert" version="opset1">
			<data destination_type="f32" />
			<rt_info>
				<attribute name="decompression" version="0" />
			</rt_info>
			<input>
				<port id="0" precision="FP16">
					<dim>1</dim>
					<dim>144</dim>
					<dim>1</dim>
					<dim>1</dim>
				</port>
			</input>
			<output>
				<port id="1" precision="FP32">
					<dim>1</dim>
					<dim>144</dim>
					<dim>1</dim>
					<dim>1</dim>
				</port>
			</output>
		</layer>
		<layer id="91" name="/1/layer1/layer1.4/layer1.4.0/conv_dw/Conv" type="Add" version="opset1">
			<data auto_broadcast="numpy" />
			<input>
				<port id="0" precision="FP32">
					<dim>1</dim>
					<dim>144</dim>
					<dim>64</dim>
					<dim>64</dim>
				</port>
				<port id="1" precision="FP32">
					<dim>1</dim>
					<dim>144</dim>
					<dim>1</dim>
					<dim>1</dim>
				</port>
			</input>
			<output>
				<port id="2" precision="FP32" names="/1/layer1/layer1.4/layer1.4.0/conv_dw/Conv_output_0">
					<dim>1</dim>
					<dim>144</dim>
					<dim>64</dim>
					<dim>64</dim>
				</port>
			</output>
		</layer>
		<layer id="92" name="/1/layer1/layer1.4/layer1.4.0/act2/Clip" type="Clamp" version="opset1">
			<data min="0" max="6" />
			<input>
				<port id="0" precision="FP32">
					<dim>1</dim>
					<dim>144</dim>
					<dim>64</dim>
					<dim>64</dim>
				</port>
			</input>
			<output>
				<port id="1" precision="FP32" names="/1/layer1/layer1.4/layer1.4.0/act2/Clip_output_0">
					<dim>1</dim>
					<dim>144</dim>
					<dim>64</dim>
					<dim>64</dim>
				</port>
			</output>
		</layer>
		<layer id="93" name="onnx::Conv_1271_compressed" type="Const" version="opset1">
			<data element_type="f16" shape="32, 144, 1, 1" offset="14236" size="9216" />
			<output>
				<port id="0" precision="FP16" names="onnx::Conv_1271">
					<dim>32</dim>
					<dim>144</dim>
					<dim>1</dim>
					<dim>1</dim>
				</port>
			</output>
		</layer>
		<layer id="94" name="onnx::Conv_1271" type="Convert" version="opset1">
			<data destination_type="f32" />
			<rt_info>
				<attribute name="decompression" version="0" />
			</rt_info>
			<input>
				<port id="0" precision="FP16">
					<dim>32</dim>
					<dim>144</dim>
					<dim>1</dim>
					<dim>1</dim>
				</port>
			</input>
			<output>
				<port id="1" precision="FP32">
					<dim>32</dim>
					<dim>144</dim>
					<dim>1</dim>
					<dim>1</dim>
				</port>
			</output>
		</layer>
		<layer id="95" name="/1/layer1/layer1.4/layer1.4.0/conv_pwl/Conv/WithoutBiases" type="Convolution" version="opset1">
			<data strides="1, 1" dilations="1, 1" pads_begin="0, 0" pads_end="0, 0" auto_pad="explicit" />
			<input>
				<port id="0" precision="FP32">
					<dim>1</dim>
					<dim>144</dim>
					<dim>64</dim>
					<dim>64</dim>
				</port>
				<port id="1" precision="FP32">
					<dim>32</dim>
					<dim>144</dim>
					<dim>1</dim>
					<dim>1</dim>
				</port>
			</input>
			<output>
				<port id="2" precision="FP32">
					<dim>1</dim>
					<dim>32</dim>
					<dim>64</dim>
					<dim>64</dim>
				</port>
			</output>
		</layer>
		<layer id="96" name="Reshape_15611" type="Const" version="opset1">
			<data element_type="f32" shape="1, 32, 1, 1" offset="23452" size="128" />
			<output>
				<port id="0" precision="FP32">
					<dim>1</dim>
					<dim>32</dim>
					<dim>1</dim>
					<dim>1</dim>
				</port>
			</output>
		</layer>
		<layer id="97" name="/1/layer1/layer1.4/layer1.4.0/conv_pwl/Conv" type="Add" version="opset1">
			<data auto_broadcast="numpy" />
			<input>
				<port id="0" precision="FP32">
					<dim>1</dim>
					<dim>32</dim>
					<dim>64</dim>
					<dim>64</dim>
				</port>
				<port id="1" precision="FP32">
					<dim>1</dim>
					<dim>32</dim>
					<dim>1</dim>
					<dim>1</dim>
				</port>
			</input>
			<output>
				<port id="2" precision="FP32" names="/1/layer1/layer1.4/layer1.4.0/conv_pwl/Conv_output_0">
					<dim>1</dim>
					<dim>32</dim>
					<dim>64</dim>
					<dim>64</dim>
				</port>
			</output>
		</layer>
		<layer id="98" name="onnx::Conv_1274_compressed" type="Const" version="opset1">
			<data element_type="f16" shape="192, 32, 1, 1" offset="23580" size="12288" />
			<output>
				<port id="0" precision="FP16" names="onnx::Conv_1274">
					<dim>192</dim>
					<dim>32</dim>
					<dim>1</dim>
					<dim>1</dim>
				</port>
			</output>
		</layer>
		<layer id="99" name="onnx::Conv_1274" type="Convert" version="opset1">
			<data destination_type="f32" />
			<rt_info>
				<attribute name="decompression" version="0" />
			</rt_info>
			<input>
				<port id="0" precision="FP16">
					<dim>192</dim>
					<dim>32</dim>
					<dim>1</dim>
					<dim>1</dim>
				</port>
			</input>
			<output>
				<port id="1" precision="FP32">
					<dim>192</dim>
					<dim>32</dim>
					<dim>1</dim>
					<dim>1</dim>
				</port>
			</output>
		</layer>
		<layer id="100" name="/1/layer1/layer1.4/layer1.4.1/conv_pw/Conv/WithoutBiases" type="Convolution" version="opset1">
			<data strides="1, 1" dilations="1, 1" pads_begin="0, 0" pads_end="0, 0" auto_pad="explicit" />
			<input>
				<port id="0" precision="FP32">
					<dim>1</dim>
					<dim>32</dim>
					<dim>64</dim>
					<dim>64</dim>
				</port>
				<port id="1" precision="FP32">
					<dim>192</dim>
					<dim>32</dim>
					<dim>1</dim>
					<dim>1</dim>
				</port>
			</input>
			<output>
				<port id="2" precision="FP32">
					<dim>1</dim>
					<dim>192</dim>
					<dim>64</dim>
					<dim>64</dim>
				</port>
			</output>
		</layer>
		<layer id="101" name="Reshape_15626_compressed" type="Const" version="opset1">
			<data element_type="f16" shape="1, 192, 1, 1" offset="35868" size="384" />
			<output>
				<port id="0" precision="FP16">
					<dim>1</dim>
					<dim>192</dim>
					<dim>1</dim>
					<dim>1</dim>
				</port>
			</output>
		</layer>
		<layer id="102" name="Reshape_15626" type="Convert" version="opset1">
			<data destination_type="f32" />
			<rt_info>
				<attribute name="decompression" version="0" />
			</rt_info>
			<input>
				<port id="0" precision="FP16">
					<dim>1</dim>
					<dim>192</dim>
					<dim>1</dim>
					<dim>1</dim>
				</port>
			</input>
			<output>
				<port id="1" precision="FP32">
					<dim>1</dim>
					<dim>192</dim>
					<dim>1</dim>
					<dim>1</dim>
				</port>
			</output>
		</layer>
		<layer id="103" name="/1/layer1/layer1.4/layer1.4.1/conv_pw/Conv" type="Add" version="opset1">
			<data auto_broadcast="numpy" />
			<input>
				<port id="0" precision="FP32">
					<dim>1</dim>
					<dim>192</dim>
					<dim>64</dim>
					<dim>64</dim>
				</port>
				<port id="1" precision="FP32">
					<dim>1</dim>
					<dim>192</dim>
					<dim>1</dim>
					<dim>1</dim>
				</port>
			</input>
			<output>
				<port id="2" precision="FP32" names="/1/layer1/layer1.4/layer1.4.1/conv_pw/Conv_output_0">
					<dim>1</dim>
					<dim>192</dim>
					<dim>64</dim>
					<dim>64</dim>
				</port>
			</output>
		</layer>
		<layer id="104" name="/1/layer1/layer1.4/layer1.4.1/act1/Clip" type="Clamp" version="opset1">
			<data min="0" max="6" />
			<input>
				<port id="0" precision="FP32">
					<dim>1</dim>
					<dim>192</dim>
					<dim>64</dim>
					<dim>64</dim>
				</port>
			</input>
			<output>
				<port id="1" precision="FP32" names="/1/layer1/layer1.4/layer1.4.1/act1/Clip_output_0">
					<dim>1</dim>
					<dim>192</dim>
					<dim>64</dim>
					<dim>64</dim>
				</port>
			</output>
		</layer>
		<layer id="105" name="Reshape_15639_compressed" type="Const" version="opset1">
			<data element_type="f16" shape="192, 1, 1, 3, 3" offset="36252" size="3456" />
			<output>
				<port id="0" precision="FP16">
					<dim>192</dim>
					<dim>1</dim>
					<dim>1</dim>
					<dim>3</dim>
					<dim>3</dim>
				</port>
			</output>
		</layer>
		<layer id="106" name="Reshape_15639" type="Convert" version="opset1">
			<data destination_type="f32" />
			<rt_info>
				<attribute name="decompression" version="0" />
			</rt_info>
			<input>
				<port id="0" precision="FP16">
					<dim>192</dim>
					<dim>1</dim>
					<dim>1</dim>
					<dim>3</dim>
					<dim>3</dim>
				</port>
			</input>
			<output>
				<port id="1" precision="FP32">
					<dim>192</dim>
					<dim>1</dim>
					<dim>1</dim>
					<dim>3</dim>
					<dim>3</dim>
				</port>
			</output>
		</layer>
		<layer id="107" name="/1/layer1/layer1.4/layer1.4.1/conv_dw/Conv/WithoutBiases" type="GroupConvolution" version="opset1">
			<data strides="1, 1" pads_begin="1, 1" pads_end="1, 1" dilations="1, 1" auto_pad="explicit" />
			<input>
				<port id="0" precision="FP32">
					<dim>1</dim>
					<dim>192</dim>
					<dim>64</dim>
					<dim>64</dim>
				</port>
				<port id="1" precision="FP32">
					<dim>192</dim>
					<dim>1</dim>
					<dim>1</dim>
					<dim>3</dim>
					<dim>3</dim>
				</port>
			</input>
			<output>
				<port id="2" precision="FP32">
					<dim>1</dim>
					<dim>192</dim>
					<dim>64</dim>
					<dim>64</dim>
				</port>
			</output>
		</layer>
		<layer id="108" name="Reshape_15689" type="Const" version="opset1">
			<data element_type="f32" shape="1, 192, 1, 1" offset="39708" size="768" />
			<output>
				<port id="0" precision="FP32">
					<dim>1</dim>
					<dim>192</dim>
					<dim>1</dim>
					<dim>1</dim>
				</port>
			</output>
		</layer>
		<layer id="109" name="/1/layer1/layer1.4/layer1.4.1/conv_dw/Conv" type="Add" version="opset1">
			<data auto_broadcast="numpy" />
			<input>
				<port id="0" precision="FP32">
					<dim>1</dim>
					<dim>192</dim>
					<dim>64</dim>
					<dim>64</dim>
				</port>
				<port id="1" precision="FP32">
					<dim>1</dim>
					<dim>192</dim>
					<dim>1</dim>
					<dim>1</dim>
				</port>
			</input>
			<output>
				<port id="2" precision="FP32" names="/1/layer1/layer1.4/layer1.4.1/conv_dw/Conv_output_0">
					<dim>1</dim>
					<dim>192</dim>
					<dim>64</dim>
					<dim>64</dim>
				</port>
			</output>
		</layer>
		<layer id="110" name="/1/layer1/layer1.4/layer1.4.1/act2/Clip" type="Clamp" version="opset1">
			<data min="0" max="6" />
			<input>
				<port id="0" precision="FP32">
					<dim>1</dim>
					<dim>192</dim>
					<dim>64</dim>
					<dim>64</dim>
				</port>
			</input>
			<output>
				<port id="1" precision="FP32" names="/1/layer1/layer1.4/layer1.4.1/act2/Clip_output_0">
					<dim>1</dim>
					<dim>192</dim>
					<dim>64</dim>
					<dim>64</dim>
				</port>
			</output>
		</layer>
		<layer id="111" name="onnx::Conv_1280_compressed" type="Const" version="opset1">
			<data element_type="f16" shape="32, 192, 1, 1" offset="40476" size="12288" />
			<output>
				<port id="0" precision="FP16" names="onnx::Conv_1280">
					<dim>32</dim>
					<dim>192</dim>
					<dim>1</dim>
					<dim>1</dim>
				</port>
			</output>
		</layer>
		<layer id="112" name="onnx::Conv_1280" type="Convert" version="opset1">
			<data destination_type="f32" />
			<rt_info>
				<attribute name="decompression" version="0" />
			</rt_info>
			<input>
				<port id="0" precision="FP16">
					<dim>32</dim>
					<dim>192</dim>
					<dim>1</dim>
					<dim>1</dim>
				</port>
			</input>
			<output>
				<port id="1" precision="FP32">
					<dim>32</dim>
					<dim>192</dim>
					<dim>1</dim>
					<dim>1</dim>
				</port>
			</output>
		</layer>
		<layer id="113" name="/1/layer1/layer1.4/layer1.4.1/conv_pwl/Conv/WithoutBiases" type="Convolution" version="opset1">
			<data strides="1, 1" dilations="1, 1" pads_begin="0, 0" pads_end="0, 0" auto_pad="explicit" />
			<input>
				<port id="0" precision="FP32">
					<dim>1</dim>
					<dim>192</dim>
					<dim>64</dim>
					<dim>64</dim>
				</port>
				<port id="1" precision="FP32">
					<dim>32</dim>
					<dim>192</dim>
					<dim>1</dim>
					<dim>1</dim>
				</port>
			</input>
			<output>
				<port id="2" precision="FP32">
					<dim>1</dim>
					<dim>32</dim>
					<dim>64</dim>
					<dim>64</dim>
				</port>
			</output>
		</layer>
		<layer id="114" name="Reshape_15706" type="Const" version="opset1">
			<data element_type="f32" shape="1, 32, 1, 1" offset="52764" size="128" />
			<output>
				<port id="0" precision="FP32">
					<dim>1</dim>
					<dim>32</dim>
					<dim>1</dim>
					<dim>1</dim>
				</port>
			</output>
		</layer>
		<layer id="115" name="/1/layer1/layer1.4/layer1.4.1/conv_pwl/Conv" type="Add" version="opset1">
			<data auto_broadcast="numpy" />
			<input>
				<port id="0" precision="FP32">
					<dim>1</dim>
					<dim>32</dim>
					<dim>64</dim>
					<dim>64</dim>
				</port>
				<port id="1" precision="FP32">
					<dim>1</dim>
					<dim>32</dim>
					<dim>1</dim>
					<dim>1</dim>
				</port>
			</input>
			<output>
				<port id="2" precision="FP32" names="/1/layer1/layer1.4/layer1.4.1/conv_pwl/Conv_output_0">
					<dim>1</dim>
					<dim>32</dim>
					<dim>64</dim>
					<dim>64</dim>
				</port>
			</output>
		</layer>
		<layer id="116" name="/1/layer1/layer1.4/layer1.4.1/Add" type="Add" version="opset1">
			<data auto_broadcast="numpy" />
			<input>
				<port id="0" precision="FP32">
					<dim>1</dim>
					<dim>32</dim>
					<dim>64</dim>
					<dim>64</dim>
				</port>
				<port id="1" precision="FP32">
					<dim>1</dim>
					<dim>32</dim>
					<dim>64</dim>
					<dim>64</dim>
				</port>
			</input>
			<output>
				<port id="2" precision="FP32" names="/1/layer1/layer1.4/layer1.4.1/Add_output_0">
					<dim>1</dim>
					<dim>32</dim>
					<dim>64</dim>
					<dim>64</dim>
				</port>
			</output>
		</layer>
		<layer id="117" name="onnx::Conv_1283_compressed" type="Const" version="opset1">
			<data element_type="f16" shape="192, 32, 1, 1" offset="52892" size="12288" />
			<output>
				<port id="0" precision="FP16" names="onnx::Conv_1283">
					<dim>192</dim>
					<dim>32</dim>
					<dim>1</dim>
					<dim>1</dim>
				</port>
			</output>
		</layer>
		<layer id="118" name="onnx::Conv_1283" type="Convert" version="opset1">
			<data destination_type="f32" />
			<rt_info>
				<attribute name="decompression" version="0" />
			</rt_info>
			<input>
				<port id="0" precision="FP16">
					<dim>192</dim>
					<dim>32</dim>
					<dim>1</dim>
					<dim>1</dim>
				</port>
			</input>
			<output>
				<port id="1" precision="FP32">
					<dim>192</dim>
					<dim>32</dim>
					<dim>1</dim>
					<dim>1</dim>
				</port>
			</output>
		</layer>
		<layer id="119" name="/1/layer1/layer1.4/layer1.4.2/conv_pw/Conv/WithoutBiases" type="Convolution" version="opset1">
			<data strides="1, 1" dilations="1, 1" pads_begin="0, 0" pads_end="0, 0" auto_pad="explicit" />
			<input>
				<port id="0" precision="FP32">
					<dim>1</dim>
					<dim>32</dim>
					<dim>64</dim>
					<dim>64</dim>
				</port>
				<port id="1" precision="FP32">
					<dim>192</dim>
					<dim>32</dim>
					<dim>1</dim>
					<dim>1</dim>
				</port>
			</input>
			<output>
				<port id="2" precision="FP32">
					<dim>1</dim>
					<dim>192</dim>
					<dim>64</dim>
					<dim>64</dim>
				</port>
			</output>
		</layer>
		<layer id="120" name="Reshape_15722_compressed" type="Const" version="opset1">
			<data element_type="f16" shape="1, 192, 1, 1" offset="65180" size="384" />
			<output>
				<port id="0" precision="FP16">
					<dim>1</dim>
					<dim>192</dim>
					<dim>1</dim>
					<dim>1</dim>
				</port>
			</output>
		</layer>
		<layer id="121" name="Reshape_15722" type="Convert" version="opset1">
			<data destination_type="f32" />
			<rt_info>
				<attribute name="decompression" version="0" />
			</rt_info>
			<input>
				<port id="0" precision="FP16">
					<dim>1</dim>
					<dim>192</dim>
					<dim>1</dim>
					<dim>1</dim>
				</port>
			</input>
			<output>
				<port id="1" precision="FP32">
					<dim>1</dim>
					<dim>192</dim>
					<dim>1</dim>
					<dim>1</dim>
				</port>
			</output>
		</layer>
		<layer id="122" name="/1/layer1/layer1.4/layer1.4.2/conv_pw/Conv" type="Add" version="opset1">
			<data auto_broadcast="numpy" />
			<input>
				<port id="0" precision="FP32">
					<dim>1</dim>
					<dim>192</dim>
					<dim>64</dim>
					<dim>64</dim>
				</port>
				<port id="1" precision="FP32">
					<dim>1</dim>
					<dim>192</dim>
					<dim>1</dim>
					<dim>1</dim>
				</port>
			</input>
			<output>
				<port id="2" precision="FP32" names="/1/layer1/layer1.4/layer1.4.2/conv_pw/Conv_output_0">
					<dim>1</dim>
					<dim>192</dim>
					<dim>64</dim>
					<dim>64</dim>
				</port>
			</output>
		</layer>
		<layer id="123" name="/1/layer1/layer1.4/layer1.4.2/act1/Clip" type="Clamp" version="opset1">
			<data min="0" max="6" />
			<input>
				<port id="0" precision="FP32">
					<dim>1</dim>
					<dim>192</dim>
					<dim>64</dim>
					<dim>64</dim>
				</port>
			</input>
			<output>
				<port id="1" precision="FP32" names="/1/layer1/layer1.4/layer1.4.2/act1/Clip_output_0">
					<dim>1</dim>
					<dim>192</dim>
					<dim>64</dim>
					<dim>64</dim>
				</port>
			</output>
		</layer>
		<layer id="124" name="Reshape_15735_compressed" type="Const" version="opset1">
			<data element_type="f16" shape="192, 1, 1, 3, 3" offset="65564" size="3456" />
			<output>
				<port id="0" precision="FP16">
					<dim>192</dim>
					<dim>1</dim>
					<dim>1</dim>
					<dim>3</dim>
					<dim>3</dim>
				</port>
			</output>
		</layer>
		<layer id="125" name="Reshape_15735" type="Convert" version="opset1">
			<data destination_type="f32" />
			<rt_info>
				<attribute name="decompression" version="0" />
			</rt_info>
			<input>
				<port id="0" precision="FP16">
					<dim>192</dim>
					<dim>1</dim>
					<dim>1</dim>
					<dim>3</dim>
					<dim>3</dim>
				</port>
			</input>
			<output>
				<port id="1" precision="FP32">
					<dim>192</dim>
					<dim>1</dim>
					<dim>1</dim>
					<dim>3</dim>
					<dim>3</dim>
				</port>
			</output>
		</layer>
		<layer id="126" name="/1/layer1/layer1.4/layer1.4.2/conv_dw/Conv/WithoutBiases" type="GroupConvolution" version="opset1">
			<data strides="1, 1" pads_begin="1, 1" pads_end="1, 1" dilations="1, 1" auto_pad="explicit" />
			<input>
				<port id="0" precision="FP32">
					<dim>1</dim>
					<dim>192</dim>
					<dim>64</dim>
					<dim>64</dim>
				</port>
				<port id="1" precision="FP32">
					<dim>192</dim>
					<dim>1</dim>
					<dim>1</dim>
					<dim>3</dim>
					<dim>3</dim>
				</port>
			</input>
			<output>
				<port id="2" precision="FP32">
					<dim>1</dim>
					<dim>192</dim>
					<dim>64</dim>
					<dim>64</dim>
				</port>
			</output>
		</layer>
		<layer id="127" name="Reshape_15785_compressed" type="Const" version="opset1">
			<data element_type="f16" shape="1, 192, 1, 1" offset="69020" size="384" />
			<output>
				<port id="0" precision="FP16">
					<dim>1</dim>
					<dim>192</dim>
					<dim>1</dim>
					<dim>1</dim>
				</port>
			</output>
		</layer>
		<layer id="128" name="Reshape_15785" type="Convert" version="opset1">
			<data destination_type="f32" />
			<rt_info>
				<attribute name="decompression" version="0" />
			</rt_info>
			<input>
				<port id="0" precision="FP16">
					<dim>1</dim>
					<dim>192</dim>
					<dim>1</dim>
					<dim>1</dim>
				</port>
			</input>
			<output>
				<port id="1" precision="FP32">
					<dim>1</dim>
					<dim>192</dim>
					<dim>1</dim>
					<dim>1</dim>
				</port>
			</output>
		</layer>
		<layer id="129" name="/1/layer1/layer1.4/layer1.4.2/conv_dw/Conv" type="Add" version="opset1">
			<data auto_broadcast="numpy" />
			<input>
				<port id="0" precision="FP32">
					<dim>1</dim>
					<dim>192</dim>
					<dim>64</dim>
					<dim>64</dim>
				</port>
				<port id="1" precision="FP32">
					<dim>1</dim>
					<dim>192</dim>
					<dim>1</dim>
					<dim>1</dim>
				</port>
			</input>
			<output>
				<port id="2" precision="FP32" names="/1/layer1/layer1.4/layer1.4.2/conv_dw/Conv_output_0">
					<dim>1</dim>
					<dim>192</dim>
					<dim>64</dim>
					<dim>64</dim>
				</port>
			</output>
		</layer>
		<layer id="130" name="/1/layer1/layer1.4/layer1.4.2/act2/Clip" type="Clamp" version="opset1">
			<data min="0" max="6" />
			<input>
				<port id="0" precision="FP32">
					<dim>1</dim>
					<dim>192</dim>
					<dim>64</dim>
					<dim>64</dim>
				</port>
			</input>
			<output>
				<port id="1" precision="FP32" names="/1/layer1/layer1.4/layer1.4.2/act2/Clip_output_0">
					<dim>1</dim>
					<dim>192</dim>
					<dim>64</dim>
					<dim>64</dim>
				</port>
			</output>
		</layer>
		<layer id="131" name="onnx::Conv_1289_compressed" type="Const" version="opset1">
			<data element_type="f16" shape="32, 192, 1, 1" offset="69404" size="12288" />
			<output>
				<port id="0" precision="FP16" names="onnx::Conv_1289">
					<dim>32</dim>
					<dim>192</dim>
					<dim>1</dim>
					<dim>1</dim>
				</port>
			</output>
		</layer>
		<layer id="132" name="onnx::Conv_1289" type="Convert" version="opset1">
			<data destination_type="f32" />
			<rt_info>
				<attribute name="decompression" version="0" />
			</rt_info>
			<input>
				<port id="0" precision="FP16">
					<dim>32</dim>
					<dim>192</dim>
					<dim>1</dim>
					<dim>1</dim>
				</port>
			</input>
			<output>
				<port id="1" precision="FP32">
					<dim>32</dim>
					<dim>192</dim>
					<dim>1</dim>
					<dim>1</dim>
				</port>
			</output>
		</layer>
		<layer id="133" name="/1/layer1/layer1.4/layer1.4.2/conv_pwl/Conv/WithoutBiases" type="Convolution" version="opset1">
			<data strides="1, 1" dilations="1, 1" pads_begin="0, 0" pads_end="0, 0" auto_pad="explicit" />
			<input>
				<port id="0" precision="FP32">
					<dim>1</dim>
					<dim>192</dim>
					<dim>64</dim>
					<dim>64</dim>
				</port>
				<port id="1" precision="FP32">
					<dim>32</dim>
					<dim>192</dim>
					<dim>1</dim>
					<dim>1</dim>
				</port>
			</input>
			<output>
				<port id="2" precision="FP32">
					<dim>1</dim>
					<dim>32</dim>
					<dim>64</dim>
					<dim>64</dim>
				</port>
			</output>
		</layer>
		<layer id="134" name="Reshape_15802" type="Const" version="opset1">
			<data element_type="f32" shape="1, 32, 1, 1" offset="81692" size="128" />
			<output>
				<port id="0" precision="FP32">
					<dim>1</dim>
					<dim>32</dim>
					<dim>1</dim>
					<dim>1</dim>
				</port>
			</output>
		</layer>
		<layer id="135" name="/1/layer1/layer1.4/layer1.4.2/conv_pwl/Conv" type="Add" version="opset1">
			<data auto_broadcast="numpy" />
			<input>
				<port id="0" precision="FP32">
					<dim>1</dim>
					<dim>32</dim>
					<dim>64</dim>
					<dim>64</dim>
				</port>
				<port id="1" precision="FP32">
					<dim>1</dim>
					<dim>32</dim>
					<dim>1</dim>
					<dim>1</dim>
				</port>
			</input>
			<output>
				<port id="2" precision="FP32" names="/1/layer1/layer1.4/layer1.4.2/conv_pwl/Conv_output_0">
					<dim>1</dim>
					<dim>32</dim>
					<dim>64</dim>
					<dim>64</dim>
				</port>
			</output>
		</layer>
		<layer id="136" name="/1/layer1/layer1.4/layer1.4.2/Add" type="Add" version="opset1">
			<data auto_broadcast="numpy" />
			<input>
				<port id="0" precision="FP32">
					<dim>1</dim>
					<dim>32</dim>
					<dim>64</dim>
					<dim>64</dim>
				</port>
				<port id="1" precision="FP32">
					<dim>1</dim>
					<dim>32</dim>
					<dim>64</dim>
					<dim>64</dim>
				</port>
			</input>
			<output>
				<port id="2" precision="FP32" names="/1/layer1/layer1.4/layer1.4.2/Add_output_0">
					<dim>1</dim>
					<dim>32</dim>
					<dim>64</dim>
					<dim>64</dim>
				</port>
			</output>
		</layer>
		<layer id="137" name="onnx::Conv_1292_compressed" type="Const" version="opset1">
			<data element_type="f16" shape="192, 32, 1, 1" offset="81820" size="12288" />
			<output>
				<port id="0" precision="FP16" names="onnx::Conv_1292">
					<dim>192</dim>
					<dim>32</dim>
					<dim>1</dim>
					<dim>1</dim>
				</port>
			</output>
		</layer>
		<layer id="138" name="onnx::Conv_1292" type="Convert" version="opset1">
			<data destination_type="f32" />
			<rt_info>
				<attribute name="decompression" version="0" />
			</rt_info>
			<input>
				<port id="0" precision="FP16">
					<dim>192</dim>
					<dim>32</dim>
					<dim>1</dim>
					<dim>1</dim>
				</port>
			</input>
			<output>
				<port id="1" precision="FP32">
					<dim>192</dim>
					<dim>32</dim>
					<dim>1</dim>
					<dim>1</dim>
				</port>
			</output>
		</layer>
		<layer id="139" name="/1/layer2/layer2.0/layer2.0.0/conv_pw/Conv/WithoutBiases" type="Convolution" version="opset1">
			<data strides="1, 1" dilations="1, 1" pads_begin="0, 0" pads_end="0, 0" auto_pad="explicit" />
			<input>
				<port id="0" precision="FP32">
					<dim>1</dim>
					<dim>32</dim>
					<dim>64</dim>
					<dim>64</dim>
				</port>
				<port id="1" precision="FP32">
					<dim>192</dim>
					<dim>32</dim>
					<dim>1</dim>
					<dim>1</dim>
				</port>
			</input>
			<output>
				<port id="2" precision="FP32">
					<dim>1</dim>
					<dim>192</dim>
					<dim>64</dim>
					<dim>64</dim>
				</port>
			</output>
		</layer>
		<layer id="140" name="Reshape_15818_compressed" type="Const" version="opset1">
			<data element_type="f16" shape="1, 192, 1, 1" offset="94108" size="384" />
			<output>
				<port id="0" precision="FP16">
					<dim>1</dim>
					<dim>192</dim>
					<dim>1</dim>
					<dim>1</dim>
				</port>
			</output>
		</layer>
		<layer id="141" name="Reshape_15818" type="Convert" version="opset1">
			<data destination_type="f32" />
			<rt_info>
				<attribute name="decompression" version="0" />
			</rt_info>
			<input>
				<port id="0" precision="FP16">
					<dim>1</dim>
					<dim>192</dim>
					<dim>1</dim>
					<dim>1</dim>
				</port>
			</input>
			<output>
				<port id="1" precision="FP32">
					<dim>1</dim>
					<dim>192</dim>
					<dim>1</dim>
					<dim>1</dim>
				</port>
			</output>
		</layer>
		<layer id="142" name="/1/layer2/layer2.0/layer2.0.0/conv_pw/Conv" type="Add" version="opset1">
			<data auto_broadcast="numpy" />
			<input>
				<port id="0" precision="FP32">
					<dim>1</dim>
					<dim>192</dim>
					<dim>64</dim>
					<dim>64</dim>
				</port>
				<port id="1" precision="FP32">
					<dim>1</dim>
					<dim>192</dim>
					<dim>1</dim>
					<dim>1</dim>
				</port>
			</input>
			<output>
				<port id="2" precision="FP32" names="/1/layer2/layer2.0/layer2.0.0/conv_pw/Conv_output_0">
					<dim>1</dim>
					<dim>192</dim>
					<dim>64</dim>
					<dim>64</dim>
				</port>
			</output>
		</layer>
		<layer id="143" name="/1/layer2/layer2.0/layer2.0.0/act1/Clip" type="Clamp" version="opset1">
			<data min="0" max="6" />
			<input>
				<port id="0" precision="FP32">
					<dim>1</dim>
					<dim>192</dim>
					<dim>64</dim>
					<dim>64</dim>
				</port>
			</input>
			<output>
				<port id="1" precision="FP32" names="/1/layer2/layer2.0/layer2.0.0/act1/Clip_output_0">
					<dim>1</dim>
					<dim>192</dim>
					<dim>64</dim>
					<dim>64</dim>
				</port>
			</output>
		</layer>
		<layer id="144" name="ShapeOf_30262" type="ShapeOf" version="opset3">
			<data output_type="i64" />
			<input>
				<port id="0" precision="FP32">
					<dim>1</dim>
					<dim>192</dim>
					<dim>64</dim>
					<dim>64</dim>
				</port>
			</input>
			<output>
				<port id="1" precision="I64">
					<dim>4</dim>
				</port>
			</output>
		</layer>
		<layer id="145" name="Constant_30263" type="Const" version="opset1">
			<data element_type="i64" shape="" offset="11234" size="8" />
			<rt_info>
				<attribute name="precise" version="0" />
			</rt_info>
			<output>
				<port id="0" precision="I64" />
			</output>
		</layer>
		<layer id="146" name="Constant_30264" type="Const" version="opset1">
			<data element_type="i64" shape="" offset="11242" size="8" />
			<rt_info>
				<attribute name="precise" version="0" />
			</rt_info>
			<output>
				<port id="0" precision="I64" />
			</output>
		</layer>
		<layer id="147" name="Gather_30265" type="Gather" version="opset8">
			<data batch_dims="0" />
			<input>
				<port id="0" precision="I64">
					<dim>4</dim>
				</port>
				<port id="1" precision="I64" />
				<port id="2" precision="I64" />
			</input>
			<output>
				<port id="3" precision="I64" names="/1/layer2/layer2.0/layer2.0.0/conv_dw/Gather_1_output_0" />
			</output>
		</layer>
		<layer id="148" name="/1/layer2/layer2.0/layer2.0.0/conv_dw/Constant_7" type="Const" version="opset1">
			<data element_type="i64" shape="" offset="11250" size="8" />
			<rt_info>
				<attribute name="precise" version="0" />
			</rt_info>
			<output>
				<port id="0" precision="I64" names="/1/layer2/layer2.0/layer2.0.0/conv_dw/Constant_7_output_0" />
			</output>
		</layer>
		<layer id="149" name="/1/layer2/layer2.0/layer2.0.0/conv_dw/Div_1" type="Divide" version="opset1">
			<data auto_broadcast="numpy" m_pythondiv="true" />
			<input>
				<port id="0" precision="I64" />
				<port id="1" precision="I64" />
			</input>
			<output>
				<port id="2" precision="I64" names="/1/layer2/layer2.0/layer2.0.0/conv_dw/Cast_2_output_0,/1/layer2/layer2.0/layer2.0.0/conv_dw/Cast_3_output_0,/1/layer2/layer2.0/layer2.0.0/conv_dw/Div_1_output_0" />
			</output>
		</layer>
		<layer id="150" name="Constant_27457" type="Const" version="opset1">
			<data element_type="i64" shape="" offset="11250" size="8" />
			<rt_info>
				<attribute name="precise" version="0" />
			</rt_info>
			<output>
				<port id="0" precision="I64" />
			</output>
		</layer>
		<layer id="151" name="Multiply_27452" type="Multiply" version="opset1">
			<data auto_broadcast="numpy" />
			<input>
				<port id="0" precision="I64" />
				<port id="1" precision="I64" />
			</input>
			<output>
				<port id="2" precision="I64" />
			</output>
		</layer>
		<layer id="152" name="Constant_27463" type="Const" version="opset1">
			<data element_type="i64" shape="" offset="11234" size="8" />
			<rt_info>
				<attribute name="precise" version="0" />
			</rt_info>
			<output>
				<port id="0" precision="I64" />
			</output>
		</layer>
		<layer id="153" name="/1/layer2/layer2.0/layer2.0.0/conv_dw/Add_3" type="Add" version="opset1">
			<data auto_broadcast="numpy" />
			<input>
				<port id="0" precision="I64" />
				<port id="1" precision="I64" />
			</input>
			<output>
				<port id="2" precision="I64" names="/1/layer2/layer2.0/layer2.0.0/conv_dw/Add_3_output_0" />
			</output>
		</layer>
		<layer id="154" name="/1/layer2/layer2.0/layer2.0.0/conv_dw/Sub_3" type="Subtract" version="opset1">
			<data auto_broadcast="numpy" />
			<input>
				<port id="0" precision="I64" />
				<port id="1" precision="I64" />
			</input>
			<output>
				<port id="2" precision="I64" names="/1/layer2/layer2.0/layer2.0.0/conv_dw/Sub_3_output_0" />
			</output>
		</layer>
		<layer id="155" name="/1/layer2/layer2.0/layer2.0.0/conv_dw/Constant_12" type="Const" version="opset1">
			<data element_type="i64" shape="" offset="11266" size="8" />
			<rt_info>
				<attribute name="precise" version="0" />
			</rt_info>
			<output>
				<port id="0" precision="I64" names="/1/layer2/layer2.0/layer2.0.0/conv_dw/Constant_12_output_0" />
			</output>
		</layer>
		<layer id="156" name="/1/layer2/layer2.0/layer2.0.0/conv_dw/Div_2" type="Divide" version="opset1">
			<data auto_broadcast="numpy" m_pythondiv="true" />
			<input>
				<port id="0" precision="I64" />
				<port id="1" precision="I64" />
			</input>
			<output>
				<port id="2" precision="I64" names="/1/layer2/layer2.0/layer2.0.0/conv_dw/Cast_4_output_0,/1/layer2/layer2.0/layer2.0.0/conv_dw/Cast_5_output_0,/1/layer2/layer2.0/layer2.0.0/conv_dw/Div_2_output_0" />
			</output>
		</layer>
		<layer id="157" name="Constant_199" type="Const" version="opset1">
			<data element_type="i64" shape="1" offset="11242" size="8" />
			<rt_info>
				<attribute name="precise" version="0" />
			</rt_info>
			<output>
				<port id="0" precision="I64" names="onnx::Unsqueeze_725">
					<dim>1</dim>
				</port>
			</output>
		</layer>
		<layer id="158" name="/1/layer2/layer2.0/layer2.0.0/conv_dw/Unsqueeze_4" type="Unsqueeze" version="opset1">
			<input>
				<port id="0" precision="I64" />
				<port id="1" precision="I64">
					<dim>1</dim>
				</port>
			</input>
			<output>
				<port id="2" precision="I64" names="/1/layer2/layer2.0/layer2.0.0/conv_dw/Unsqueeze_4_output_0,/1/layer2/layer2.0/layer2.0.0/conv_dw/Unsqueeze_output_0">
					<dim>1</dim>
				</port>
			</output>
		</layer>
		<layer id="159" name="/1/layer2/layer2.0/layer2.0.0/conv_dw/Sub_4" type="Subtract" version="opset1">
			<data auto_broadcast="numpy" />
			<input>
				<port id="0" precision="I64" />
				<port id="1" precision="I64" />
			</input>
			<output>
				<port id="2" precision="I64" names="/1/layer2/layer2.0/layer2.0.0/conv_dw/Sub_4_output_0" />
			</output>
		</layer>
		<layer id="160" name="Constant_201" type="Const" version="opset1">
			<data element_type="i64" shape="1" offset="11242" size="8" />
			<rt_info>
				<attribute name="precise" version="0" />
			</rt_info>
			<output>
				<port id="0" precision="I64" names="onnx::Unsqueeze_727">
					<dim>1</dim>
				</port>
			</output>
		</layer>
		<layer id="161" name="/1/layer2/layer2.0/layer2.0.0/conv_dw/Unsqueeze_5" type="Unsqueeze" version="opset1">
			<input>
				<port id="0" precision="I64" />
				<port id="1" precision="I64">
					<dim>1</dim>
				</port>
			</input>
			<output>
				<port id="2" precision="I64" names="/1/layer2/layer2.0/layer2.0.0/conv_dw/Unsqueeze_1_output_0,/1/layer2/layer2.0/layer2.0.0/conv_dw/Unsqueeze_5_output_0">
					<dim>1</dim>
				</port>
			</output>
		</layer>
		<layer id="162" name="Constant_30267" type="Const" version="opset1">
			<data element_type="i64" shape="" offset="11266" size="8" />
			<rt_info>
				<attribute name="precise" version="0" />
			</rt_info>
			<output>
				<port id="0" precision="I64" />
			</output>
		</layer>
		<layer id="163" name="Constant_30268" type="Const" version="opset1">
			<data element_type="i64" shape="" offset="11242" size="8" />
			<rt_info>
				<attribute name="precise" version="0" />
			</rt_info>
			<output>
				<port id="0" precision="I64" />
			</output>
		</layer>
		<layer id="164" name="Gather_30269" type="Gather" version="opset8">
			<data batch_dims="0" />
			<input>
				<port id="0" precision="I64">
					<dim>4</dim>
				</port>
				<port id="1" precision="I64" />
				<port id="2" precision="I64" />
			</input>
			<output>
				<port id="3" precision="I64" names="/1/layer2/layer2.0/layer2.0.0/conv_dw/Gather_output_0" />
			</output>
		</layer>
		<layer id="165" name="/1/layer2/layer2.0/layer2.0.0/conv_dw/Constant_2" type="Const" version="opset1">
			<data element_type="i64" shape="" offset="11250" size="8" />
			<rt_info>
				<attribute name="precise" version="0" />
			</rt_info>
			<output>
				<port id="0" precision="I64" names="/1/layer2/layer2.0/layer2.0.0/conv_dw/Constant_2_output_0" />
			</output>
		</layer>
		<layer id="166" name="/1/layer2/layer2.0/layer2.0.0/conv_dw/Div" type="Divide" version="opset1">
			<data auto_broadcast="numpy" m_pythondiv="true" />
			<input>
				<port id="0" precision="I64" />
				<port id="1" precision="I64" />
			</input>
			<output>
				<port id="2" precision="I64" names="/1/layer2/layer2.0/layer2.0.0/conv_dw/Cast_1_output_0,/1/layer2/layer2.0/layer2.0.0/conv_dw/Cast_output_0,/1/layer2/layer2.0/layer2.0.0/conv_dw/Div_output_0" />
			</output>
		</layer>
		<layer id="167" name="Constant_27470" type="Const" version="opset1">
			<data element_type="i64" shape="" offset="11250" size="8" />
			<rt_info>
				<attribute name="precise" version="0" />
			</rt_info>
			<output>
				<port id="0" precision="I64" />
			</output>
		</layer>
		<layer id="168" name="Multiply_27465" type="Multiply" version="opset1">
			<data auto_broadcast="numpy" />
			<input>
				<port id="0" precision="I64" />
				<port id="1" precision="I64" />
			</input>
			<output>
				<port id="2" precision="I64" />
			</output>
		</layer>
		<layer id="169" name="Constant_27476" type="Const" version="opset1">
			<data element_type="i64" shape="" offset="11234" size="8" />
			<rt_info>
				<attribute name="precise" version="0" />
			</rt_info>
			<output>
				<port id="0" precision="I64" />
			</output>
		</layer>
		<layer id="170" name="/1/layer2/layer2.0/layer2.0.0/conv_dw/Add_1" type="Add" version="opset1">
			<data auto_broadcast="numpy" />
			<input>
				<port id="0" precision="I64" />
				<port id="1" precision="I64" />
			</input>
			<output>
				<port id="2" precision="I64" names="/1/layer2/layer2.0/layer2.0.0/conv_dw/Add_1_output_0" />
			</output>
		</layer>
		<layer id="171" name="/1/layer2/layer2.0/layer2.0.0/conv_dw/Sub_1" type="Subtract" version="opset1">
			<data auto_broadcast="numpy" />
			<input>
				<port id="0" precision="I64" />
				<port id="1" precision="I64" />
			</input>
			<output>
				<port id="2" precision="I64" names="/1/layer2/layer2.0/layer2.0.0/conv_dw/Sub_1_output_0" />
			</output>
		</layer>
		<layer id="172" name="/1/layer2/layer2.0/layer2.0.0/conv_dw/Constant_13" type="Const" version="opset1">
			<data element_type="i64" shape="" offset="11266" size="8" />
			<rt_info>
				<attribute name="precise" version="0" />
			</rt_info>
			<output>
				<port id="0" precision="I64" names="/1/layer2/layer2.0/layer2.0.0/conv_dw/Constant_13_output_0" />
			</output>
		</layer>
		<layer id="173" name="/1/layer2/layer2.0/layer2.0.0/conv_dw/Div_3" type="Divide" version="opset1">
			<data auto_broadcast="numpy" m_pythondiv="true" />
			<input>
				<port id="0" precision="I64" />
				<port id="1" precision="I64" />
			</input>
			<output>
				<port id="2" precision="I64" names="/1/layer2/layer2.0/layer2.0.0/conv_dw/Cast_6_output_0,/1/layer2/layer2.0/layer2.0.0/conv_dw/Cast_7_output_0,/1/layer2/layer2.0/layer2.0.0/conv_dw/Div_3_output_0" />
			</output>
		</layer>
		<layer id="174" name="Constant_203" type="Const" version="opset1">
			<data element_type="i64" shape="1" offset="11242" size="8" />
			<rt_info>
				<attribute name="precise" version="0" />
			</rt_info>
			<output>
				<port id="0" precision="I64" names="onnx::Unsqueeze_729">
					<dim>1</dim>
				</port>
			</output>
		</layer>
		<layer id="175" name="/1/layer2/layer2.0/layer2.0.0/conv_dw/Unsqueeze_6" type="Unsqueeze" version="opset1">
			<input>
				<port id="0" precision="I64" />
				<port id="1" precision="I64">
					<dim>1</dim>
				</port>
			</input>
			<output>
				<port id="2" precision="I64" names="/1/layer2/layer2.0/layer2.0.0/conv_dw/Unsqueeze_2_output_0,/1/layer2/layer2.0/layer2.0.0/conv_dw/Unsqueeze_6_output_0">
					<dim>1</dim>
				</port>
			</output>
		</layer>
		<layer id="176" name="/1/layer2/layer2.0/layer2.0.0/conv_dw/Sub_5" type="Subtract" version="opset1">
			<data auto_broadcast="numpy" />
			<input>
				<port id="0" precision="I64" />
				<port id="1" precision="I64" />
			</input>
			<output>
				<port id="2" precision="I64" names="/1/layer2/layer2.0/layer2.0.0/conv_dw/Sub_5_output_0" />
			</output>
		</layer>
		<layer id="177" name="Constant_205" type="Const" version="opset1">
			<data element_type="i64" shape="1" offset="11242" size="8" />
			<rt_info>
				<attribute name="precise" version="0" />
			</rt_info>
			<output>
				<port id="0" precision="I64" names="onnx::Unsqueeze_731">
					<dim>1</dim>
				</port>
			</output>
		</layer>
		<layer id="178" name="/1/layer2/layer2.0/layer2.0.0/conv_dw/Unsqueeze_7" type="Unsqueeze" version="opset1">
			<input>
				<port id="0" precision="I64" />
				<port id="1" precision="I64">
					<dim>1</dim>
				</port>
			</input>
			<output>
				<port id="2" precision="I64" names="/1/layer2/layer2.0/layer2.0.0/conv_dw/Unsqueeze_3_output_0,/1/layer2/layer2.0/layer2.0.0/conv_dw/Unsqueeze_7_output_0">
					<dim>1</dim>
				</port>
			</output>
		</layer>
		<layer id="179" name="/1/layer2/layer2.0/layer2.0.0/conv_dw/ConstantOfShape" type="Const" version="opset1">
			<data element_type="i64" shape="4" offset="11274" size="32" />
			<rt_info>
				<attribute name="precise" version="0" />
			</rt_info>
			<output>
				<port id="0" precision="I64" names="/1/layer2/layer2.0/layer2.0.0/conv_dw/ConstantOfShape_output_0">
					<dim>4</dim>
				</port>
			</output>
		</layer>
		<layer id="180" name="/1/layer2/layer2.0/layer2.0.0/conv_dw/Concat_2" type="Concat" version="opset1">
			<data axis="0" />
			<input>
				<port id="0" precision="I64">
					<dim>1</dim>
				</port>
				<port id="1" precision="I64">
					<dim>1</dim>
				</port>
				<port id="2" precision="I64">
					<dim>1</dim>
				</port>
				<port id="3" precision="I64">
					<dim>1</dim>
				</port>
				<port id="4" precision="I64">
					<dim>4</dim>
				</port>
			</input>
			<output>
				<port id="5" precision="I64" names="/1/layer2/layer2.0/layer2.0.0/conv_dw/Concat_2_output_0">
					<dim>8</dim>
				</port>
			</output>
		</layer>
		<layer id="181" name="/1/layer2/layer2.0/layer2.0.0/conv_dw/Constant_16" type="Const" version="opset1">
			<data element_type="i64" shape="2" offset="11306" size="16" />
			<rt_info>
				<attribute name="precise" version="0" />
			</rt_info>
			<output>
				<port id="0" precision="I64" names="/1/layer2/layer2.0/layer2.0.0/conv_dw/Constant_16_output_0">
					<dim>2</dim>
				</port>
			</output>
		</layer>
		<layer id="182" name="/1/layer2/layer2.0/layer2.0.0/conv_dw/Reshape" type="Reshape" version="opset1">
			<data special_zero="true" />
			<input>
				<port id="0" precision="I64">
					<dim>8</dim>
				</port>
				<port id="1" precision="I64">
					<dim>2</dim>
				</port>
			</input>
			<output>
				<port id="2" precision="I64" names="/1/layer2/layer2.0/layer2.0.0/conv_dw/Reshape_output_0">
					<dim>4</dim>
					<dim>2</dim>
				</port>
			</output>
		</layer>
		<layer id="183" name="/1/layer2/layer2.0/layer2.0.0/conv_dw/Constant_18" type="Const" version="opset1">
			<data element_type="i64" shape="1" offset="11322" size="8" />
			<rt_info>
				<attribute name="precise" version="0" />
			</rt_info>
			<output>
				<port id="0" precision="I64" names="/1/layer2/layer2.0/layer2.0.0/conv_dw/Constant_18_output_0">
					<dim>1</dim>
				</port>
			</output>
		</layer>
		<layer id="184" name="/1/layer2/layer2.0/layer2.0.0/conv_dw/Constant_19" type="Const" version="opset1">
			<data element_type="i64" shape="1" offset="11330" size="8" />
			<rt_info>
				<attribute name="precise" version="0" />
			</rt_info>
			<output>
				<port id="0" precision="I64" names="/1/layer2/layer2.0/layer2.0.0/conv_dw/Constant_19_output_0">
					<dim>1</dim>
				</port>
			</output>
		</layer>
		<layer id="185" name="/1/layer2/layer2.0/layer2.0.0/conv_dw/Constant_20" type="Const" version="opset1">
			<data element_type="i64" shape="1" offset="11322" size="8" />
			<rt_info>
				<attribute name="precise" version="0" />
			</rt_info>
			<output>
				<port id="0" precision="I64" names="/1/layer2/layer2.0/layer2.0.0/conv_dw/Constant_20_output_0">
					<dim>1</dim>
				</port>
			</output>
		</layer>
		<layer id="186" name="/1/layer2/layer2.0/layer2.0.0/conv_dw/Constant_17" type="Const" version="opset1">
			<data element_type="i64" shape="1" offset="11242" size="8" />
			<rt_info>
				<attribute name="precise" version="0" />
			</rt_info>
			<output>
				<port id="0" precision="I64" names="/1/layer2/layer2.0/layer2.0.0/conv_dw/Constant_17_output_0">
					<dim>1</dim>
				</port>
			</output>
		</layer>
		<layer id="187" name="/1/layer2/layer2.0/layer2.0.0/conv_dw/Slice" type="Slice" version="opset8">
			<input>
				<port id="0" precision="I64">
					<dim>4</dim>
					<dim>2</dim>
				</port>
				<port id="1" precision="I64">
					<dim>1</dim>
				</port>
				<port id="2" precision="I64">
					<dim>1</dim>
				</port>
				<port id="3" precision="I64">
					<dim>1</dim>
				</port>
				<port id="4" precision="I64">
					<dim>1</dim>
				</port>
			</input>
			<output>
				<port id="5" precision="I64" names="/1/layer2/layer2.0/layer2.0.0/conv_dw/Slice_output_0">
					<dim>4</dim>
					<dim>2</dim>
				</port>
			</output>
		</layer>
		<layer id="188" name="Constant_15913" type="Const" version="opset1">
			<data element_type="i64" shape="2" offset="11338" size="16" />
			<rt_info>
				<attribute name="precise" version="0" />
			</rt_info>
			<output>
				<port id="0" precision="I64">
					<dim>2</dim>
				</port>
			</output>
		</layer>
		<layer id="189" name="/1/layer2/layer2.0/layer2.0.0/conv_dw/Transpose" type="Transpose" version="opset1">
			<input>
				<port id="0" precision="I64">
					<dim>4</dim>
					<dim>2</dim>
				</port>
				<port id="1" precision="I64">
					<dim>2</dim>
				</port>
			</input>
			<output>
				<port id="2" precision="I64" names="/1/layer2/layer2.0/layer2.0.0/conv_dw/Transpose_output_0">
					<dim>2</dim>
					<dim>4</dim>
				</port>
			</output>
		</layer>
		<layer id="190" name="Constant_20605" type="Const" version="opset1">
			<data element_type="i64" shape="1" offset="11322" size="8" />
			<rt_info>
				<attribute name="precise" version="0" />
			</rt_info>
			<output>
				<port id="0" precision="I64">
					<dim>1</dim>
				</port>
			</output>
		</layer>
		<layer id="191" name="/1/layer2/layer2.0/layer2.0.0/conv_dw/Reshape_1" type="Reshape" version="opset1">
			<data special_zero="true" />
			<input>
				<port id="0" precision="I64">
					<dim>2</dim>
					<dim>4</dim>
				</port>
				<port id="1" precision="I64">
					<dim>1</dim>
				</port>
			</input>
			<output>
				<port id="2" precision="I64" names="/1/layer2/layer2.0/layer2.0.0/conv_dw/Cast_9_output_0,/1/layer2/layer2.0/layer2.0.0/conv_dw/Reshape_1_output_0">
					<dim>8</dim>
				</port>
			</output>
		</layer>
		<layer id="192" name="Constant_15917" type="Const" version="opset1">
			<data element_type="i64" shape="" offset="11242" size="8" />
			<rt_info>
				<attribute name="precise" version="0" />
			</rt_info>
			<output>
				<port id="0" precision="I64" />
			</output>
		</layer>
		<layer id="193" name="Split_15918" type="Split" version="opset1">
			<data num_splits="2" />
			<input>
				<port id="0" precision="I64">
					<dim>8</dim>
				</port>
				<port id="1" precision="I64" />
			</input>
			<output>
				<port id="2" precision="I64">
					<dim>4</dim>
				</port>
				<port id="3" precision="I64">
					<dim>4</dim>
				</port>
			</output>
		</layer>
		<layer id="194" name="/1/layer2/layer2.0/layer2.0.0/conv_dw/Constant_22_compressed" type="Const" version="opset1">
			<data element_type="f16" shape="" offset="11354" size="2" />
			<output>
				<port id="0" precision="FP16" names="/1/layer2/layer2.0/layer2.0.0/conv_dw/Constant_22_output_0" />
			</output>
		</layer>
		<layer id="195" name="/1/layer2/layer2.0/layer2.0.0/conv_dw/Constant_22" type="Convert" version="opset1">
			<data destination_type="f32" />
			<rt_info>
				<attribute name="decompression" version="0" />
			</rt_info>
			<input>
				<port id="0" precision="FP16" />
			</input>
			<output>
				<port id="1" precision="FP32" />
			</output>
		</layer>
		<layer id="196" name="/1/layer2/layer2.0/layer2.0.0/conv_dw/Pad" type="Pad" version="opset12">
			<data pad_mode="constant" />
			<input>
				<port id="0" precision="FP32">
					<dim>1</dim>
					<dim>192</dim>
					<dim>64</dim>
					<dim>64</dim>
				</port>
				<port id="1" precision="I64">
					<dim>4</dim>
				</port>
				<port id="2" precision="I64">
					<dim>4</dim>
				</port>
				<port id="3" precision="FP32" />
			</input>
			<output>
				<port id="4" precision="FP32" names="/1/layer2/layer2.0/layer2.0.0/conv_dw/Pad_output_0">
					<dim>1</dim>
					<dim>192</dim>
					<dim>67</dim>
					<dim>67</dim>
				</port>
			</output>
		</layer>
		<layer id="197" name="Reshape_16121_compressed" type="Const" version="opset1">
			<data element_type="f16" shape="192, 1, 1, 5, 5" offset="94492" size="9600" />
			<output>
				<port id="0" precision="FP16">
					<dim>192</dim>
					<dim>1</dim>
					<dim>1</dim>
					<dim>5</dim>
					<dim>5</dim>
				</port>
			</output>
		</layer>
		<layer id="198" name="Reshape_16121" type="Convert" version="opset1">
			<data destination_type="f32" />
			<rt_info>
				<attribute name="decompression" version="0" />
			</rt_info>
			<input>
				<port id="0" precision="FP16">
					<dim>192</dim>
					<dim>1</dim>
					<dim>1</dim>
					<dim>5</dim>
					<dim>5</dim>
				</port>
			</input>
			<output>
				<port id="1" precision="FP32">
					<dim>192</dim>
					<dim>1</dim>
					<dim>1</dim>
					<dim>5</dim>
					<dim>5</dim>
				</port>
			</output>
		</layer>
		<layer id="199" name="/1/layer2/layer2.0/layer2.0.0/conv_dw/Conv/WithoutBiases" type="GroupConvolution" version="opset1">
			<data strides="2, 2" pads_begin="0, 0" pads_end="0, 0" dilations="1, 1" auto_pad="explicit" />
			<input>
				<port id="0" precision="FP32">
					<dim>1</dim>
					<dim>192</dim>
					<dim>67</dim>
					<dim>67</dim>
				</port>
				<port id="1" precision="FP32">
					<dim>192</dim>
					<dim>1</dim>
					<dim>1</dim>
					<dim>5</dim>
					<dim>5</dim>
				</port>
			</input>
			<output>
				<port id="2" precision="FP32">
					<dim>1</dim>
					<dim>192</dim>
					<dim>32</dim>
					<dim>32</dim>
				</port>
			</output>
		</layer>
		<layer id="200" name="Reshape_16171_compressed" type="Const" version="opset1">
			<data element_type="f16" shape="1, 192, 1, 1" offset="104092" size="384" />
			<output>
				<port id="0" precision="FP16">
					<dim>1</dim>
					<dim>192</dim>
					<dim>1</dim>
					<dim>1</dim>
				</port>
			</output>
		</layer>
		<layer id="201" name="Reshape_16171" type="Convert" version="opset1">
			<data destination_type="f32" />
			<rt_info>
				<attribute name="decompression" version="0" />
			</rt_info>
			<input>
				<port id="0" precision="FP16">
					<dim>1</dim>
					<dim>192</dim>
					<dim>1</dim>
					<dim>1</dim>
				</port>
			</input>
			<output>
				<port id="1" precision="FP32">
					<dim>1</dim>
					<dim>192</dim>
					<dim>1</dim>
					<dim>1</dim>
				</port>
			</output>
		</layer>
		<layer id="202" name="/1/layer2/layer2.0/layer2.0.0/conv_dw/Conv" type="Add" version="opset1">
			<data auto_broadcast="numpy" />
			<input>
				<port id="0" precision="FP32">
					<dim>1</dim>
					<dim>192</dim>
					<dim>32</dim>
					<dim>32</dim>
				</port>
				<port id="1" precision="FP32">
					<dim>1</dim>
					<dim>192</dim>
					<dim>1</dim>
					<dim>1</dim>
				</port>
			</input>
			<output>
				<port id="2" precision="FP32" names="/1/layer2/layer2.0/layer2.0.0/conv_dw/Conv_output_0">
					<dim>1</dim>
					<dim>192</dim>
					<dim>32</dim>
					<dim>32</dim>
				</port>
			</output>
		</layer>
		<layer id="203" name="/1/layer2/layer2.0/layer2.0.0/act2/Clip" type="Clamp" version="opset1">
			<data min="0" max="6" />
			<input>
				<port id="0" precision="FP32">
					<dim>1</dim>
					<dim>192</dim>
					<dim>32</dim>
					<dim>32</dim>
				</port>
			</input>
			<output>
				<port id="1" precision="FP32" names="/1/layer2/layer2.0/layer2.0.0/act2/Clip_output_0">
					<dim>1</dim>
					<dim>192</dim>
					<dim>32</dim>
					<dim>32</dim>
				</port>
			</output>
		</layer>
		<layer id="204" name="onnx::Conv_1298_compressed" type="Const" version="opset1">
			<data element_type="f16" shape="48, 192, 1, 1" offset="104476" size="18432" />
			<output>
				<port id="0" precision="FP16" names="onnx::Conv_1298">
					<dim>48</dim>
					<dim>192</dim>
					<dim>1</dim>
					<dim>1</dim>
				</port>
			</output>
		</layer>
		<layer id="205" name="onnx::Conv_1298" type="Convert" version="opset1">
			<data destination_type="f32" />
			<rt_info>
				<attribute name="decompression" version="0" />
			</rt_info>
			<input>
				<port id="0" precision="FP16">
					<dim>48</dim>
					<dim>192</dim>
					<dim>1</dim>
					<dim>1</dim>
				</port>
			</input>
			<output>
				<port id="1" precision="FP32">
					<dim>48</dim>
					<dim>192</dim>
					<dim>1</dim>
					<dim>1</dim>
				</port>
			</output>
		</layer>
		<layer id="206" name="/1/layer2/layer2.0/layer2.0.0/conv_pwl/Conv/WithoutBiases" type="Convolution" version="opset1">
			<data strides="1, 1" dilations="1, 1" pads_begin="0, 0" pads_end="0, 0" auto_pad="explicit" />
			<input>
				<port id="0" precision="FP32">
					<dim>1</dim>
					<dim>192</dim>
					<dim>32</dim>
					<dim>32</dim>
				</port>
				<port id="1" precision="FP32">
					<dim>48</dim>
					<dim>192</dim>
					<dim>1</dim>
					<dim>1</dim>
				</port>
			</input>
			<output>
				<port id="2" precision="FP32">
					<dim>1</dim>
					<dim>48</dim>
					<dim>32</dim>
					<dim>32</dim>
				</port>
			</output>
		</layer>
		<layer id="207" name="Reshape_16188" type="Const" version="opset1">
			<data element_type="f32" shape="1, 48, 1, 1" offset="122908" size="192" />
			<output>
				<port id="0" precision="FP32">
					<dim>1</dim>
					<dim>48</dim>
					<dim>1</dim>
					<dim>1</dim>
				</port>
			</output>
		</layer>
		<layer id="208" name="/1/layer2/layer2.0/layer2.0.0/conv_pwl/Conv" type="Add" version="opset1">
			<data auto_broadcast="numpy" />
			<input>
				<port id="0" precision="FP32">
					<dim>1</dim>
					<dim>48</dim>
					<dim>32</dim>
					<dim>32</dim>
				</port>
				<port id="1" precision="FP32">
					<dim>1</dim>
					<dim>48</dim>
					<dim>1</dim>
					<dim>1</dim>
				</port>
			</input>
			<output>
				<port id="2" precision="FP32" names="/1/layer2/layer2.0/layer2.0.0/conv_pwl/Conv_output_0">
					<dim>1</dim>
					<dim>48</dim>
					<dim>32</dim>
					<dim>32</dim>
				</port>
			</output>
		</layer>
		<layer id="209" name="onnx::Conv_1301_compressed" type="Const" version="opset1">
			<data element_type="f16" shape="288, 48, 1, 1" offset="123100" size="27648" />
			<output>
				<port id="0" precision="FP16" names="onnx::Conv_1301">
					<dim>288</dim>
					<dim>48</dim>
					<dim>1</dim>
					<dim>1</dim>
				</port>
			</output>
		</layer>
		<layer id="210" name="onnx::Conv_1301" type="Convert" version="opset1">
			<data destination_type="f32" />
			<rt_info>
				<attribute name="decompression" version="0" />
			</rt_info>
			<input>
				<port id="0" precision="FP16">
					<dim>288</dim>
					<dim>48</dim>
					<dim>1</dim>
					<dim>1</dim>
				</port>
			</input>
			<output>
				<port id="1" precision="FP32">
					<dim>288</dim>
					<dim>48</dim>
					<dim>1</dim>
					<dim>1</dim>
				</port>
			</output>
		</layer>
		<layer id="211" name="/1/layer2/layer2.0/layer2.0.1/conv_pw/Conv/WithoutBiases" type="Convolution" version="opset1">
			<data strides="1, 1" dilations="1, 1" pads_begin="0, 0" pads_end="0, 0" auto_pad="explicit" />
			<input>
				<port id="0" precision="FP32">
					<dim>1</dim>
					<dim>48</dim>
					<dim>32</dim>
					<dim>32</dim>
				</port>
				<port id="1" precision="FP32">
					<dim>288</dim>
					<dim>48</dim>
					<dim>1</dim>
					<dim>1</dim>
				</port>
			</input>
			<output>
				<port id="2" precision="FP32">
					<dim>1</dim>
					<dim>288</dim>
					<dim>32</dim>
					<dim>32</dim>
				</port>
			</output>
		</layer>
		<layer id="212" name="Reshape_16203_compressed" type="Const" version="opset1">
			<data element_type="f16" shape="1, 288, 1, 1" offset="150748" size="576" />
			<output>
				<port id="0" precision="FP16">
					<dim>1</dim>
					<dim>288</dim>
					<dim>1</dim>
					<dim>1</dim>
				</port>
			</output>
		</layer>
		<layer id="213" name="Reshape_16203" type="Convert" version="opset1">
			<data destination_type="f32" />
			<rt_info>
				<attribute name="decompression" version="0" />
			</rt_info>
			<input>
				<port id="0" precision="FP16">
					<dim>1</dim>
					<dim>288</dim>
					<dim>1</dim>
					<dim>1</dim>
				</port>
			</input>
			<output>
				<port id="1" precision="FP32">
					<dim>1</dim>
					<dim>288</dim>
					<dim>1</dim>
					<dim>1</dim>
				</port>
			</output>
		</layer>
		<layer id="214" name="/1/layer2/layer2.0/layer2.0.1/conv_pw/Conv" type="Add" version="opset1">
			<data auto_broadcast="numpy" />
			<input>
				<port id="0" precision="FP32">
					<dim>1</dim>
					<dim>288</dim>
					<dim>32</dim>
					<dim>32</dim>
				</port>
				<port id="1" precision="FP32">
					<dim>1</dim>
					<dim>288</dim>
					<dim>1</dim>
					<dim>1</dim>
				</port>
			</input>
			<output>
				<port id="2" precision="FP32" names="/1/layer2/layer2.0/layer2.0.1/conv_pw/Conv_output_0">
					<dim>1</dim>
					<dim>288</dim>
					<dim>32</dim>
					<dim>32</dim>
				</port>
			</output>
		</layer>
		<layer id="215" name="/1/layer2/layer2.0/layer2.0.1/act1/Clip" type="Clamp" version="opset1">
			<data min="0" max="6" />
			<input>
				<port id="0" precision="FP32">
					<dim>1</dim>
					<dim>288</dim>
					<dim>32</dim>
					<dim>32</dim>
				</port>
			</input>
			<output>
				<port id="1" precision="FP32" names="/1/layer2/layer2.0/layer2.0.1/act1/Clip_output_0">
					<dim>1</dim>
					<dim>288</dim>
					<dim>32</dim>
					<dim>32</dim>
				</port>
			</output>
		</layer>
		<layer id="216" name="Reshape_16216_compressed" type="Const" version="opset1">
			<data element_type="f16" shape="288, 1, 1, 5, 5" offset="151324" size="14400" />
			<output>
				<port id="0" precision="FP16">
					<dim>288</dim>
					<dim>1</dim>
					<dim>1</dim>
					<dim>5</dim>
					<dim>5</dim>
				</port>
			</output>
		</layer>
		<layer id="217" name="Reshape_16216" type="Convert" version="opset1">
			<data destination_type="f32" />
			<rt_info>
				<attribute name="decompression" version="0" />
			</rt_info>
			<input>
				<port id="0" precision="FP16">
					<dim>288</dim>
					<dim>1</dim>
					<dim>1</dim>
					<dim>5</dim>
					<dim>5</dim>
				</port>
			</input>
			<output>
				<port id="1" precision="FP32">
					<dim>288</dim>
					<dim>1</dim>
					<dim>1</dim>
					<dim>5</dim>
					<dim>5</dim>
				</port>
			</output>
		</layer>
		<layer id="218" name="/1/layer2/layer2.0/layer2.0.1/conv_dw/Conv/WithoutBiases" type="GroupConvolution" version="opset1">
			<data strides="1, 1" pads_begin="2, 2" pads_end="2, 2" dilations="1, 1" auto_pad="explicit" />
			<input>
				<port id="0" precision="FP32">
					<dim>1</dim>
					<dim>288</dim>
					<dim>32</dim>
					<dim>32</dim>
				</port>
				<port id="1" precision="FP32">
					<dim>288</dim>
					<dim>1</dim>
					<dim>1</dim>
					<dim>5</dim>
					<dim>5</dim>
				</port>
			</input>
			<output>
				<port id="2" precision="FP32">
					<dim>1</dim>
					<dim>288</dim>
					<dim>32</dim>
					<dim>32</dim>
				</port>
			</output>
		</layer>
		<layer id="219" name="Reshape_16266_compressed" type="Const" version="opset1">
			<data element_type="f16" shape="1, 288, 1, 1" offset="165724" size="576" />
			<output>
				<port id="0" precision="FP16">
					<dim>1</dim>
					<dim>288</dim>
					<dim>1</dim>
					<dim>1</dim>
				</port>
			</output>
		</layer>
		<layer id="220" name="Reshape_16266" type="Convert" version="opset1">
			<data destination_type="f32" />
			<rt_info>
				<attribute name="decompression" version="0" />
			</rt_info>
			<input>
				<port id="0" precision="FP16">
					<dim>1</dim>
					<dim>288</dim>
					<dim>1</dim>
					<dim>1</dim>
				</port>
			</input>
			<output>
				<port id="1" precision="FP32">
					<dim>1</dim>
					<dim>288</dim>
					<dim>1</dim>
					<dim>1</dim>
				</port>
			</output>
		</layer>
		<layer id="221" name="/1/layer2/layer2.0/layer2.0.1/conv_dw/Conv" type="Add" version="opset1">
			<data auto_broadcast="numpy" />
			<input>
				<port id="0" precision="FP32">
					<dim>1</dim>
					<dim>288</dim>
					<dim>32</dim>
					<dim>32</dim>
				</port>
				<port id="1" precision="FP32">
					<dim>1</dim>
					<dim>288</dim>
					<dim>1</dim>
					<dim>1</dim>
				</port>
			</input>
			<output>
				<port id="2" precision="FP32" names="/1/layer2/layer2.0/layer2.0.1/conv_dw/Conv_output_0">
					<dim>1</dim>
					<dim>288</dim>
					<dim>32</dim>
					<dim>32</dim>
				</port>
			</output>
		</layer>
		<layer id="222" name="/1/layer2/layer2.0/layer2.0.1/act2/Clip" type="Clamp" version="opset1">
			<data min="0" max="6" />
			<input>
				<port id="0" precision="FP32">
					<dim>1</dim>
					<dim>288</dim>
					<dim>32</dim>
					<dim>32</dim>
				</port>
			</input>
			<output>
				<port id="1" precision="FP32" names="/1/layer2/layer2.0/layer2.0.1/act2/Clip_output_0">
					<dim>1</dim>
					<dim>288</dim>
					<dim>32</dim>
					<dim>32</dim>
				</port>
			</output>
		</layer>
		<layer id="223" name="onnx::Conv_1307_compressed" type="Const" version="opset1">
			<data element_type="f16" shape="48, 288, 1, 1" offset="166300" size="27648" />
			<output>
				<port id="0" precision="FP16" names="onnx::Conv_1307">
					<dim>48</dim>
					<dim>288</dim>
					<dim>1</dim>
					<dim>1</dim>
				</port>
			</output>
		</layer>
		<layer id="224" name="onnx::Conv_1307" type="Convert" version="opset1">
			<data destination_type="f32" />
			<rt_info>
				<attribute name="decompression" version="0" />
			</rt_info>
			<input>
				<port id="0" precision="FP16">
					<dim>48</dim>
					<dim>288</dim>
					<dim>1</dim>
					<dim>1</dim>
				</port>
			</input>
			<output>
				<port id="1" precision="FP32">
					<dim>48</dim>
					<dim>288</dim>
					<dim>1</dim>
					<dim>1</dim>
				</port>
			</output>
		</layer>
		<layer id="225" name="/1/layer2/layer2.0/layer2.0.1/conv_pwl/Conv/WithoutBiases" type="Convolution" version="opset1">
			<data strides="1, 1" dilations="1, 1" pads_begin="0, 0" pads_end="0, 0" auto_pad="explicit" />
			<input>
				<port id="0" precision="FP32">
					<dim>1</dim>
					<dim>288</dim>
					<dim>32</dim>
					<dim>32</dim>
				</port>
				<port id="1" precision="FP32">
					<dim>48</dim>
					<dim>288</dim>
					<dim>1</dim>
					<dim>1</dim>
				</port>
			</input>
			<output>
				<port id="2" precision="FP32">
					<dim>1</dim>
					<dim>48</dim>
					<dim>32</dim>
					<dim>32</dim>
				</port>
			</output>
		</layer>
		<layer id="226" name="Reshape_16283" type="Const" version="opset1">
			<data element_type="f32" shape="1, 48, 1, 1" offset="193948" size="192" />
			<output>
				<port id="0" precision="FP32">
					<dim>1</dim>
					<dim>48</dim>
					<dim>1</dim>
					<dim>1</dim>
				</port>
			</output>
		</layer>
		<layer id="227" name="/1/layer2/layer2.0/layer2.0.1/conv_pwl/Conv" type="Add" version="opset1">
			<data auto_broadcast="numpy" />
			<input>
				<port id="0" precision="FP32">
					<dim>1</dim>
					<dim>48</dim>
					<dim>32</dim>
					<dim>32</dim>
				</port>
				<port id="1" precision="FP32">
					<dim>1</dim>
					<dim>48</dim>
					<dim>1</dim>
					<dim>1</dim>
				</port>
			</input>
			<output>
				<port id="2" precision="FP32" names="/1/layer2/layer2.0/layer2.0.1/conv_pwl/Conv_output_0">
					<dim>1</dim>
					<dim>48</dim>
					<dim>32</dim>
					<dim>32</dim>
				</port>
			</output>
		</layer>
		<layer id="228" name="/1/layer2/layer2.0/layer2.0.1/Add" type="Add" version="opset1">
			<data auto_broadcast="numpy" />
			<input>
				<port id="0" precision="FP32">
					<dim>1</dim>
					<dim>48</dim>
					<dim>32</dim>
					<dim>32</dim>
				</port>
				<port id="1" precision="FP32">
					<dim>1</dim>
					<dim>48</dim>
					<dim>32</dim>
					<dim>32</dim>
				</port>
			</input>
			<output>
				<port id="2" precision="FP32" names="/1/layer2/layer2.0/layer2.0.1/Add_output_0">
					<dim>1</dim>
					<dim>48</dim>
					<dim>32</dim>
					<dim>32</dim>
				</port>
			</output>
		</layer>
		<layer id="229" name="onnx::Conv_1310_compressed" type="Const" version="opset1">
			<data element_type="f16" shape="288, 48, 1, 1" offset="194140" size="27648" />
			<output>
				<port id="0" precision="FP16" names="onnx::Conv_1310">
					<dim>288</dim>
					<dim>48</dim>
					<dim>1</dim>
					<dim>1</dim>
				</port>
			</output>
		</layer>
		<layer id="230" name="onnx::Conv_1310" type="Convert" version="opset1">
			<data destination_type="f32" />
			<rt_info>
				<attribute name="decompression" version="0" />
			</rt_info>
			<input>
				<port id="0" precision="FP16">
					<dim>288</dim>
					<dim>48</dim>
					<dim>1</dim>
					<dim>1</dim>
				</port>
			</input>
			<output>
				<port id="1" precision="FP32">
					<dim>288</dim>
					<dim>48</dim>
					<dim>1</dim>
					<dim>1</dim>
				</port>
			</output>
		</layer>
		<layer id="231" name="/1/layer2/layer2.0/layer2.0.2/conv_pw/Conv/WithoutBiases" type="Convolution" version="opset1">
			<data strides="1, 1" dilations="1, 1" pads_begin="0, 0" pads_end="0, 0" auto_pad="explicit" />
			<input>
				<port id="0" precision="FP32">
					<dim>1</dim>
					<dim>48</dim>
					<dim>32</dim>
					<dim>32</dim>
				</port>
				<port id="1" precision="FP32">
					<dim>288</dim>
					<dim>48</dim>
					<dim>1</dim>
					<dim>1</dim>
				</port>
			</input>
			<output>
				<port id="2" precision="FP32">
					<dim>1</dim>
					<dim>288</dim>
					<dim>32</dim>
					<dim>32</dim>
				</port>
			</output>
		</layer>
		<layer id="232" name="Reshape_16299_compressed" type="Const" version="opset1">
			<data element_type="f16" shape="1, 288, 1, 1" offset="221788" size="576" />
			<output>
				<port id="0" precision="FP16">
					<dim>1</dim>
					<dim>288</dim>
					<dim>1</dim>
					<dim>1</dim>
				</port>
			</output>
		</layer>
		<layer id="233" name="Reshape_16299" type="Convert" version="opset1">
			<data destination_type="f32" />
			<rt_info>
				<attribute name="decompression" version="0" />
			</rt_info>
			<input>
				<port id="0" precision="FP16">
					<dim>1</dim>
					<dim>288</dim>
					<dim>1</dim>
					<dim>1</dim>
				</port>
			</input>
			<output>
				<port id="1" precision="FP32">
					<dim>1</dim>
					<dim>288</dim>
					<dim>1</dim>
					<dim>1</dim>
				</port>
			</output>
		</layer>
		<layer id="234" name="/1/layer2/layer2.0/layer2.0.2/conv_pw/Conv" type="Add" version="opset1">
			<data auto_broadcast="numpy" />
			<input>
				<port id="0" precision="FP32">
					<dim>1</dim>
					<dim>288</dim>
					<dim>32</dim>
					<dim>32</dim>
				</port>
				<port id="1" precision="FP32">
					<dim>1</dim>
					<dim>288</dim>
					<dim>1</dim>
					<dim>1</dim>
				</port>
			</input>
			<output>
				<port id="2" precision="FP32" names="/1/layer2/layer2.0/layer2.0.2/conv_pw/Conv_output_0">
					<dim>1</dim>
					<dim>288</dim>
					<dim>32</dim>
					<dim>32</dim>
				</port>
			</output>
		</layer>
		<layer id="235" name="/1/layer2/layer2.0/layer2.0.2/act1/Clip" type="Clamp" version="opset1">
			<data min="0" max="6" />
			<input>
				<port id="0" precision="FP32">
					<dim>1</dim>
					<dim>288</dim>
					<dim>32</dim>
					<dim>32</dim>
				</port>
			</input>
			<output>
				<port id="1" precision="FP32" names="/1/layer2/layer2.0/layer2.0.2/act1/Clip_output_0">
					<dim>1</dim>
					<dim>288</dim>
					<dim>32</dim>
					<dim>32</dim>
				</port>
			</output>
		</layer>
		<layer id="236" name="Reshape_16312_compressed" type="Const" version="opset1">
			<data element_type="f16" shape="288, 1, 1, 5, 5" offset="222364" size="14400" />
			<output>
				<port id="0" precision="FP16">
					<dim>288</dim>
					<dim>1</dim>
					<dim>1</dim>
					<dim>5</dim>
					<dim>5</dim>
				</port>
			</output>
		</layer>
		<layer id="237" name="Reshape_16312" type="Convert" version="opset1">
			<data destination_type="f32" />
			<rt_info>
				<attribute name="decompression" version="0" />
			</rt_info>
			<input>
				<port id="0" precision="FP16">
					<dim>288</dim>
					<dim>1</dim>
					<dim>1</dim>
					<dim>5</dim>
					<dim>5</dim>
				</port>
			</input>
			<output>
				<port id="1" precision="FP32">
					<dim>288</dim>
					<dim>1</dim>
					<dim>1</dim>
					<dim>5</dim>
					<dim>5</dim>
				</port>
			</output>
		</layer>
		<layer id="238" name="/1/layer2/layer2.0/layer2.0.2/conv_dw/Conv/WithoutBiases" type="GroupConvolution" version="opset1">
			<data strides="1, 1" pads_begin="2, 2" pads_end="2, 2" dilations="1, 1" auto_pad="explicit" />
			<input>
				<port id="0" precision="FP32">
					<dim>1</dim>
					<dim>288</dim>
					<dim>32</dim>
					<dim>32</dim>
				</port>
				<port id="1" precision="FP32">
					<dim>288</dim>
					<dim>1</dim>
					<dim>1</dim>
					<dim>5</dim>
					<dim>5</dim>
				</port>
			</input>
			<output>
				<port id="2" precision="FP32">
					<dim>1</dim>
					<dim>288</dim>
					<dim>32</dim>
					<dim>32</dim>
				</port>
			</output>
		</layer>
		<layer id="239" name="Reshape_16362_compressed" type="Const" version="opset1">
			<data element_type="f16" shape="1, 288, 1, 1" offset="236764" size="576" />
			<output>
				<port id="0" precision="FP16">
					<dim>1</dim>
					<dim>288</dim>
					<dim>1</dim>
					<dim>1</dim>
				</port>
			</output>
		</layer>
		<layer id="240" name="Reshape_16362" type="Convert" version="opset1">
			<data destination_type="f32" />
			<rt_info>
				<attribute name="decompression" version="0" />
			</rt_info>
			<input>
				<port id="0" precision="FP16">
					<dim>1</dim>
					<dim>288</dim>
					<dim>1</dim>
					<dim>1</dim>
				</port>
			</input>
			<output>
				<port id="1" precision="FP32">
					<dim>1</dim>
					<dim>288</dim>
					<dim>1</dim>
					<dim>1</dim>
				</port>
			</output>
		</layer>
		<layer id="241" name="/1/layer2/layer2.0/layer2.0.2/conv_dw/Conv" type="Add" version="opset1">
			<data auto_broadcast="numpy" />
			<input>
				<port id="0" precision="FP32">
					<dim>1</dim>
					<dim>288</dim>
					<dim>32</dim>
					<dim>32</dim>
				</port>
				<port id="1" precision="FP32">
					<dim>1</dim>
					<dim>288</dim>
					<dim>1</dim>
					<dim>1</dim>
				</port>
			</input>
			<output>
				<port id="2" precision="FP32" names="/1/layer2/layer2.0/layer2.0.2/conv_dw/Conv_output_0">
					<dim>1</dim>
					<dim>288</dim>
					<dim>32</dim>
					<dim>32</dim>
				</port>
			</output>
		</layer>
		<layer id="242" name="/1/layer2/layer2.0/layer2.0.2/act2/Clip" type="Clamp" version="opset1">
			<data min="0" max="6" />
			<input>
				<port id="0" precision="FP32">
					<dim>1</dim>
					<dim>288</dim>
					<dim>32</dim>
					<dim>32</dim>
				</port>
			</input>
			<output>
				<port id="1" precision="FP32" names="/1/layer2/layer2.0/layer2.0.2/act2/Clip_output_0">
					<dim>1</dim>
					<dim>288</dim>
					<dim>32</dim>
					<dim>32</dim>
				</port>
			</output>
		</layer>
		<layer id="243" name="onnx::Conv_1316_compressed" type="Const" version="opset1">
			<data element_type="f16" shape="48, 288, 1, 1" offset="237340" size="27648" />
			<output>
				<port id="0" precision="FP16" names="onnx::Conv_1316">
					<dim>48</dim>
					<dim>288</dim>
					<dim>1</dim>
					<dim>1</dim>
				</port>
			</output>
		</layer>
		<layer id="244" name="onnx::Conv_1316" type="Convert" version="opset1">
			<data destination_type="f32" />
			<rt_info>
				<attribute name="decompression" version="0" />
			</rt_info>
			<input>
				<port id="0" precision="FP16">
					<dim>48</dim>
					<dim>288</dim>
					<dim>1</dim>
					<dim>1</dim>
				</port>
			</input>
			<output>
				<port id="1" precision="FP32">
					<dim>48</dim>
					<dim>288</dim>
					<dim>1</dim>
					<dim>1</dim>
				</port>
			</output>
		</layer>
		<layer id="245" name="/1/layer2/layer2.0/layer2.0.2/conv_pwl/Conv/WithoutBiases" type="Convolution" version="opset1">
			<data strides="1, 1" dilations="1, 1" pads_begin="0, 0" pads_end="0, 0" auto_pad="explicit" />
			<input>
				<port id="0" precision="FP32">
					<dim>1</dim>
					<dim>288</dim>
					<dim>32</dim>
					<dim>32</dim>
				</port>
				<port id="1" precision="FP32">
					<dim>48</dim>
					<dim>288</dim>
					<dim>1</dim>
					<dim>1</dim>
				</port>
			</input>
			<output>
				<port id="2" precision="FP32">
					<dim>1</dim>
					<dim>48</dim>
					<dim>32</dim>
					<dim>32</dim>
				</port>
			</output>
		</layer>
		<layer id="246" name="Reshape_16379" type="Const" version="opset1">
			<data element_type="f32" shape="1, 48, 1, 1" offset="264988" size="192" />
			<output>
				<port id="0" precision="FP32">
					<dim>1</dim>
					<dim>48</dim>
					<dim>1</dim>
					<dim>1</dim>
				</port>
			</output>
		</layer>
		<layer id="247" name="/1/layer2/layer2.0/layer2.0.2/conv_pwl/Conv" type="Add" version="opset1">
			<data auto_broadcast="numpy" />
			<input>
				<port id="0" precision="FP32">
					<dim>1</dim>
					<dim>48</dim>
					<dim>32</dim>
					<dim>32</dim>
				</port>
				<port id="1" precision="FP32">
					<dim>1</dim>
					<dim>48</dim>
					<dim>1</dim>
					<dim>1</dim>
				</port>
			</input>
			<output>
				<port id="2" precision="FP32" names="/1/layer2/layer2.0/layer2.0.2/conv_pwl/Conv_output_0">
					<dim>1</dim>
					<dim>48</dim>
					<dim>32</dim>
					<dim>32</dim>
				</port>
			</output>
		</layer>
		<layer id="248" name="/1/layer2/layer2.0/layer2.0.2/Add" type="Add" version="opset1">
			<data auto_broadcast="numpy" />
			<input>
				<port id="0" precision="FP32">
					<dim>1</dim>
					<dim>48</dim>
					<dim>32</dim>
					<dim>32</dim>
				</port>
				<port id="1" precision="FP32">
					<dim>1</dim>
					<dim>48</dim>
					<dim>32</dim>
					<dim>32</dim>
				</port>
			</input>
			<output>
				<port id="2" precision="FP32" names="/1/layer2/layer2.0/layer2.0.2/Add_output_0">
					<dim>1</dim>
					<dim>48</dim>
					<dim>32</dim>
					<dim>32</dim>
				</port>
			</output>
		</layer>
		<layer id="249" name="onnx::Conv_1319_compressed" type="Const" version="opset1">
			<data element_type="f16" shape="288, 48, 1, 1" offset="265180" size="27648" />
			<output>
				<port id="0" precision="FP16" names="onnx::Conv_1319">
					<dim>288</dim>
					<dim>48</dim>
					<dim>1</dim>
					<dim>1</dim>
				</port>
			</output>
		</layer>
		<layer id="250" name="onnx::Conv_1319" type="Convert" version="opset1">
			<data destination_type="f32" />
			<rt_info>
				<attribute name="decompression" version="0" />
			</rt_info>
			<input>
				<port id="0" precision="FP16">
					<dim>288</dim>
					<dim>48</dim>
					<dim>1</dim>
					<dim>1</dim>
				</port>
			</input>
			<output>
				<port id="1" precision="FP32">
					<dim>288</dim>
					<dim>48</dim>
					<dim>1</dim>
					<dim>1</dim>
				</port>
			</output>
		</layer>
		<layer id="251" name="/1/layer3/layer3.0/layer3.0.0/conv_pw/Conv/WithoutBiases" type="Convolution" version="opset1">
			<data strides="1, 1" dilations="1, 1" pads_begin="0, 0" pads_end="0, 0" auto_pad="explicit" />
			<input>
				<port id="0" precision="FP32">
					<dim>1</dim>
					<dim>48</dim>
					<dim>32</dim>
					<dim>32</dim>
				</port>
				<port id="1" precision="FP32">
					<dim>288</dim>
					<dim>48</dim>
					<dim>1</dim>
					<dim>1</dim>
				</port>
			</input>
			<output>
				<port id="2" precision="FP32">
					<dim>1</dim>
					<dim>288</dim>
					<dim>32</dim>
					<dim>32</dim>
				</port>
			</output>
		</layer>
		<layer id="252" name="Reshape_16395_compressed" type="Const" version="opset1">
			<data element_type="f16" shape="1, 288, 1, 1" offset="292828" size="576" />
			<output>
				<port id="0" precision="FP16">
					<dim>1</dim>
					<dim>288</dim>
					<dim>1</dim>
					<dim>1</dim>
				</port>
			</output>
		</layer>
		<layer id="253" name="Reshape_16395" type="Convert" version="opset1">
			<data destination_type="f32" />
			<rt_info>
				<attribute name="decompression" version="0" />
			</rt_info>
			<input>
				<port id="0" precision="FP16">
					<dim>1</dim>
					<dim>288</dim>
					<dim>1</dim>
					<dim>1</dim>
				</port>
			</input>
			<output>
				<port id="1" precision="FP32">
					<dim>1</dim>
					<dim>288</dim>
					<dim>1</dim>
					<dim>1</dim>
				</port>
			</output>
		</layer>
		<layer id="254" name="/1/layer3/layer3.0/layer3.0.0/conv_pw/Conv" type="Add" version="opset1">
			<data auto_broadcast="numpy" />
			<input>
				<port id="0" precision="FP32">
					<dim>1</dim>
					<dim>288</dim>
					<dim>32</dim>
					<dim>32</dim>
				</port>
				<port id="1" precision="FP32">
					<dim>1</dim>
					<dim>288</dim>
					<dim>1</dim>
					<dim>1</dim>
				</port>
			</input>
			<output>
				<port id="2" precision="FP32" names="/1/layer3/layer3.0/layer3.0.0/conv_pw/Conv_output_0">
					<dim>1</dim>
					<dim>288</dim>
					<dim>32</dim>
					<dim>32</dim>
				</port>
			</output>
		</layer>
		<layer id="255" name="/1/layer3/layer3.0/layer3.0.0/act1/Clip" type="Clamp" version="opset1">
			<data min="0" max="6" />
			<input>
				<port id="0" precision="FP32">
					<dim>1</dim>
					<dim>288</dim>
					<dim>32</dim>
					<dim>32</dim>
				</port>
			</input>
			<output>
				<port id="1" precision="FP32" names="/1/layer3/layer3.0/layer3.0.0/act1/Clip_output_0">
					<dim>1</dim>
					<dim>288</dim>
					<dim>32</dim>
					<dim>32</dim>
				</port>
			</output>
		</layer>
		<layer id="256" name="ShapeOf_30272" type="ShapeOf" version="opset3">
			<data output_type="i64" />
			<input>
				<port id="0" precision="FP32">
					<dim>1</dim>
					<dim>288</dim>
					<dim>32</dim>
					<dim>32</dim>
				</port>
			</input>
			<output>
				<port id="1" precision="I64">
					<dim>4</dim>
				</port>
			</output>
		</layer>
		<layer id="257" name="Constant_30273" type="Const" version="opset1">
			<data element_type="i64" shape="" offset="11234" size="8" />
			<rt_info>
				<attribute name="precise" version="0" />
			</rt_info>
			<output>
				<port id="0" precision="I64" />
			</output>
		</layer>
		<layer id="258" name="Constant_30274" type="Const" version="opset1">
			<data element_type="i64" shape="" offset="11242" size="8" />
			<rt_info>
				<attribute name="precise" version="0" />
			</rt_info>
			<output>
				<port id="0" precision="I64" />
			</output>
		</layer>
		<layer id="259" name="Gather_30275" type="Gather" version="opset8">
			<data batch_dims="0" />
			<input>
				<port id="0" precision="I64">
					<dim>4</dim>
				</port>
				<port id="1" precision="I64" />
				<port id="2" precision="I64" />
			</input>
			<output>
				<port id="3" precision="I64" names="/1/layer3/layer3.0/layer3.0.0/conv_dw/Gather_1_output_0" />
			</output>
		</layer>
		<layer id="260" name="/1/layer3/layer3.0/layer3.0.0/conv_dw/Constant_7" type="Const" version="opset1">
			<data element_type="i64" shape="" offset="11250" size="8" />
			<rt_info>
				<attribute name="precise" version="0" />
			</rt_info>
			<output>
				<port id="0" precision="I64" names="/1/layer3/layer3.0/layer3.0.0/conv_dw/Constant_7_output_0" />
			</output>
		</layer>
		<layer id="261" name="/1/layer3/layer3.0/layer3.0.0/conv_dw/Div_1" type="Divide" version="opset1">
			<data auto_broadcast="numpy" m_pythondiv="true" />
			<input>
				<port id="0" precision="I64" />
				<port id="1" precision="I64" />
			</input>
			<output>
				<port id="2" precision="I64" names="/1/layer3/layer3.0/layer3.0.0/conv_dw/Cast_2_output_0,/1/layer3/layer3.0/layer3.0.0/conv_dw/Cast_3_output_0,/1/layer3/layer3.0/layer3.0.0/conv_dw/Div_1_output_0" />
			</output>
		</layer>
		<layer id="262" name="Constant_27483" type="Const" version="opset1">
			<data element_type="i64" shape="" offset="11250" size="8" />
			<rt_info>
				<attribute name="precise" version="0" />
			</rt_info>
			<output>
				<port id="0" precision="I64" />
			</output>
		</layer>
		<layer id="263" name="Multiply_27478" type="Multiply" version="opset1">
			<data auto_broadcast="numpy" />
			<input>
				<port id="0" precision="I64" />
				<port id="1" precision="I64" />
			</input>
			<output>
				<port id="2" precision="I64" />
			</output>
		</layer>
		<layer id="264" name="Constant_27489" type="Const" version="opset1">
			<data element_type="i64" shape="" offset="11258" size="8" />
			<rt_info>
				<attribute name="precise" version="0" />
			</rt_info>
			<output>
				<port id="0" precision="I64" />
			</output>
		</layer>
		<layer id="265" name="/1/layer3/layer3.0/layer3.0.0/conv_dw/Add_3" type="Add" version="opset1">
			<data auto_broadcast="numpy" />
			<input>
				<port id="0" precision="I64" />
				<port id="1" precision="I64" />
			</input>
			<output>
				<port id="2" precision="I64" names="/1/layer3/layer3.0/layer3.0.0/conv_dw/Add_3_output_0" />
			</output>
		</layer>
		<layer id="266" name="/1/layer3/layer3.0/layer3.0.0/conv_dw/Sub_3" type="Subtract" version="opset1">
			<data auto_broadcast="numpy" />
			<input>
				<port id="0" precision="I64" />
				<port id="1" precision="I64" />
			</input>
			<output>
				<port id="2" precision="I64" names="/1/layer3/layer3.0/layer3.0.0/conv_dw/Sub_3_output_0" />
			</output>
		</layer>
		<layer id="267" name="/1/layer3/layer3.0/layer3.0.0/conv_dw/Constant_12" type="Const" version="opset1">
			<data element_type="i64" shape="" offset="11266" size="8" />
			<rt_info>
				<attribute name="precise" version="0" />
			</rt_info>
			<output>
				<port id="0" precision="I64" names="/1/layer3/layer3.0/layer3.0.0/conv_dw/Constant_12_output_0" />
			</output>
		</layer>
		<layer id="268" name="/1/layer3/layer3.0/layer3.0.0/conv_dw/Div_2" type="Divide" version="opset1">
			<data auto_broadcast="numpy" m_pythondiv="true" />
			<input>
				<port id="0" precision="I64" />
				<port id="1" precision="I64" />
			</input>
			<output>
				<port id="2" precision="I64" names="/1/layer3/layer3.0/layer3.0.0/conv_dw/Cast_4_output_0,/1/layer3/layer3.0/layer3.0.0/conv_dw/Cast_5_output_0,/1/layer3/layer3.0/layer3.0.0/conv_dw/Div_2_output_0" />
			</output>
		</layer>
		<layer id="269" name="Constant_311" type="Const" version="opset1">
			<data element_type="i64" shape="1" offset="11242" size="8" />
			<rt_info>
				<attribute name="precise" version="0" />
			</rt_info>
			<output>
				<port id="0" precision="I64" names="onnx::Unsqueeze_848">
					<dim>1</dim>
				</port>
			</output>
		</layer>
		<layer id="270" name="/1/layer3/layer3.0/layer3.0.0/conv_dw/Unsqueeze_4" type="Unsqueeze" version="opset1">
			<input>
				<port id="0" precision="I64" />
				<port id="1" precision="I64">
					<dim>1</dim>
				</port>
			</input>
			<output>
				<port id="2" precision="I64" names="/1/layer3/layer3.0/layer3.0.0/conv_dw/Unsqueeze_4_output_0,/1/layer3/layer3.0/layer3.0.0/conv_dw/Unsqueeze_output_0">
					<dim>1</dim>
				</port>
			</output>
		</layer>
		<layer id="271" name="/1/layer3/layer3.0/layer3.0.0/conv_dw/Sub_4" type="Subtract" version="opset1">
			<data auto_broadcast="numpy" />
			<input>
				<port id="0" precision="I64" />
				<port id="1" precision="I64" />
			</input>
			<output>
				<port id="2" precision="I64" names="/1/layer3/layer3.0/layer3.0.0/conv_dw/Sub_4_output_0" />
			</output>
		</layer>
		<layer id="272" name="Constant_313" type="Const" version="opset1">
			<data element_type="i64" shape="1" offset="11242" size="8" />
			<rt_info>
				<attribute name="precise" version="0" />
			</rt_info>
			<output>
				<port id="0" precision="I64" names="onnx::Unsqueeze_850">
					<dim>1</dim>
				</port>
			</output>
		</layer>
		<layer id="273" name="/1/layer3/layer3.0/layer3.0.0/conv_dw/Unsqueeze_5" type="Unsqueeze" version="opset1">
			<input>
				<port id="0" precision="I64" />
				<port id="1" precision="I64">
					<dim>1</dim>
				</port>
			</input>
			<output>
				<port id="2" precision="I64" names="/1/layer3/layer3.0/layer3.0.0/conv_dw/Unsqueeze_1_output_0,/1/layer3/layer3.0/layer3.0.0/conv_dw/Unsqueeze_5_output_0">
					<dim>1</dim>
				</port>
			</output>
		</layer>
		<layer id="274" name="Constant_30277" type="Const" version="opset1">
			<data element_type="i64" shape="" offset="11266" size="8" />
			<rt_info>
				<attribute name="precise" version="0" />
			</rt_info>
			<output>
				<port id="0" precision="I64" />
			</output>
		</layer>
		<layer id="275" name="Constant_30278" type="Const" version="opset1">
			<data element_type="i64" shape="" offset="11242" size="8" />
			<rt_info>
				<attribute name="precise" version="0" />
			</rt_info>
			<output>
				<port id="0" precision="I64" />
			</output>
		</layer>
		<layer id="276" name="Gather_30279" type="Gather" version="opset8">
			<data batch_dims="0" />
			<input>
				<port id="0" precision="I64">
					<dim>4</dim>
				</port>
				<port id="1" precision="I64" />
				<port id="2" precision="I64" />
			</input>
			<output>
				<port id="3" precision="I64" names="/1/layer3/layer3.0/layer3.0.0/conv_dw/Gather_output_0" />
			</output>
		</layer>
		<layer id="277" name="/1/layer3/layer3.0/layer3.0.0/conv_dw/Constant_2" type="Const" version="opset1">
			<data element_type="i64" shape="" offset="11250" size="8" />
			<rt_info>
				<attribute name="precise" version="0" />
			</rt_info>
			<output>
				<port id="0" precision="I64" names="/1/layer3/layer3.0/layer3.0.0/conv_dw/Constant_2_output_0" />
			</output>
		</layer>
		<layer id="278" name="/1/layer3/layer3.0/layer3.0.0/conv_dw/Div" type="Divide" version="opset1">
			<data auto_broadcast="numpy" m_pythondiv="true" />
			<input>
				<port id="0" precision="I64" />
				<port id="1" precision="I64" />
			</input>
			<output>
				<port id="2" precision="I64" names="/1/layer3/layer3.0/layer3.0.0/conv_dw/Cast_1_output_0,/1/layer3/layer3.0/layer3.0.0/conv_dw/Cast_output_0,/1/layer3/layer3.0/layer3.0.0/conv_dw/Div_output_0" />
			</output>
		</layer>
		<layer id="279" name="Constant_27496" type="Const" version="opset1">
			<data element_type="i64" shape="" offset="11250" size="8" />
			<rt_info>
				<attribute name="precise" version="0" />
			</rt_info>
			<output>
				<port id="0" precision="I64" />
			</output>
		</layer>
		<layer id="280" name="Multiply_27491" type="Multiply" version="opset1">
			<data auto_broadcast="numpy" />
			<input>
				<port id="0" precision="I64" />
				<port id="1" precision="I64" />
			</input>
			<output>
				<port id="2" precision="I64" />
			</output>
		</layer>
		<layer id="281" name="Constant_27502" type="Const" version="opset1">
			<data element_type="i64" shape="" offset="11258" size="8" />
			<rt_info>
				<attribute name="precise" version="0" />
			</rt_info>
			<output>
				<port id="0" precision="I64" />
			</output>
		</layer>
		<layer id="282" name="/1/layer3/layer3.0/layer3.0.0/conv_dw/Add_1" type="Add" version="opset1">
			<data auto_broadcast="numpy" />
			<input>
				<port id="0" precision="I64" />
				<port id="1" precision="I64" />
			</input>
			<output>
				<port id="2" precision="I64" names="/1/layer3/layer3.0/layer3.0.0/conv_dw/Add_1_output_0" />
			</output>
		</layer>
		<layer id="283" name="/1/layer3/layer3.0/layer3.0.0/conv_dw/Sub_1" type="Subtract" version="opset1">
			<data auto_broadcast="numpy" />
			<input>
				<port id="0" precision="I64" />
				<port id="1" precision="I64" />
			</input>
			<output>
				<port id="2" precision="I64" names="/1/layer3/layer3.0/layer3.0.0/conv_dw/Sub_1_output_0" />
			</output>
		</layer>
		<layer id="284" name="/1/layer3/layer3.0/layer3.0.0/conv_dw/Constant_13" type="Const" version="opset1">
			<data element_type="i64" shape="" offset="11266" size="8" />
			<rt_info>
				<attribute name="precise" version="0" />
			</rt_info>
			<output>
				<port id="0" precision="I64" names="/1/layer3/layer3.0/layer3.0.0/conv_dw/Constant_13_output_0" />
			</output>
		</layer>
		<layer id="285" name="/1/layer3/layer3.0/layer3.0.0/conv_dw/Div_3" type="Divide" version="opset1">
			<data auto_broadcast="numpy" m_pythondiv="true" />
			<input>
				<port id="0" precision="I64" />
				<port id="1" precision="I64" />
			</input>
			<output>
				<port id="2" precision="I64" names="/1/layer3/layer3.0/layer3.0.0/conv_dw/Cast_6_output_0,/1/layer3/layer3.0/layer3.0.0/conv_dw/Cast_7_output_0,/1/layer3/layer3.0/layer3.0.0/conv_dw/Div_3_output_0" />
			</output>
		</layer>
		<layer id="286" name="Constant_315" type="Const" version="opset1">
			<data element_type="i64" shape="1" offset="11242" size="8" />
			<rt_info>
				<attribute name="precise" version="0" />
			</rt_info>
			<output>
				<port id="0" precision="I64" names="onnx::Unsqueeze_852">
					<dim>1</dim>
				</port>
			</output>
		</layer>
		<layer id="287" name="/1/layer3/layer3.0/layer3.0.0/conv_dw/Unsqueeze_6" type="Unsqueeze" version="opset1">
			<input>
				<port id="0" precision="I64" />
				<port id="1" precision="I64">
					<dim>1</dim>
				</port>
			</input>
			<output>
				<port id="2" precision="I64" names="/1/layer3/layer3.0/layer3.0.0/conv_dw/Unsqueeze_2_output_0,/1/layer3/layer3.0/layer3.0.0/conv_dw/Unsqueeze_6_output_0">
					<dim>1</dim>
				</port>
			</output>
		</layer>
		<layer id="288" name="/1/layer3/layer3.0/layer3.0.0/conv_dw/Sub_5" type="Subtract" version="opset1">
			<data auto_broadcast="numpy" />
			<input>
				<port id="0" precision="I64" />
				<port id="1" precision="I64" />
			</input>
			<output>
				<port id="2" precision="I64" names="/1/layer3/layer3.0/layer3.0.0/conv_dw/Sub_5_output_0" />
			</output>
		</layer>
		<layer id="289" name="Constant_317" type="Const" version="opset1">
			<data element_type="i64" shape="1" offset="11242" size="8" />
			<rt_info>
				<attribute name="precise" version="0" />
			</rt_info>
			<output>
				<port id="0" precision="I64" names="onnx::Unsqueeze_854">
					<dim>1</dim>
				</port>
			</output>
		</layer>
		<layer id="290" name="/1/layer3/layer3.0/layer3.0.0/conv_dw/Unsqueeze_7" type="Unsqueeze" version="opset1">
			<input>
				<port id="0" precision="I64" />
				<port id="1" precision="I64">
					<dim>1</dim>
				</port>
			</input>
			<output>
				<port id="2" precision="I64" names="/1/layer3/layer3.0/layer3.0.0/conv_dw/Unsqueeze_3_output_0,/1/layer3/layer3.0/layer3.0.0/conv_dw/Unsqueeze_7_output_0">
					<dim>1</dim>
				</port>
			</output>
		</layer>
		<layer id="291" name="/1/layer3/layer3.0/layer3.0.0/conv_dw/ConstantOfShape" type="Const" version="opset1">
			<data element_type="i64" shape="4" offset="11274" size="32" />
			<rt_info>
				<attribute name="precise" version="0" />
			</rt_info>
			<output>
				<port id="0" precision="I64" names="/1/layer3/layer3.0/layer3.0.0/conv_dw/ConstantOfShape_output_0">
					<dim>4</dim>
				</port>
			</output>
		</layer>
		<layer id="292" name="/1/layer3/layer3.0/layer3.0.0/conv_dw/Concat_2" type="Concat" version="opset1">
			<data axis="0" />
			<input>
				<port id="0" precision="I64">
					<dim>1</dim>
				</port>
				<port id="1" precision="I64">
					<dim>1</dim>
				</port>
				<port id="2" precision="I64">
					<dim>1</dim>
				</port>
				<port id="3" precision="I64">
					<dim>1</dim>
				</port>
				<port id="4" precision="I64">
					<dim>4</dim>
				</port>
			</input>
			<output>
				<port id="5" precision="I64" names="/1/layer3/layer3.0/layer3.0.0/conv_dw/Concat_2_output_0">
					<dim>8</dim>
				</port>
			</output>
		</layer>
		<layer id="293" name="/1/layer3/layer3.0/layer3.0.0/conv_dw/Constant_16" type="Const" version="opset1">
			<data element_type="i64" shape="2" offset="11306" size="16" />
			<rt_info>
				<attribute name="precise" version="0" />
			</rt_info>
			<output>
				<port id="0" precision="I64" names="/1/layer3/layer3.0/layer3.0.0/conv_dw/Constant_16_output_0">
					<dim>2</dim>
				</port>
			</output>
		</layer>
		<layer id="294" name="/1/layer3/layer3.0/layer3.0.0/conv_dw/Reshape" type="Reshape" version="opset1">
			<data special_zero="true" />
			<input>
				<port id="0" precision="I64">
					<dim>8</dim>
				</port>
				<port id="1" precision="I64">
					<dim>2</dim>
				</port>
			</input>
			<output>
				<port id="2" precision="I64" names="/1/layer3/layer3.0/layer3.0.0/conv_dw/Reshape_output_0">
					<dim>4</dim>
					<dim>2</dim>
				</port>
			</output>
		</layer>
		<layer id="295" name="/1/layer3/layer3.0/layer3.0.0/conv_dw/Constant_18" type="Const" version="opset1">
			<data element_type="i64" shape="1" offset="11322" size="8" />
			<rt_info>
				<attribute name="precise" version="0" />
			</rt_info>
			<output>
				<port id="0" precision="I64" names="/1/layer3/layer3.0/layer3.0.0/conv_dw/Constant_18_output_0">
					<dim>1</dim>
				</port>
			</output>
		</layer>
		<layer id="296" name="/1/layer3/layer3.0/layer3.0.0/conv_dw/Constant_19" type="Const" version="opset1">
			<data element_type="i64" shape="1" offset="11330" size="8" />
			<rt_info>
				<attribute name="precise" version="0" />
			</rt_info>
			<output>
				<port id="0" precision="I64" names="/1/layer3/layer3.0/layer3.0.0/conv_dw/Constant_19_output_0">
					<dim>1</dim>
				</port>
			</output>
		</layer>
		<layer id="297" name="/1/layer3/layer3.0/layer3.0.0/conv_dw/Constant_20" type="Const" version="opset1">
			<data element_type="i64" shape="1" offset="11322" size="8" />
			<rt_info>
				<attribute name="precise" version="0" />
			</rt_info>
			<output>
				<port id="0" precision="I64" names="/1/layer3/layer3.0/layer3.0.0/conv_dw/Constant_20_output_0">
					<dim>1</dim>
				</port>
			</output>
		</layer>
		<layer id="298" name="/1/layer3/layer3.0/layer3.0.0/conv_dw/Constant_17" type="Const" version="opset1">
			<data element_type="i64" shape="1" offset="11242" size="8" />
			<rt_info>
				<attribute name="precise" version="0" />
			</rt_info>
			<output>
				<port id="0" precision="I64" names="/1/layer3/layer3.0/layer3.0.0/conv_dw/Constant_17_output_0">
					<dim>1</dim>
				</port>
			</output>
		</layer>
		<layer id="299" name="/1/layer3/layer3.0/layer3.0.0/conv_dw/Slice" type="Slice" version="opset8">
			<input>
				<port id="0" precision="I64">
					<dim>4</dim>
					<dim>2</dim>
				</port>
				<port id="1" precision="I64">
					<dim>1</dim>
				</port>
				<port id="2" precision="I64">
					<dim>1</dim>
				</port>
				<port id="3" precision="I64">
					<dim>1</dim>
				</port>
				<port id="4" precision="I64">
					<dim>1</dim>
				</port>
			</input>
			<output>
				<port id="5" precision="I64" names="/1/layer3/layer3.0/layer3.0.0/conv_dw/Slice_output_0">
					<dim>4</dim>
					<dim>2</dim>
				</port>
			</output>
		</layer>
		<layer id="300" name="Constant_16490" type="Const" version="opset1">
			<data element_type="i64" shape="2" offset="11338" size="16" />
			<rt_info>
				<attribute name="precise" version="0" />
			</rt_info>
			<output>
				<port id="0" precision="I64">
					<dim>2</dim>
				</port>
			</output>
		</layer>
		<layer id="301" name="/1/layer3/layer3.0/layer3.0.0/conv_dw/Transpose" type="Transpose" version="opset1">
			<input>
				<port id="0" precision="I64">
					<dim>4</dim>
					<dim>2</dim>
				</port>
				<port id="1" precision="I64">
					<dim>2</dim>
				</port>
			</input>
			<output>
				<port id="2" precision="I64" names="/1/layer3/layer3.0/layer3.0.0/conv_dw/Transpose_output_0">
					<dim>2</dim>
					<dim>4</dim>
				</port>
			</output>
		</layer>
		<layer id="302" name="Constant_20606" type="Const" version="opset1">
			<data element_type="i64" shape="1" offset="11322" size="8" />
			<rt_info>
				<attribute name="precise" version="0" />
			</rt_info>
			<output>
				<port id="0" precision="I64">
					<dim>1</dim>
				</port>
			</output>
		</layer>
		<layer id="303" name="/1/layer3/layer3.0/layer3.0.0/conv_dw/Reshape_1" type="Reshape" version="opset1">
			<data special_zero="true" />
			<input>
				<port id="0" precision="I64">
					<dim>2</dim>
					<dim>4</dim>
				</port>
				<port id="1" precision="I64">
					<dim>1</dim>
				</port>
			</input>
			<output>
				<port id="2" precision="I64" names="/1/layer3/layer3.0/layer3.0.0/conv_dw/Cast_9_output_0,/1/layer3/layer3.0/layer3.0.0/conv_dw/Reshape_1_output_0">
					<dim>8</dim>
				</port>
			</output>
		</layer>
		<layer id="304" name="Constant_16494" type="Const" version="opset1">
			<data element_type="i64" shape="" offset="11242" size="8" />
			<rt_info>
				<attribute name="precise" version="0" />
			</rt_info>
			<output>
				<port id="0" precision="I64" />
			</output>
		</layer>
		<layer id="305" name="Split_16495" type="Split" version="opset1">
			<data num_splits="2" />
			<input>
				<port id="0" precision="I64">
					<dim>8</dim>
				</port>
				<port id="1" precision="I64" />
			</input>
			<output>
				<port id="2" precision="I64">
					<dim>4</dim>
				</port>
				<port id="3" precision="I64">
					<dim>4</dim>
				</port>
			</output>
		</layer>
		<layer id="306" name="/1/layer3/layer3.0/layer3.0.0/conv_dw/Constant_22_compressed" type="Const" version="opset1">
			<data element_type="f16" shape="" offset="11354" size="2" />
			<output>
				<port id="0" precision="FP16" names="/1/layer3/layer3.0/layer3.0.0/conv_dw/Constant_22_output_0" />
			</output>
		</layer>
		<layer id="307" name="/1/layer3/layer3.0/layer3.0.0/conv_dw/Constant_22" type="Convert" version="opset1">
			<data destination_type="f32" />
			<rt_info>
				<attribute name="decompression" version="0" />
			</rt_info>
			<input>
				<port id="0" precision="FP16" />
			</input>
			<output>
				<port id="1" precision="FP32" />
			</output>
		</layer>
		<layer id="308" name="/1/layer3/layer3.0/layer3.0.0/conv_dw/Pad" type="Pad" version="opset12">
			<data pad_mode="constant" />
			<input>
				<port id="0" precision="FP32">
					<dim>1</dim>
					<dim>288</dim>
					<dim>32</dim>
					<dim>32</dim>
				</port>
				<port id="1" precision="I64">
					<dim>4</dim>
				</port>
				<port id="2" precision="I64">
					<dim>4</dim>
				</port>
				<port id="3" precision="FP32" />
			</input>
			<output>
				<port id="4" precision="FP32" names="/1/layer3/layer3.0/layer3.0.0/conv_dw/Pad_output_0">
					<dim>1</dim>
					<dim>288</dim>
					<dim>33</dim>
					<dim>33</dim>
				</port>
			</output>
		</layer>
		<layer id="309" name="Reshape_16698_compressed" type="Const" version="opset1">
			<data element_type="f16" shape="288, 1, 1, 3, 3" offset="293404" size="5184" />
			<output>
				<port id="0" precision="FP16">
					<dim>288</dim>
					<dim>1</dim>
					<dim>1</dim>
					<dim>3</dim>
					<dim>3</dim>
				</port>
			</output>
		</layer>
		<layer id="310" name="Reshape_16698" type="Convert" version="opset1">
			<data destination_type="f32" />
			<rt_info>
				<attribute name="decompression" version="0" />
			</rt_info>
			<input>
				<port id="0" precision="FP16">
					<dim>288</dim>
					<dim>1</dim>
					<dim>1</dim>
					<dim>3</dim>
					<dim>3</dim>
				</port>
			</input>
			<output>
				<port id="1" precision="FP32">
					<dim>288</dim>
					<dim>1</dim>
					<dim>1</dim>
					<dim>3</dim>
					<dim>3</dim>
				</port>
			</output>
		</layer>
		<layer id="311" name="/1/layer3/layer3.0/layer3.0.0/conv_dw/Conv/WithoutBiases" type="GroupConvolution" version="opset1">
			<data strides="2, 2" pads_begin="0, 0" pads_end="0, 0" dilations="1, 1" auto_pad="explicit" />
			<input>
				<port id="0" precision="FP32">
					<dim>1</dim>
					<dim>288</dim>
					<dim>33</dim>
					<dim>33</dim>
				</port>
				<port id="1" precision="FP32">
					<dim>288</dim>
					<dim>1</dim>
					<dim>1</dim>
					<dim>3</dim>
					<dim>3</dim>
				</port>
			</input>
			<output>
				<port id="2" precision="FP32">
					<dim>1</dim>
					<dim>288</dim>
					<dim>16</dim>
					<dim>16</dim>
				</port>
			</output>
		</layer>
		<layer id="312" name="Reshape_16748_compressed" type="Const" version="opset1">
			<data element_type="f16" shape="1, 288, 1, 1" offset="298588" size="576" />
			<output>
				<port id="0" precision="FP16">
					<dim>1</dim>
					<dim>288</dim>
					<dim>1</dim>
					<dim>1</dim>
				</port>
			</output>
		</layer>
		<layer id="313" name="Reshape_16748" type="Convert" version="opset1">
			<data destination_type="f32" />
			<rt_info>
				<attribute name="decompression" version="0" />
			</rt_info>
			<input>
				<port id="0" precision="FP16">
					<dim>1</dim>
					<dim>288</dim>
					<dim>1</dim>
					<dim>1</dim>
				</port>
			</input>
			<output>
				<port id="1" precision="FP32">
					<dim>1</dim>
					<dim>288</dim>
					<dim>1</dim>
					<dim>1</dim>
				</port>
			</output>
		</layer>
		<layer id="314" name="/1/layer3/layer3.0/layer3.0.0/conv_dw/Conv" type="Add" version="opset1">
			<data auto_broadcast="numpy" />
			<input>
				<port id="0" precision="FP32">
					<dim>1</dim>
					<dim>288</dim>
					<dim>16</dim>
					<dim>16</dim>
				</port>
				<port id="1" precision="FP32">
					<dim>1</dim>
					<dim>288</dim>
					<dim>1</dim>
					<dim>1</dim>
				</port>
			</input>
			<output>
				<port id="2" precision="FP32" names="/1/layer3/layer3.0/layer3.0.0/conv_dw/Conv_output_0">
					<dim>1</dim>
					<dim>288</dim>
					<dim>16</dim>
					<dim>16</dim>
				</port>
			</output>
		</layer>
		<layer id="315" name="/1/layer3/layer3.0/layer3.0.0/act2/Clip" type="Clamp" version="opset1">
			<data min="0" max="6" />
			<input>
				<port id="0" precision="FP32">
					<dim>1</dim>
					<dim>288</dim>
					<dim>16</dim>
					<dim>16</dim>
				</port>
			</input>
			<output>
				<port id="1" precision="FP32" names="/1/layer3/layer3.0/layer3.0.0/act2/Clip_output_0">
					<dim>1</dim>
					<dim>288</dim>
					<dim>16</dim>
					<dim>16</dim>
				</port>
			</output>
		</layer>
		<layer id="316" name="onnx::Conv_1325_compressed" type="Const" version="opset1">
			<data element_type="f16" shape="96, 288, 1, 1" offset="299164" size="55296" />
			<output>
				<port id="0" precision="FP16" names="onnx::Conv_1325">
					<dim>96</dim>
					<dim>288</dim>
					<dim>1</dim>
					<dim>1</dim>
				</port>
			</output>
		</layer>
		<layer id="317" name="onnx::Conv_1325" type="Convert" version="opset1">
			<data destination_type="f32" />
			<rt_info>
				<attribute name="decompression" version="0" />
			</rt_info>
			<input>
				<port id="0" precision="FP16">
					<dim>96</dim>
					<dim>288</dim>
					<dim>1</dim>
					<dim>1</dim>
				</port>
			</input>
			<output>
				<port id="1" precision="FP32">
					<dim>96</dim>
					<dim>288</dim>
					<dim>1</dim>
					<dim>1</dim>
				</port>
			</output>
		</layer>
		<layer id="318" name="/1/layer3/layer3.0/layer3.0.0/conv_pwl/Conv/WithoutBiases" type="Convolution" version="opset1">
			<data strides="1, 1" dilations="1, 1" pads_begin="0, 0" pads_end="0, 0" auto_pad="explicit" />
			<input>
				<port id="0" precision="FP32">
					<dim>1</dim>
					<dim>288</dim>
					<dim>16</dim>
					<dim>16</dim>
				</port>
				<port id="1" precision="FP32">
					<dim>96</dim>
					<dim>288</dim>
					<dim>1</dim>
					<dim>1</dim>
				</port>
			</input>
			<output>
				<port id="2" precision="FP32">
					<dim>1</dim>
					<dim>96</dim>
					<dim>16</dim>
					<dim>16</dim>
				</port>
			</output>
		</layer>
		<layer id="319" name="Reshape_16765_compressed" type="Const" version="opset1">
			<data element_type="f16" shape="1, 96, 1, 1" offset="354460" size="192" />
			<output>
				<port id="0" precision="FP16">
					<dim>1</dim>
					<dim>96</dim>
					<dim>1</dim>
					<dim>1</dim>
				</port>
			</output>
		</layer>
		<layer id="320" name="Reshape_16765" type="Convert" version="opset1">
			<data destination_type="f32" />
			<rt_info>
				<attribute name="decompression" version="0" />
			</rt_info>
			<input>
				<port id="0" precision="FP16">
					<dim>1</dim>
					<dim>96</dim>
					<dim>1</dim>
					<dim>1</dim>
				</port>
			</input>
			<output>
				<port id="1" precision="FP32">
					<dim>1</dim>
					<dim>96</dim>
					<dim>1</dim>
					<dim>1</dim>
				</port>
			</output>
		</layer>
		<layer id="321" name="/1/layer3/layer3.0/layer3.0.0/conv_pwl/Conv" type="Add" version="opset1">
			<data auto_broadcast="numpy" />
			<input>
				<port id="0" precision="FP32">
					<dim>1</dim>
					<dim>96</dim>
					<dim>16</dim>
					<dim>16</dim>
				</port>
				<port id="1" precision="FP32">
					<dim>1</dim>
					<dim>96</dim>
					<dim>1</dim>
					<dim>1</dim>
				</port>
			</input>
			<output>
				<port id="2" precision="FP32" names="/1/layer3/layer3.0/layer3.0.0/conv_pwl/Conv_output_0">
					<dim>1</dim>
					<dim>96</dim>
					<dim>16</dim>
					<dim>16</dim>
				</port>
			</output>
		</layer>
		<layer id="322" name="onnx::Conv_1328_compressed" type="Const" version="opset1">
			<data element_type="f16" shape="576, 96, 1, 1" offset="354652" size="110592" />
			<output>
				<port id="0" precision="FP16" names="onnx::Conv_1328">
					<dim>576</dim>
					<dim>96</dim>
					<dim>1</dim>
					<dim>1</dim>
				</port>
			</output>
		</layer>
		<layer id="323" name="onnx::Conv_1328" type="Convert" version="opset1">
			<data destination_type="f32" />
			<rt_info>
				<attribute name="decompression" version="0" />
			</rt_info>
			<input>
				<port id="0" precision="FP16">
					<dim>576</dim>
					<dim>96</dim>
					<dim>1</dim>
					<dim>1</dim>
				</port>
			</input>
			<output>
				<port id="1" precision="FP32">
					<dim>576</dim>
					<dim>96</dim>
					<dim>1</dim>
					<dim>1</dim>
				</port>
			</output>
		</layer>
		<layer id="324" name="/1/layer3/layer3.0/layer3.0.1/conv_pw/Conv/WithoutBiases" type="Convolution" version="opset1">
			<data strides="1, 1" dilations="1, 1" pads_begin="0, 0" pads_end="0, 0" auto_pad="explicit" />
			<input>
				<port id="0" precision="FP32">
					<dim>1</dim>
					<dim>96</dim>
					<dim>16</dim>
					<dim>16</dim>
				</port>
				<port id="1" precision="FP32">
					<dim>576</dim>
					<dim>96</dim>
					<dim>1</dim>
					<dim>1</dim>
				</port>
			</input>
			<output>
				<port id="2" precision="FP32">
					<dim>1</dim>
					<dim>576</dim>
					<dim>16</dim>
					<dim>16</dim>
				</port>
			</output>
		</layer>
		<layer id="325" name="Reshape_16780_compressed" type="Const" version="opset1">
			<data element_type="f16" shape="1, 576, 1, 1" offset="465244" size="1152" />
			<output>
				<port id="0" precision="FP16">
					<dim>1</dim>
					<dim>576</dim>
					<dim>1</dim>
					<dim>1</dim>
				</port>
			</output>
		</layer>
		<layer id="326" name="Reshape_16780" type="Convert" version="opset1">
			<data destination_type="f32" />
			<rt_info>
				<attribute name="decompression" version="0" />
			</rt_info>
			<input>
				<port id="0" precision="FP16">
					<dim>1</dim>
					<dim>576</dim>
					<dim>1</dim>
					<dim>1</dim>
				</port>
			</input>
			<output>
				<port id="1" precision="FP32">
					<dim>1</dim>
					<dim>576</dim>
					<dim>1</dim>
					<dim>1</dim>
				</port>
			</output>
		</layer>
		<layer id="327" name="/1/layer3/layer3.0/layer3.0.1/conv_pw/Conv" type="Add" version="opset1">
			<data auto_broadcast="numpy" />
			<input>
				<port id="0" precision="FP32">
					<dim>1</dim>
					<dim>576</dim>
					<dim>16</dim>
					<dim>16</dim>
				</port>
				<port id="1" precision="FP32">
					<dim>1</dim>
					<dim>576</dim>
					<dim>1</dim>
					<dim>1</dim>
				</port>
			</input>
			<output>
				<port id="2" precision="FP32" names="/1/layer3/layer3.0/layer3.0.1/conv_pw/Conv_output_0">
					<dim>1</dim>
					<dim>576</dim>
					<dim>16</dim>
					<dim>16</dim>
				</port>
			</output>
		</layer>
		<layer id="328" name="/1/layer3/layer3.0/layer3.0.1/act1/Clip" type="Clamp" version="opset1">
			<data min="0" max="6" />
			<input>
				<port id="0" precision="FP32">
					<dim>1</dim>
					<dim>576</dim>
					<dim>16</dim>
					<dim>16</dim>
				</port>
			</input>
			<output>
				<port id="1" precision="FP32" names="/1/layer3/layer3.0/layer3.0.1/act1/Clip_output_0">
					<dim>1</dim>
					<dim>576</dim>
					<dim>16</dim>
					<dim>16</dim>
				</port>
			</output>
		</layer>
		<layer id="329" name="Reshape_16793_compressed" type="Const" version="opset1">
			<data element_type="f16" shape="576, 1, 1, 3, 3" offset="466396" size="10368" />
			<output>
				<port id="0" precision="FP16">
					<dim>576</dim>
					<dim>1</dim>
					<dim>1</dim>
					<dim>3</dim>
					<dim>3</dim>
				</port>
			</output>
		</layer>
		<layer id="330" name="Reshape_16793" type="Convert" version="opset1">
			<data destination_type="f32" />
			<rt_info>
				<attribute name="decompression" version="0" />
			</rt_info>
			<input>
				<port id="0" precision="FP16">
					<dim>576</dim>
					<dim>1</dim>
					<dim>1</dim>
					<dim>3</dim>
					<dim>3</dim>
				</port>
			</input>
			<output>
				<port id="1" precision="FP32">
					<dim>576</dim>
					<dim>1</dim>
					<dim>1</dim>
					<dim>3</dim>
					<dim>3</dim>
				</port>
			</output>
		</layer>
		<layer id="331" name="/1/layer3/layer3.0/layer3.0.1/conv_dw/Conv/WithoutBiases" type="GroupConvolution" version="opset1">
			<data strides="1, 1" pads_begin="1, 1" pads_end="1, 1" dilations="1, 1" auto_pad="explicit" />
			<input>
				<port id="0" precision="FP32">
					<dim>1</dim>
					<dim>576</dim>
					<dim>16</dim>
					<dim>16</dim>
				</port>
				<port id="1" precision="FP32">
					<dim>576</dim>
					<dim>1</dim>
					<dim>1</dim>
					<dim>3</dim>
					<dim>3</dim>
				</port>
			</input>
			<output>
				<port id="2" precision="FP32">
					<dim>1</dim>
					<dim>576</dim>
					<dim>16</dim>
					<dim>16</dim>
				</port>
			</output>
		</layer>
		<layer id="332" name="Reshape_16843_compressed" type="Const" version="opset1">
			<data element_type="f16" shape="1, 576, 1, 1" offset="476764" size="1152" />
			<output>
				<port id="0" precision="FP16">
					<dim>1</dim>
					<dim>576</dim>
					<dim>1</dim>
					<dim>1</dim>
				</port>
			</output>
		</layer>
		<layer id="333" name="Reshape_16843" type="Convert" version="opset1">
			<data destination_type="f32" />
			<rt_info>
				<attribute name="decompression" version="0" />
			</rt_info>
			<input>
				<port id="0" precision="FP16">
					<dim>1</dim>
					<dim>576</dim>
					<dim>1</dim>
					<dim>1</dim>
				</port>
			</input>
			<output>
				<port id="1" precision="FP32">
					<dim>1</dim>
					<dim>576</dim>
					<dim>1</dim>
					<dim>1</dim>
				</port>
			</output>
		</layer>
		<layer id="334" name="/1/layer3/layer3.0/layer3.0.1/conv_dw/Conv" type="Add" version="opset1">
			<data auto_broadcast="numpy" />
			<input>
				<port id="0" precision="FP32">
					<dim>1</dim>
					<dim>576</dim>
					<dim>16</dim>
					<dim>16</dim>
				</port>
				<port id="1" precision="FP32">
					<dim>1</dim>
					<dim>576</dim>
					<dim>1</dim>
					<dim>1</dim>
				</port>
			</input>
			<output>
				<port id="2" precision="FP32" names="/1/layer3/layer3.0/layer3.0.1/conv_dw/Conv_output_0">
					<dim>1</dim>
					<dim>576</dim>
					<dim>16</dim>
					<dim>16</dim>
				</port>
			</output>
		</layer>
		<layer id="335" name="/1/layer3/layer3.0/layer3.0.1/act2/Clip" type="Clamp" version="opset1">
			<data min="0" max="6" />
			<input>
				<port id="0" precision="FP32">
					<dim>1</dim>
					<dim>576</dim>
					<dim>16</dim>
					<dim>16</dim>
				</port>
			</input>
			<output>
				<port id="1" precision="FP32" names="/1/layer3/layer3.0/layer3.0.1/act2/Clip_output_0">
					<dim>1</dim>
					<dim>576</dim>
					<dim>16</dim>
					<dim>16</dim>
				</port>
			</output>
		</layer>
		<layer id="336" name="onnx::Conv_1334_compressed" type="Const" version="opset1">
			<data element_type="f16" shape="96, 576, 1, 1" offset="477916" size="110592" />
			<output>
				<port id="0" precision="FP16" names="onnx::Conv_1334">
					<dim>96</dim>
					<dim>576</dim>
					<dim>1</dim>
					<dim>1</dim>
				</port>
			</output>
		</layer>
		<layer id="337" name="onnx::Conv_1334" type="Convert" version="opset1">
			<data destination_type="f32" />
			<rt_info>
				<attribute name="decompression" version="0" />
			</rt_info>
			<input>
				<port id="0" precision="FP16">
					<dim>96</dim>
					<dim>576</dim>
					<dim>1</dim>
					<dim>1</dim>
				</port>
			</input>
			<output>
				<port id="1" precision="FP32">
					<dim>96</dim>
					<dim>576</dim>
					<dim>1</dim>
					<dim>1</dim>
				</port>
			</output>
		</layer>
		<layer id="338" name="/1/layer3/layer3.0/layer3.0.1/conv_pwl/Conv/WithoutBiases" type="Convolution" version="opset1">
			<data strides="1, 1" dilations="1, 1" pads_begin="0, 0" pads_end="0, 0" auto_pad="explicit" />
			<input>
				<port id="0" precision="FP32">
					<dim>1</dim>
					<dim>576</dim>
					<dim>16</dim>
					<dim>16</dim>
				</port>
				<port id="1" precision="FP32">
					<dim>96</dim>
					<dim>576</dim>
					<dim>1</dim>
					<dim>1</dim>
				</port>
			</input>
			<output>
				<port id="2" precision="FP32">
					<dim>1</dim>
					<dim>96</dim>
					<dim>16</dim>
					<dim>16</dim>
				</port>
			</output>
		</layer>
		<layer id="339" name="Reshape_16860_compressed" type="Const" version="opset1">
			<data element_type="f16" shape="1, 96, 1, 1" offset="588508" size="192" />
			<output>
				<port id="0" precision="FP16">
					<dim>1</dim>
					<dim>96</dim>
					<dim>1</dim>
					<dim>1</dim>
				</port>
			</output>
		</layer>
		<layer id="340" name="Reshape_16860" type="Convert" version="opset1">
			<data destination_type="f32" />
			<rt_info>
				<attribute name="decompression" version="0" />
			</rt_info>
			<input>
				<port id="0" precision="FP16">
					<dim>1</dim>
					<dim>96</dim>
					<dim>1</dim>
					<dim>1</dim>
				</port>
			</input>
			<output>
				<port id="1" precision="FP32">
					<dim>1</dim>
					<dim>96</dim>
					<dim>1</dim>
					<dim>1</dim>
				</port>
			</output>
		</layer>
		<layer id="341" name="/1/layer3/layer3.0/layer3.0.1/conv_pwl/Conv" type="Add" version="opset1">
			<data auto_broadcast="numpy" />
			<input>
				<port id="0" precision="FP32">
					<dim>1</dim>
					<dim>96</dim>
					<dim>16</dim>
					<dim>16</dim>
…
		<edge from-layer="201" from-port="1" to-layer="202" to-port="1" />
		<edge from-layer="202" from-port="2" to-layer="203" to-port="0" />
		<edge from-layer="203" from-port="1" to-layer="206" to-port="0" />
		<edge from-layer="204" from-port="0" to-layer="205" to-port="0" />
		<edge from-layer="205" from-port="1" to-layer="206" to-port="1" />
		<edge from-layer="206" from-port="2" to-layer="208" to-port="0" />
		<edge from-layer="207" from-port="0" to-layer="208" to-port="1" />
		<edge from-layer="208" from-port="2" to-layer="211" to-port="0" />
		<edge from-layer="208" from-port="2" to-layer="228" to-port="1" />
		<edge from-layer="209" from-port="0" to-layer="210" to-port="0" />
		<edge from-layer="210" from-port="1" to-layer="211" to-port="1" />
		<edge from-layer="211" from-port="2" to-layer="214" to-port="0" />
		<edge from-layer="212" from-port="0" to-layer="213" to-port="0" />
		<edge from-layer="213" from-port="1" to-layer="214" to-port="1" />
		<edge from-layer="214" from-port="2" to-layer="215" to-port="0" />
		<edge from-layer="215" from-port="1" to-layer="218" to-port="0" />
		<edge from-layer="216" from-port="0" to-layer="217" to-port="0" />
		<edge from-layer="217" from-port="1" to-layer="218" to-port="1" />
		<edge from-layer="218" from-port="2" to-layer="221" to-port="0" />
		<edge from-layer="219" from-port="0" to-layer="220" to-port="0" />
		<edge from-layer="220" from-port="1" to-layer="221" to-port="1" />
		<edge from-layer="221" from-port="2" to-layer="222" to-port="0" />
		<edge from-layer="222" from-port="1" to-layer="225" to-port="0" />
		<edge from-layer="223" from-port="0" to-layer="224" to-port="0" />
		<edge from-layer="224" from-port="1" to-layer="225" to-port="1" />
		<edge from-layer="225" from-port="2" to-layer="227" to-port="0" />
		<edge from-layer="226" from-port="0" to-layer="227" to-port="1" />
		<edge from-layer="227" from-port="2" to-layer="228" to-port="0" />
		<edge from-layer="228" from-port="2" to-layer="248" to-port="1" />
		<edge from-layer="228" from-port="2" to-layer="231" to-port="0" />
		<edge from-layer="229" from-port="0" to-layer="230" to-port="0" />
		<edge from-layer="230" from-port="1" to-layer="231" to-port="1" />
		<edge from-layer="231" from-port="2" to-layer="234" to-port="0" />
		<edge from-layer="232" from-port="0" to-layer="233" to-port="0" />
		<edge from-layer="233" from-port="1" to-layer="234" to-port="1" />
		<edge from-layer="234" from-port="2" to-layer="235" to-port="0" />
		<edge from-layer="235" from-port="1" to-layer="238" to-port="0" />
		<edge from-layer="236" from-port="0" to-layer="237" to-port="0" />
		<edge from-layer="237" from-port="1" to-layer="238" to-port="1" />
		<edge from-layer="238" from-port="2" to-layer="241" to-port="0" />
		<edge from-layer="239" from-port="0" to-layer="240" to-port="0" />
		<edge from-layer="240" from-port="1" to-layer="241" to-port="1" />
		<edge from-layer="241" from-port="2" to-layer="242" to-port="0" />
		<edge from-layer="242" from-port="1" to-layer="245" to-port="0" />
		<edge from-layer="243" from-port="0" to-layer="244" to-port="0" />
		<edge from-layer="244" from-port="1" to-layer="245" to-port="1" />
		<edge from-layer="245" from-port="2" to-layer="247" to-port="0" />
		<edge from-layer="246" from-port="0" to-layer="247" to-port="1" />
		<edge from-layer="247" from-port="2" to-layer="248" to-port="0" />
		<edge from-layer="248" from-port="2" to-layer="251" to-port="0" />
		<edge from-layer="248" from-port="2" to-layer="777" to-port="0" />
		<edge from-layer="249" from-port="0" to-layer="250" to-port="0" />
		<edge from-layer="250" from-port="1" to-layer="251" to-port="1" />
		<edge from-layer="251" from-port="2" to-layer="254" to-port="0" />
		<edge from-layer="252" from-port="0" to-layer="253" to-port="0" />
		<edge from-layer="253" from-port="1" to-layer="254" to-port="1" />
		<edge from-layer="254" from-port="2" to-layer="255" to-port="0" />
		<edge from-layer="255" from-port="1" to-layer="308" to-port="0" />
		<edge from-layer="255" from-port="1" to-layer="256" to-port="0" />
		<edge from-layer="256" from-port="1" to-layer="259" to-port="0" />
		<edge from-layer="256" from-port="1" to-layer="276" to-port="0" />
		<edge from-layer="257" from-port="0" to-layer="259" to-port="1" />
		<edge from-layer="258" from-port="0" to-layer="259" to-port="2" />
		<edge from-layer="259" from-port="3" to-layer="266" to-port="1" />
		<edge from-layer="259" from-port="3" to-layer="261" to-port="0" />
		<edge from-layer="260" from-port="0" to-layer="261" to-port="1" />
		<edge from-layer="261" from-port="2" to-layer="263" to-port="0" />
		<edge from-layer="262" from-port="0" to-layer="263" to-port="1" />
		<edge from-layer="263" from-port="2" to-layer="265" to-port="0" />
		<edge from-layer="264" from-port="0" to-layer="265" to-port="1" />
		<edge from-layer="265" from-port="2" to-layer="266" to-port="0" />
		<edge from-layer="266" from-port="2" to-layer="268" to-port="0" />
		<edge from-layer="266" from-port="2" to-layer="271" to-port="0" />
		<edge from-layer="267" from-port="0" to-layer="268" to-port="1" />
		<edge from-layer="268" from-port="2" to-layer="270" to-port="0" />
		<edge from-layer="268" from-port="2" to-layer="271" to-port="1" />
		<edge from-layer="269" from-port="0" to-layer="270" to-port="1" />
		<edge from-layer="270" from-port="2" to-layer="292" to-port="0" />
		<edge from-layer="271" from-port="2" to-layer="273" to-port="0" />
		<edge from-layer="272" from-port="0" to-layer="273" to-port="1" />
		<edge from-layer="273" from-port="2" to-layer="292" to-port="1" />
		<edge from-layer="274" from-port="0" to-layer="276" to-port="1" />
		<edge from-layer="275" from-port="0" to-layer="276" to-port="2" />
		<edge from-layer="276" from-port="3" to-layer="278" to-port="0" />
		<edge from-layer="276" from-port="3" to-layer="283" to-port="1" />
		<edge from-layer="277" from-port="0" to-layer="278" to-port="1" />
		<edge from-layer="278" from-port="2" to-layer="280" to-port="0" />
		<edge from-layer="279" from-port="0" to-layer="280" to-port="1" />
		<edge from-layer="280" from-port="2" to-layer="282" to-port="0" />
		<edge from-layer="281" from-port="0" to-layer="282" to-port="1" />
		<edge from-layer="282" from-port="2" to-layer="283" to-port="0" />
		<edge from-layer="283" from-port="2" to-layer="285" to-port="0" />
		<edge from-layer="283" from-port="2" to-layer="288" to-port="0" />
		<edge from-layer="284" from-port="0" to-layer="285" to-port="1" />
		<edge from-layer="285" from-port="2" to-layer="288" to-port="1" />
		<edge from-layer="285" from-port="2" to-layer="287" to-port="0" />
		<edge from-layer="286" from-port="0" to-layer="287" to-port="1" />
		<edge from-layer="287" from-port="2" to-layer="292" to-port="2" />
		<edge from-layer="288" from-port="2" to-layer="290" to-port="0" />
		<edge from-layer="289" from-port="0" to-layer="290" to-port="1" />
		<edge from-layer="290" from-port="2" to-layer="292" to-port="3" />
		<edge from-layer="291" from-port="0" to-layer="292" to-port="4" />
		<edge from-layer="292" from-port="5" to-layer="294" to-port="0" />
		<edge from-layer="293" from-port="0" to-layer="294" to-port="1" />
		<edge from-layer="294" from-port="2" to-layer="299" to-port="0" />
		<edge from-layer="295" from-port="0" to-layer="299" to-port="1" />
		<edge from-layer="296" from-port="0" to-layer="299" to-port="2" />
		<edge from-layer="297" from-port="0" to-layer="299" to-port="3" />
		<edge from-layer="298" from-port="0" to-layer="299" to-port="4" />
		<edge from-layer="299" from-port="5" to-layer="301" to-port="0" />
		<edge from-layer="300" from-port="0" to-layer="301" to-port="1" />
		<edge from-layer="301" from-port="2" to-layer="303" to-port="0" />
		<edge from-layer="302" from-port="0" to-layer="303" to-port="1" />
		<edge from-layer="303" from-port="2" to-layer="305" to-port="0" />
		<edge from-layer="304" from-port="0" to-layer="305" to-port="1" />
		<edge from-layer="305" from-port="2" to-layer="308" to-port="1" />
		<edge from-layer="305" from-port="3" to-layer="308" to-port="2" />
		<edge from-layer="306" from-port="0" to-layer="307" to-port="0" />
		<edge from-layer="307" from-port="1" to-layer="308" to-port="3" />
		<edge from-layer="308" from-port="4" to-layer="311" to-port="0" />
		<edge from-layer="309" from-port="0" to-layer="310" to-port="0" />
		<edge from-layer="310" from-port="1" to-layer="311" to-port="1" />
		<edge from-layer="311" from-port="2" to-layer="314" to-port="0" />
		<edge from-layer="312" from-port="0" to-layer="313" to-port="0" />
		<edge from-layer="313" from-port="1" to-layer="314" to-port="1" />
		<edge from-layer="314" from-port="2" to-layer="315" to-port="0" />
		<edge from-layer="315" from-port="1" to-layer="318" to-port="0" />
		<edge from-layer="316" from-port="0" to-layer="317" to-port="0" />
		<edge from-layer="317" from-port="1" to-layer="318" to-port="1" />
		<edge from-layer="318" from-port="2" to-layer="321" to-port="0" />
		<edge from-layer="319" from-port="0" to-layer="320" to-port="0" />
		<edge from-layer="320" from-port="1" to-layer="321" to-port="1" />
		<edge from-layer="321" from-port="2" to-layer="324" to-port="0" />
		<edge from-layer="321" from-port="2" to-layer="342" to-port="1" />
		<edge from-layer="322" from-port="0" to-layer="323" to-port="0" />
		<edge from-layer="323" from-port="1" to-layer="324" to-port="1" />
		<edge from-layer="324" from-port="2" to-layer="327" to-port="0" />
		<edge from-layer="325" from-port="0" to-layer="326" to-port="0" />
		<edge from-layer="326" from-port="1" to-layer="327" to-port="1" />
		<edge from-layer="327" from-port="2" to-layer="328" to-port="0" />
		<edge from-layer="328" from-port="1" to-layer="331" to-port="0" />
		<edge from-layer="329" from-port="0" to-layer="330" to-port="0" />
		<edge from-layer="330" from-port="1" to-layer="331" to-port="1" />
		<edge from-layer="331" from-port="2" to-layer="334" to-port="0" />
		<edge from-layer="332" from-port="0" to-layer="333" to-port="0" />
		<edge from-layer="333" from-port="1" to-layer="334" to-port="1" />
		<edge from-layer="334" from-port="2" to-layer="335" to-port="0" />
		<edge from-layer="335" from-port="1" to-layer="338" to-port="0" />
		<edge from-layer="336" from-port="0" to-layer="337" to-port="0" />
		<edge from-layer="337" from-port="1" to-layer="338" to-port="1" />
		<edge from-layer="338" from-port="2" to-layer="341" to-port="0" />
		<edge from-layer="339" from-port="0" to-layer="340" to-port="0" />
		<edge from-layer="340" from-port="1" to-layer="341" to-port="1" />
		<edge from-layer="341" from-port="2" to-layer="342" to-port="0" />
		<edge from-layer="342" from-port="2" to-layer="363" to-port="1" />
		<edge from-layer="342" from-port="2" to-layer="345" to-port="0" />
		<edge from-layer="343" from-port="0" to-layer="344" to-port="0" />
		<edge from-layer="344" from-port="1" to-layer="345" to-port="1" />
		<edge from-layer="345" from-port="2" to-layer="348" to-port="0" />
		<edge from-layer="346" from-port="0" to-layer="347" to-port="0" />
		<edge from-layer="347" from-port="1" to-layer="348" to-port="1" />
		<edge from-layer="348" from-port="2" to-layer="349" to-port="0" />
		<edge from-layer="349" from-port="1" to-layer="352" to-port="0" />
		<edge from-layer="350" from-port="0" to-layer="351" to-port="0" />
		<edge from-layer="351" from-port="1" to-layer="352" to-port="1" />
		<edge from-layer="352" from-port="2" to-layer="355" to-port="0" />
		<edge from-layer="353" from-port="0" to-layer="354" to-port="0" />
		<edge from-layer="354" from-port="1" to-layer="355" to-port="1" />
		<edge from-layer="355" from-port="2" to-layer="356" to-port="0" />
		<edge from-layer="356" from-port="1" to-layer="359" to-port="0" />
		<edge from-layer="357" from-port="0" to-layer="358" to-port="0" />
		<edge from-layer="358" from-port="1" to-layer="359" to-port="1" />
		<edge from-layer="359" from-port="2" to-layer="362" to-port="0" />
		<edge from-layer="360" from-port="0" to-layer="361" to-port="0" />
		<edge from-layer="361" from-port="1" to-layer="362" to-port="1" />
		<edge from-layer="362" from-port="2" to-layer="363" to-port="0" />
		<edge from-layer="363" from-port="2" to-layer="384" to-port="1" />
		<edge from-layer="363" from-port="2" to-layer="366" to-port="0" />
		<edge from-layer="364" from-port="0" to-layer="365" to-port="0" />
		<edge from-layer="365" from-port="1" to-layer="366" to-port="1" />
		<edge from-layer="366" from-port="2" to-layer="369" to-port="0" />
		<edge from-layer="367" from-port="0" to-layer="368" to-port="0" />
		<edge from-layer="368" from-port="1" to-layer="369" to-port="1" />
		<edge from-layer="369" from-port="2" to-layer="370" to-port="0" />
		<edge from-layer="370" from-port="1" to-layer="373" to-port="0" />
		<edge from-layer="371" from-port="0" to-layer="372" to-port="0" />
		<edge from-layer="372" from-port="1" to-layer="373" to-port="1" />
		<edge from-layer="373" from-port="2" to-layer="376" to-port="0" />
		<edge from-layer="374" from-port="0" to-layer="375" to-port="0" />
		<edge from-layer="375" from-port="1" to-layer="376" to-port="1" />
		<edge from-layer="376" from-port="2" to-layer="377" to-port="0" />
		<edge from-layer="377" from-port="1" to-layer="380" to-port="0" />
		<edge from-layer="378" from-port="0" to-layer="379" to-port="0" />
		<edge from-layer="379" from-port="1" to-layer="380" to-port="1" />
		<edge from-layer="380" from-port="2" to-layer="383" to-port="0" />
		<edge from-layer="381" from-port="0" to-layer="382" to-port="0" />
		<edge from-layer="382" from-port="1" to-layer="383" to-port="1" />
		<edge from-layer="383" from-port="2" to-layer="384" to-port="0" />
		<edge from-layer="384" from-port="2" to-layer="405" to-port="1" />
		<edge from-layer="384" from-port="2" to-layer="387" to-port="0" />
		<edge from-layer="385" from-port="0" to-layer="386" to-port="0" />
		<edge from-layer="386" from-port="1" to-layer="387" to-port="1" />
		<edge from-layer="387" from-port="2" to-layer="390" to-port="0" />
		<edge from-layer="388" from-port="0" to-layer="389" to-port="0" />
		<edge from-layer="389" from-port="1" to-layer="390" to-port="1" />
		<edge from-layer="390" from-port="2" to-layer="391" to-port="0" />
		<edge from-layer="391" from-port="1" to-layer="394" to-port="0" />
		<edge from-layer="392" from-port="0" to-layer="393" to-port="0" />
		<edge from-layer="393" from-port="1" to-layer="394" to-port="1" />
		<edge from-layer="394" from-port="2" to-layer="397" to-port="0" />
		<edge from-layer="395" from-port="0" to-layer="396" to-port="0" />
		<edge from-layer="396" from-port="1" to-layer="397" to-port="1" />
		<edge from-layer="397" from-port="2" to-layer="398" to-port="0" />
		<edge from-layer="398" from-port="1" to-layer="401" to-port="0" />
		<edge from-layer="399" from-port="0" to-layer="400" to-port="0" />
		<edge from-layer="400" from-port="1" to-layer="401" to-port="1" />
		<edge from-layer="401" from-port="2" to-layer="404" to-port="0" />
		<edge from-layer="402" from-port="0" to-layer="403" to-port="0" />
		<edge from-layer="403" from-port="1" to-layer="404" to-port="1" />
		<edge from-layer="404" from-port="2" to-layer="405" to-port="0" />
		<edge from-layer="405" from-port="2" to-layer="408" to-port="0" />
		<edge from-layer="406" from-port="0" to-layer="407" to-port="0" />
		<edge from-layer="407" from-port="1" to-layer="408" to-port="1" />
		<edge from-layer="408" from-port="2" to-layer="411" to-port="0" />
		<edge from-layer="409" from-port="0" to-layer="410" to-port="0" />
		<edge from-layer="410" from-port="1" to-layer="411" to-port="1" />
		<edge from-layer="411" from-port="2" to-layer="412" to-port="0" />
		<edge from-layer="412" from-port="1" to-layer="415" to-port="0" />
		<edge from-layer="413" from-port="0" to-layer="414" to-port="0" />
		<edge from-layer="414" from-port="1" to-layer="415" to-port="1" />
		<edge from-layer="415" from-port="2" to-layer="418" to-port="0" />
		<edge from-layer="416" from-port="0" to-layer="417" to-port="0" />
		<edge from-layer="417" from-port="1" to-layer="418" to-port="1" />
		<edge from-layer="418" from-port="2" to-layer="419" to-port="0" />
		<edge from-layer="419" from-port="1" to-layer="422" to-port="0" />
		<edge from-layer="420" from-port="0" to-layer="421" to-port="0" />
		<edge from-layer="421" from-port="1" to-layer="422" to-port="1" />
		<edge from-layer="422" from-port="2" to-layer="425" to-port="0" />
		<edge from-layer="423" from-port="0" to-layer="424" to-port="0" />
		<edge from-layer="424" from-port="1" to-layer="425" to-port="1" />
		<edge from-layer="425" from-port="2" to-layer="428" to-port="0" />
		<edge from-layer="425" from-port="2" to-layer="446" to-port="1" />
		<edge from-layer="426" from-port="0" to-layer="427" to-port="0" />
		<edge from-layer="427" from-port="1" to-layer="428" to-port="1" />
		<edge from-layer="428" from-port="2" to-layer="431" to-port="0" />
		<edge from-layer="429" from-port="0" to-layer="430" to-port="0" />
		<edge from-layer="430" from-port="1" to-layer="431" to-port="1" />
		<edge from-layer="431" from-port="2" to-layer="432" to-port="0" />
		<edge from-layer="432" from-port="1" to-layer="435" to-port="0" />
		<edge from-layer="433" from-port="0" to-layer="434" to-port="0" />
		<edge from-layer="434" from-port="1" to-layer="435" to-port="1" />
		<edge from-layer="435" from-port="2" to-layer="438" to-port="0" />
		<edge from-layer="436" from-port="0" to-layer="437" to-port="0" />
		<edge from-layer="437" from-port="1" to-layer="438" to-port="1" />
		<edge from-layer="438" from-port="2" to-layer="439" to-port="0" />
		<edge from-layer="439" from-port="1" to-layer="442" to-port="0" />
		<edge from-layer="440" from-port="0" to-layer="441" to-port="0" />
		<edge from-layer="441" from-port="1" to-layer="442" to-port="1" />
		<edge from-layer="442" from-port="2" to-layer="445" to-port="0" />
		<edge from-layer="443" from-port="0" to-layer="444" to-port="0" />
		<edge from-layer="444" from-port="1" to-layer="445" to-port="1" />
		<edge from-layer="445" from-port="2" to-layer="446" to-port="0" />
		<edge from-layer="446" from-port="2" to-layer="467" to-port="1" />
		<edge from-layer="446" from-port="2" to-layer="449" to-port="0" />
		<edge from-layer="447" from-port="0" to-layer="448" to-port="0" />
		<edge from-layer="448" from-port="1" to-layer="449" to-port="1" />
		<edge from-layer="449" from-port="2" to-layer="452" to-port="0" />
		<edge from-layer="450" from-port="0" to-layer="451" to-port="0" />
		<edge from-layer="451" from-port="1" to-layer="452" to-port="1" />
		<edge from-layer="452" from-port="2" to-layer="453" to-port="0" />
		<edge from-layer="453" from-port="1" to-layer="456" to-port="0" />
		<edge from-layer="454" from-port="0" to-layer="455" to-port="0" />
		<edge from-layer="455" from-port="1" to-layer="456" to-port="1" />
		<edge from-layer="456" from-port="2" to-layer="459" to-port="0" />
		<edge from-layer="457" from-port="0" to-layer="458" to-port="0" />
		<edge from-layer="458" from-port="1" to-layer="459" to-port="1" />
		<edge from-layer="459" from-port="2" to-layer="460" to-port="0" />
		<edge from-layer="460" from-port="1" to-layer="463" to-port="0" />
		<edge from-layer="461" from-port="0" to-layer="462" to-port="0" />
		<edge from-layer="462" from-port="1" to-layer="463" to-port="1" />
		<edge from-layer="463" from-port="2" to-layer="466" to-port="0" />
		<edge from-layer="464" from-port="0" to-layer="465" to-port="0" />
		<edge from-layer="465" from-port="1" to-layer="466" to-port="1" />
		<edge from-layer="466" from-port="2" to-layer="467" to-port="0" />
		<edge from-layer="467" from-port="2" to-layer="470" to-port="0" />
		<edge from-layer="467" from-port="2" to-layer="488" to-port="1" />
		<edge from-layer="468" from-port="0" to-layer="469" to-port="0" />
		<edge from-layer="469" from-port="1" to-layer="470" to-port="1" />
		<edge from-layer="470" from-port="2" to-layer="473" to-port="0" />
		<edge from-layer="471" from-port="0" to-layer="472" to-port="0" />
		<edge from-layer="472" from-port="1" to-layer="473" to-port="1" />
		<edge from-layer="473" from-port="2" to-layer="474" to-port="0" />
		<edge from-layer="474" from-port="1" to-layer="477" to-port="0" />
		<edge from-layer="475" from-port="0" to-layer="476" to-port="0" />
		<edge from-layer="476" from-port="1" to-layer="477" to-port="1" />
		<edge from-layer="477" from-port="2" to-layer="480" to-port="0" />
		<edge from-layer="478" from-port="0" to-layer="479" to-port="0" />
		<edge from-layer="479" from-port="1" to-layer="480" to-port="1" />
		<edge from-layer="480" from-port="2" to-layer="481" to-port="0" />
		<edge from-layer="481" from-port="1" to-layer="484" to-port="0" />
		<edge from-layer="482" from-port="0" to-layer="483" to-port="0" />
		<edge from-layer="483" from-port="1" to-layer="484" to-port="1" />
		<edge from-layer="484" from-port="2" to-layer="487" to-port="0" />
		<edge from-layer="485" from-port="0" to-layer="486" to-port="0" />
		<edge from-layer="486" from-port="1" to-layer="487" to-port="1" />
		<edge from-layer="487" from-port="2" to-layer="488" to-port="0" />
		<edge from-layer="488" from-port="2" to-layer="509" to-port="1" />
		<edge from-layer="488" from-port="2" to-layer="491" to-port="0" />
		<edge from-layer="489" from-port="0" to-layer="490" to-port="0" />
		<edge from-layer="490" from-port="1" to-layer="491" to-port="1" />
		<edge from-layer="491" from-port="2" to-layer="494" to-port="0" />
		<edge from-layer="492" from-port="0" to-layer="493" to-port="0" />
		<edge from-layer="493" from-port="1" to-layer="494" to-port="1" />
		<edge from-layer="494" from-port="2" to-layer="495" to-port="0" />
		<edge from-layer="495" from-port="1" to-layer="498" to-port="0" />
		<edge from-layer="496" from-port="0" to-layer="497" to-port="0" />
		<edge from-layer="497" from-port="1" to-layer="498" to-port="1" />
		<edge from-layer="498" from-port="2" to-layer="501" to-port="0" />
		<edge from-layer="499" from-port="0" to-layer="500" to-port="0" />
		<edge from-layer="500" from-port="1" to-layer="501" to-port="1" />
		<edge from-layer="501" from-port="2" to-layer="502" to-port="0" />
		<edge from-layer="502" from-port="1" to-layer="505" to-port="0" />
		<edge from-layer="503" from-port="0" to-layer="504" to-port="0" />
		<edge from-layer="504" from-port="1" to-layer="505" to-port="1" />
		<edge from-layer="505" from-port="2" to-layer="508" to-port="0" />
		<edge from-layer="506" from-port="0" to-layer="507" to-port="0" />
		<edge from-layer="507" from-port="1" to-layer="508" to-port="1" />
		<edge from-layer="508" from-port="2" to-layer="509" to-port="0" />
		<edge from-layer="509" from-port="2" to-layer="736" to-port="0" />
		<edge from-layer="509" from-port="2" to-layer="512" to-port="0" />
		<edge from-layer="510" from-port="0" to-layer="511" to-port="0" />
		<edge from-layer="511" from-port="1" to-layer="512" to-port="1" />
		<edge from-layer="512" from-port="2" to-layer="515" to-port="0" />
		<edge from-layer="513" from-port="0" to-layer="514" to-port="0" />
		<edge from-layer="514" from-port="1" to-layer="515" to-port="1" />
		<edge from-layer="515" from-port="2" to-layer="516" to-port="0" />
		<edge from-layer="516" from-port="1" to-layer="569" to-port="0" />
		<edge from-layer="516" from-port="1" to-layer="517" to-port="0" />
		<edge from-layer="517" from-port="1" to-layer="520" to-port="0" />
		<edge from-layer="517" from-port="1" to-layer="537" to-port="0" />
		<edge from-layer="518" from-port="0" to-layer="520" to-port="1" />
		<edge from-layer="519" from-port="0" to-layer="520" to-port="2" />
		<edge from-layer="520" from-port="3" to-layer="522" to-port="0" />
		<edge from-layer="520" from-port="3" to-layer="527" to-port="1" />
		<edge from-layer="521" from-port="0" to-layer="522" to-port="1" />
		<edge from-layer="522" from-port="2" to-layer="524" to-port="0" />
		<edge from-layer="523" from-port="0" to-layer="524" to-port="1" />
		<edge from-layer="524" from-port="2" to-layer="526" to-port="0" />
		<edge from-layer="525" from-port="0" to-layer="526" to-port="1" />
		<edge from-layer="526" from-port="2" to-layer="527" to-port="0" />
		<edge from-layer="527" from-port="2" to-layer="529" to-port="0" />
		<edge from-layer="527" from-port="2" to-layer="532" to-port="0" />
		<edge from-layer="528" from-port="0" to-layer="529" to-port="1" />
		<edge from-layer="529" from-port="2" to-layer="531" to-port="0" />
		<edge from-layer="529" from-port="2" to-layer="532" to-port="1" />
		<edge from-layer="530" from-port="0" to-layer="531" to-port="1" />
		<edge from-layer="531" from-port="2" to-layer="553" to-port="0" />
		<edge from-layer="532" from-port="2" to-layer="534" to-port="0" />
		<edge from-layer="533" from-port="0" to-layer="534" to-port="1" />
		<edge from-layer="534" from-port="2" to-layer="553" to-port="1" />
		<edge from-layer="535" from-port="0" to-layer="537" to-port="1" />
		<edge from-layer="536" from-port="0" to-layer="537" to-port="2" />
		<edge from-layer="537" from-port="3" to-layer="544" to-port="1" />
		<edge from-layer="537" from-port="3" to-layer="539" to-port="0" />
		<edge from-layer="538" from-port="0" to-layer="539" to-port="1" />
		<edge from-layer="539" from-port="2" to-layer="541" to-port="0" />
		<edge from-layer="540" from-port="0" to-layer="541" to-port="1" />
		<edge from-layer="541" from-port="2" to-layer="543" to-port="0" />
		<edge from-layer="542" from-port="0" to-layer="543" to-port="1" />
		<edge from-layer="543" from-port="2" to-layer="544" to-port="0" />
		<edge from-layer="544" from-port="2" to-layer="549" to-port="0" />
		<edge from-layer="544" from-port="2" to-layer="546" to-port="0" />
		<edge from-layer="545" from-port="0" to-layer="546" to-port="1" />
		<edge from-layer="546" from-port="2" to-layer="549" to-port="1" />
		<edge from-layer="546" from-port="2" to-layer="548" to-port="0" />
		<edge from-layer="547" from-port="0" to-layer="548" to-port="1" />
		<edge from-layer="548" from-port="2" to-layer="553" to-port="2" />
		<edge from-layer="549" from-port="2" to-layer="551" to-port="0" />
		<edge from-layer="550" from-port="0" to-layer="551" to-port="1" />
		<edge from-layer="551" from-port="2" to-layer="553" to-port="3" />
		<edge from-layer="552" from-port="0" to-layer="553" to-port="4" />
		<edge from-layer="553" from-port="5" to-layer="555" to-port="0" />
		<edge from-layer="554" from-port="0" to-layer="555" to-port="1" />
		<edge from-layer="555" from-port="2" to-layer="560" to-port="0" />
		<edge from-layer="556" from-port="0" to-layer="560" to-port="1" />
		<edge from-layer="557" from-port="0" to-layer="560" to-port="2" />
		<edge from-layer="558" from-port="0" to-layer="560" to-port="3" />
		<edge from-layer="559" from-port="0" to-layer="560" to-port="4" />
		<edge from-layer="560" from-port="5" to-layer="562" to-port="0" />
		<edge from-layer="561" from-port="0" to-layer="562" to-port="1" />
		<edge from-layer="562" from-port="2" to-layer="564" to-port="0" />
		<edge from-layer="563" from-port="0" to-layer="564" to-port="1" />
		<edge from-layer="564" from-port="2" to-layer="566" to-port="0" />
		<edge from-layer="565" from-port="0" to-layer="566" to-port="1" />
		<edge from-layer="566" from-port="2" to-layer="569" to-port="1" />
		<edge from-layer="566" from-port="3" to-layer="569" to-port="2" />
		<edge from-layer="567" from-port="0" to-layer="568" to-port="0" />
		<edge from-layer="568" from-port="1" to-layer="569" to-port="3" />
		<edge from-layer="569" from-port="4" to-layer="572" to-port="0" />
		<edge from-layer="570" from-port="0" to-layer="571" to-port="0" />
		<edge from-layer="571" from-port="1" to-layer="572" to-port="1" />
		<edge from-layer="572" from-port="2" to-layer="575" to-port="0" />
		<edge from-layer="573" from-port="0" to-layer="574" to-port="0" />
		<edge from-layer="574" from-port="1" to-layer="575" to-port="1" />
		<edge from-layer="575" from-port="2" to-layer="576" to-port="0" />
		<edge from-layer="576" from-port="1" to-layer="579" to-port="0" />
		<edge from-layer="577" from-port="0" to-layer="578" to-port="0" />
		<edge from-layer="578" from-port="1" to-layer="579" to-port="1" />
		<edge from-layer="579" from-port="2" to-layer="582" to-port="0" />
		<edge from-layer="580" from-port="0" to-layer="581" to-port="0" />
		<edge from-layer="581" from-port="1" to-layer="582" to-port="1" />
		<edge from-layer="582" from-port="2" to-layer="585" to-port="0" />
		<edge from-layer="582" from-port="2" to-layer="603" to-port="1" />
		<edge from-layer="583" from-port="0" to-layer="584" to-port="0" />
		<edge from-layer="584" from-port="1" to-layer="585" to-port="1" />
		<edge from-layer="585" from-port="2" to-layer="588" to-port="0" />
		<edge from-layer="586" from-port="0" to-layer="587" to-port="0" />
		<edge from-layer="587" from-port="1" to-layer="588" to-port="1" />
		<edge from-layer="588" from-port="2" to-layer="589" to-port="0" />
		<edge from-layer="589" from-port="1" to-layer="592" to-port="0" />
		<edge from-layer="590" from-port="0" to-layer="591" to-port="0" />
		<edge from-layer="591" from-port="1" to-layer="592" to-port="1" />
		<edge from-layer="592" from-port="2" to-layer="595" to-port="0" />
		<edge from-layer="593" from-port="0" to-layer="594" to-port="0" />
		<edge from-layer="594" from-port="1" to-layer="595" to-port="1" />
		<edge from-layer="595" from-port="2" to-layer="596" to-port="0" />
		<edge from-layer="596" from-port="1" to-layer="599" to-port="0" />
		<edge from-layer="597" from-port="0" to-layer="598" to-port="0" />
		<edge from-layer="598" from-port="1" to-layer="599" to-port="1" />
		<edge from-layer="599" from-port="2" to-layer="602" to-port="0" />
		<edge from-layer="600" from-port="0" to-layer="601" to-port="0" />
		<edge from-layer="601" from-port="1" to-layer="602" to-port="1" />
		<edge from-layer="602" from-port="2" to-layer="603" to-port="0" />
		<edge from-layer="603" from-port="2" to-layer="606" to-port="0" />
		<edge from-layer="603" from-port="2" to-layer="624" to-port="1" />
		<edge from-layer="604" from-port="0" to-layer="605" to-port="0" />
		<edge from-layer="605" from-port="1" to-layer="606" to-port="1" />
		<edge from-layer="606" from-port="2" to-layer="609" to-port="0" />
		<edge from-layer="607" from-port="0" to-layer="608" to-port="0" />
		<edge from-layer="608" from-port="1" to-layer="609" to-port="1" />
		<edge from-layer="609" from-port="2" to-layer="610" to-port="0" />
		<edge from-layer="610" from-port="1" to-layer="613" to-port="0" />
		<edge from-layer="611" from-port="0" to-layer="612" to-port="0" />
		<edge from-layer="612" from-port="1" to-layer="613" to-port="1" />
		<edge from-layer="613" from-port="2" to-layer="616" to-port="0" />
		<edge from-layer="614" from-port="0" to-layer="615" to-port="0" />
		<edge from-layer="615" from-port="1" to-layer="616" to-port="1" />
		<edge from-layer="616" from-port="2" to-layer="617" to-port="0" />
		<edge from-layer="617" from-port="1" to-layer="620" to-port="0" />
		<edge from-layer="618" from-port="0" to-layer="619" to-port="0" />
		<edge from-layer="619" from-port="1" to-layer="620" to-port="1" />
		<edge from-layer="620" from-port="2" to-layer="623" to-port="0" />
		<edge from-layer="621" from-port="0" to-layer="622" to-port="0" />
		<edge from-layer="622" from-port="1" to-layer="623" to-port="1" />
		<edge from-layer="623" from-port="2" to-layer="624" to-port="0" />
		<edge from-layer="624" from-port="2" to-layer="645" to-port="1" />
		<edge from-layer="624" from-port="2" to-layer="627" to-port="0" />
		<edge from-layer="625" from-port="0" to-layer="626" to-port="0" />
		<edge from-layer="626" from-port="1" to-layer="627" to-port="1" />
		<edge from-layer="627" from-port="2" to-layer="630" to-port="0" />
		<edge from-layer="628" from-port="0" to-layer="629" to-port="0" />
		<edge from-layer="629" from-port="1" to-layer="630" to-port="1" />
		<edge from-layer="630" from-port="2" to-layer="631" to-port="0" />
		<edge from-layer="631" from-port="1" to-layer="634" to-port="0" />
		<edge from-layer="632" from-port="0" to-layer="633" to-port="0" />
		<edge from-layer="633" from-port="1" to-layer="634" to-port="1" />
		<edge from-layer="634" from-port="2" to-layer="637" to-port="0" />
		<edge from-layer="635" from-port="0" to-layer="636" to-port="0" />
		<edge from-layer="636" from-port="1" to-layer="637" to-port="1" />
		<edge from-layer="637" from-port="2" to-layer="638" to-port="0" />
		<edge from-layer="638" from-port="1" to-layer="641" to-port="0" />
		<edge from-layer="639" from-port="0" to-layer="640" to-port="0" />
		<edge from-layer="640" from-port="1" to-layer="641" to-port="1" />
		<edge from-layer="641" from-port="2" to-layer="644" to-port="0" />
		<edge from-layer="642" from-port="0" to-layer="643" to-port="0" />
		<edge from-layer="643" from-port="1" to-layer="644" to-port="1" />
		<edge from-layer="644" from-port="2" to-layer="645" to-port="0" />
		<edge from-layer="645" from-port="2" to-layer="666" to-port="1" />
		<edge from-layer="645" from-port="2" to-layer="648" to-port="0" />
		<edge from-layer="646" from-port="0" to-layer="647" to-port="0" />
		<edge from-layer="647" from-port="1" to-layer="648" to-port="1" />
		<edge from-layer="648" from-port="2" to-layer="651" to-port="0" />
		<edge from-layer="649" from-port="0" to-layer="650" to-port="0" />
		<edge from-layer="650" from-port="1" to-layer="651" to-port="1" />
		<edge from-layer="651" from-port="2" to-layer="652" to-port="0" />
		<edge from-layer="652" from-port="1" to-layer="655" to-port="0" />
		<edge from-layer="653" from-port="0" to-layer="654" to-port="0" />
		<edge from-layer="654" from-port="1" to-layer="655" to-port="1" />
		<edge from-layer="655" from-port="2" to-layer="658" to-port="0" />
		<edge from-layer="656" from-port="0" to-layer="657" to-port="0" />
		<edge from-layer="657" from-port="1" to-layer="658" to-port="1" />
		<edge from-layer="658" from-port="2" to-layer="659" to-port="0" />
		<edge from-layer="659" from-port="1" to-layer="662" to-port="0" />
		<edge from-layer="660" from-port="0" to-layer="661" to-port="0" />
		<edge from-layer="661" from-port="1" to-layer="662" to-port="1" />
		<edge from-layer="662" from-port="2" to-layer="665" to-port="0" />
		<edge from-layer="663" from-port="0" to-layer="664" to-port="0" />
		<edge from-layer="664" from-port="1" to-layer="665" to-port="1" />
		<edge from-layer="665" from-port="2" to-layer="666" to-port="0" />
		<edge from-layer="666" from-port="2" to-layer="669" to-port="0" />
		<edge from-layer="666" from-port="2" to-layer="687" to-port="1" />
		<edge from-layer="667" from-port="0" to-layer="668" to-port="0" />
		<edge from-layer="668" from-port="1" to-layer="669" to-port="1" />
		<edge from-layer="669" from-port="2" to-layer="672" to-port="0" />
		<edge from-layer="670" from-port="0" to-layer="671" to-port="0" />
		<edge from-layer="671" from-port="1" to-layer="672" to-port="1" />
		<edge from-layer="672" from-port="2" to-layer="673" to-port="0" />
		<edge from-layer="673" from-port="1" to-layer="676" to-port="0" />
		<edge from-layer="674" from-port="0" to-layer="675" to-port="0" />
		<edge from-layer="675" from-port="1" to-layer="676" to-port="1" />
		<edge from-layer="676" from-port="2" to-layer="679" to-port="0" />
		<edge from-layer="677" from-port="0" to-layer="678" to-port="0" />
		<edge from-layer="678" from-port="1" to-layer="679" to-port="1" />
		<edge from-layer="679" from-port="2" to-layer="680" to-port="0" />
		<edge from-layer="680" from-port="1" to-layer="683" to-port="0" />
		<edge from-layer="681" from-port="0" to-layer="682" to-port="0" />
		<edge from-layer="682" from-port="1" to-layer="683" to-port="1" />
		<edge from-layer="683" from-port="2" to-layer="686" to-port="0" />
		<edge from-layer="684" from-port="0" to-layer="685" to-port="0" />
		<edge from-layer="685" from-port="1" to-layer="686" to-port="1" />
		<edge from-layer="686" from-port="2" to-layer="687" to-port="0" />
		<edge from-layer="687" from-port="2" to-layer="690" to-port="0" />
		<edge from-layer="688" from-port="0" to-layer="689" to-port="0" />
		<edge from-layer="689" from-port="1" to-layer="690" to-port="1" />
		<edge from-layer="690" from-port="2" to-layer="693" to-port="0" />
		<edge from-layer="691" from-port="0" to-layer="692" to-port="0" />
		<edge from-layer="692" from-port="1" to-layer="693" to-port="1" />
		<edge from-layer="693" from-port="2" to-layer="694" to-port="0" />
		<edge from-layer="694" from-port="1" to-layer="697" to-port="0" />
		<edge from-layer="695" from-port="0" to-layer="696" to-port="0" />
		<edge from-layer="696" from-port="1" to-layer="697" to-port="1" />
		<edge from-layer="697" from-port="2" to-layer="700" to-port="0" />
		<edge from-layer="698" from-port="0" to-layer="699" to-port="0" />
		<edge from-layer="699" from-port="1" to-layer="700" to-port="1" />
		<edge from-layer="700" from-port="2" to-layer="701" to-port="0" />
		<edge from-layer="701" from-port="1" to-layer="704" to-port="0" />
		<edge from-layer="702" from-port="0" to-layer="703" to-port="0" />
		<edge from-layer="703" from-port="1" to-layer="704" to-port="1" />
		<edge from-layer="704" from-port="2" to-layer="707" to-port="0" />
		<edge from-layer="705" from-port="0" to-layer="706" to-port="0" />
		<edge from-layer="706" from-port="1" to-layer="707" to-port="1" />
		<edge from-layer="707" from-port="2" to-layer="710" to-port="0" />
		<edge from-layer="708" from-port="0" to-layer="709" to-port="0" />
		<edge from-layer="709" from-port="1" to-layer="710" to-port="1" />
		<edge from-layer="710" from-port="2" to-layer="725" to-port="1" />
		<edge from-layer="710" from-port="2" to-layer="711" to-port="0" />
		<edge from-layer="711" from-port="1" to-layer="714" to-port="0" />
		<edge from-layer="712" from-port="0" to-layer="713" to-port="0" />
		<edge from-layer="713" from-port="1" to-layer="714" to-port="1" />
		<edge from-layer="714" from-port="2" to-layer="717" to-port="0" />
		<edge from-layer="715" from-port="0" to-layer="716" to-port="0" />
		<edge from-layer="716" from-port="1" to-layer="717" to-port="1" />
		<edge from-layer="717" from-port="2" to-layer="718" to-port="0" />
		<edge from-layer="718" from-port="1" to-layer="721" to-port="0" />
		<edge from-layer="719" from-port="0" to-layer="720" to-port="0" />
		<edge from-layer="720" from-port="1" to-layer="721" to-port="1" />
		<edge from-layer="721" from-port="2" to-layer="724" to-port="0" />
		<edge from-layer="722" from-port="0" to-layer="723" to-port="0" />
		<edge from-layer="723" from-port="1" to-layer="724" to-port="1" />
		<edge from-layer="724" from-port="2" to-layer="725" to-port="0" />
		<edge from-layer="725" from-port="2" to-layer="727" to-port="0" />
		<edge from-layer="726" from-port="0" to-layer="727" to-port="1" />
		<edge from-layer="727" from-port="2" to-layer="730" to-port="0" />
		<edge from-layer="728" from-port="0" to-layer="729" to-port="0" />
		<edge from-layer="729" from-port="1" to-layer="730" to-port="1" />
		<edge from-layer="730" from-port="2" to-layer="733" to-port="0" />
		<edge from-layer="731" from-port="0" to-layer="732" to-port="0" />
		<edge from-layer="732" from-port="1" to-layer="733" to-port="1" />
		<edge from-layer="733" from-port="2" to-layer="752" to-port="0" />
		<edge from-layer="734" from-port="0" to-layer="735" to-port="0" />
		<edge from-layer="735" from-port="1" to-layer="736" to-port="1" />
		<edge from-layer="736" from-port="2" to-layer="737" to-port="0" />
		<edge from-layer="736" from-port="2" to-layer="751" to-port="1" />
		<edge from-layer="737" from-port="1" to-layer="740" to-port="0" />
		<edge from-layer="738" from-port="0" to-layer="739" to-port="0" />
		<edge from-layer="739" from-port="1" to-layer="740" to-port="1" />
		<edge from-layer="740" from-port="2" to-layer="743" to-port="0" />
		<edge from-layer="741" from-port="0" to-layer="742" to-port="0" />
		<edge from-layer="742" from-port="1" to-layer="743" to-port="1" />
		<edge from-layer="743" from-port="2" to-layer="744" to-port="0" />
		<edge from-layer="744" from-port="1" to-layer="747" to-port="0" />
		<edge from-layer="745" from-port="0" to-layer="746" to-port="0" />
		<edge from-layer="746" from-port="1" to-layer="747" to-port="1" />
		<edge from-layer="747" from-port="2" to-layer="750" to-port="0" />
		<edge from-layer="748" from-port="0" to-layer="749" to-port="0" />
		<edge from-layer="749" from-port="1" to-layer="750" to-port="1" />
		<edge from-layer="750" from-port="2" to-layer="751" to-port="0" />
		<edge from-layer="751" from-port="2" to-layer="752" to-port="1" />
		<edge from-layer="752" from-port="2" to-layer="753" to-port="0" />
		<edge from-layer="752" from-port="2" to-layer="767" to-port="1" />
		<edge from-layer="753" from-port="1" to-layer="756" to-port="0" />
		<edge from-layer="754" from-port="0" to-layer="755" to-port="0" />
		<edge from-layer="755" from-port="1" to-layer="756" to-port="1" />
		<edge from-layer="756" from-port="2" to-layer="759" to-port="0" />
		<edge from-layer="757" from-port="0" to-layer="758" to-port="0" />
		<edge from-layer="758" from-port="1" to-layer="759" to-port="1" />
		<edge from-layer="759" from-port="2" to-layer="760" to-port="0" />
		<edge from-layer="760" from-port="1" to-layer="763" to-port="0" />
		<edge from-layer="761" from-port="0" to-layer="762" to-port="0" />
		<edge from-layer="762" from-port="1" to-layer="763" to-port="1" />
		<edge from-layer="763" from-port="2" to-layer="766" to-port="0" />
		<edge from-layer="764" from-port="0" to-layer="765" to-port="0" />
		<edge from-layer="765" from-port="1" to-layer="766" to-port="1" />
		<edge from-layer="766" from-port="2" to-layer="767" to-port="0" />
		<edge from-layer="767" from-port="2" to-layer="769" to-port="0" />
		<edge from-layer="768" from-port="0" to-layer="769" to-port="1" />
		<edge from-layer="769" from-port="2" to-layer="772" to-port="0" />
		<edge from-layer="770" from-port="0" to-layer="771" to-port="0" />
		<edge from-layer="771" from-port="1" to-layer="772" to-port="1" />
		<edge from-layer="772" from-port="2" to-layer="774" to-port="0" />
		<edge from-layer="773" from-port="0" to-layer="774" to-port="1" />
		<edge from-layer="774" from-port="2" to-layer="793" to-port="0" />
		<edge from-layer="775" from-port="0" to-layer="776" to-port="0" />
		<edge from-layer="776" from-port="1" to-layer="777" to-port="1" />
		<edge from-layer="777" from-port="2" to-layer="792" to-port="1" />
		<edge from-layer="777" from-port="2" to-layer="778" to-port="0" />
		<edge from-layer="778" from-port="1" to-layer="781" to-port="0" />
		<edge from-layer="779" from-port="0" to-layer="780" to-port="0" />
		<edge from-layer="780" from-port="1" to-layer="781" to-port="1" />
		<edge from-layer="781" from-port="2" to-layer="784" to-port="0" />
		<edge from-layer="782" from-port="0" to-layer="783" to-port="0" />
		<edge from-layer="783" from-port="1" to-layer="784" to-port="1" />
		<edge from-layer="784" from-port="2" to-layer="785" to-port="0" />
		<edge from-layer="785" from-port="1" to-layer="788" to-port="0" />
		<edge from-layer="786" from-port="0" to-layer="787" to-port="0" />
		<edge from-layer="787" from-port="1" to-layer="788" to-port="1" />
		<edge from-layer="788" from-port="2" to-layer="791" to-port="0" />
		<edge from-layer="789" from-port="0" to-layer="790" to-port="0" />
		<edge from-layer="790" from-port="1" to-layer="791" to-port="1" />
		<edge from-layer="791" from-port="2" to-layer="792" to-port="0" />
		<edge from-layer="792" from-port="2" to-layer="793" to-port="1" />
		<edge from-layer="793" from-port="2" to-layer="794" to-port="0" />
		<edge from-layer="793" from-port="2" to-layer="808" to-port="1" />
		<edge from-layer="794" from-port="1" to-layer="797" to-port="0" />
		<edge from-layer="795" from-port="0" to-layer="796" to-port="0" />
		<edge from-layer="796" from-port="1" to-layer="797" to-port="1" />
		<edge from-layer="797" from-port="2" to-layer="800" to-port="0" />
		<edge from-layer="798" from-port="0" to-layer="799" to-port="0" />
		<edge from-layer="799" from-port="1" to-layer="800" to-port="1" />
		<edge from-layer="800" from-port="2" to-layer="801" to-port="0" />
		<edge from-layer="801" from-port="1" to-layer="804" to-port="0" />
		<edge from-layer="802" from-port="0" to-layer="803" to-port="0" />
		<edge from-layer="803" from-port="1" to-layer="804" to-port="1" />
		<edge from-layer="804" from-port="2" to-layer="807" to-port="0" />
		<edge from-layer="805" from-port="0" to-layer="806" to-port="0" />
		<edge from-layer="806" from-port="1" to-layer="807" to-port="1" />
		<edge from-layer="807" from-port="2" to-layer="808" to-port="0" />
		<edge from-layer="808" from-port="2" to-layer="810" to-port="0" />
		<edge from-layer="809" from-port="0" to-layer="810" to-port="1" />
		<edge from-layer="810" from-port="2" to-layer="813" to-port="0" />
		<edge from-layer="811" from-port="0" to-layer="812" to-port="0" />
		<edge from-layer="812" from-port="1" to-layer="813" to-port="1" />
		<edge from-layer="813" from-port="2" to-layer="816" to-port="0" />
		<edge from-layer="814" from-port="0" to-layer="815" to-port="0" />
		<edge from-layer="815" from-port="1" to-layer="816" to-port="1" />
		<edge from-layer="816" from-port="2" to-layer="834" to-port="0" />
		<edge from-layer="817" from-port="0" to-layer="818" to-port="0" />
		<edge from-layer="818" from-port="1" to-layer="819" to-port="1" />
		<edge from-layer="819" from-port="2" to-layer="820" to-port="0" />
		<edge from-layer="819" from-port="2" to-layer="833" to-port="1" />
		<edge from-layer="820" from-port="1" to-layer="823" to-port="0" />
		<edge from-layer="821" from-port="0" to-layer="822" to-port="0" />
		<edge from-layer="822" from-port="1" to-layer="823" to-port="1" />
		<edge from-layer="823" from-port="2" to-layer="826" to-port="0" />
		<edge from-layer="824" from-port="0" to-layer="825" to-port="0" />
		<edge from-layer="825" from-port="1" to-layer="826" to-port="1" />
		<edge from-layer="826" from-port="2" to-layer="827" to-port="0" />
		<edge from-layer="827" from-port="1" to-layer="830" to-port="0" />
		<edge from-layer="828" from-port="0" to-layer="829" to-port="0" />
		<edge from-layer="829" from-port="1" to-layer="830" to-port="1" />
		<edge from-layer="830" from-port="2" to-layer="832" to-port="0" />
		<edge from-layer="831" from-port="0" to-layer="832" to-port="1" />
		<edge from-layer="832" from-port="2" to-layer="833" to-port="0" />
		<edge from-layer="833" from-port="2" to-layer="834" to-port="1" />
		<edge from-layer="834" from-port="2" to-layer="835" to-port="0" />
		<edge from-layer="834" from-port="2" to-layer="849" to-port="1" />
		<edge from-layer="835" from-port="1" to-layer="838" to-port="0" />
		<edge from-layer="836" from-port="0" to-layer="837" to-port="0" />
		<edge from-layer="837" from-port="1" to-layer="838" to-port="1" />
		<edge from-layer="838" from-port="2" to-layer="841" to-port="0" />
		<edge from-layer="839" from-port="0" to-layer="840" to-port="0" />
		<edge from-layer="840" from-port="1" to-layer="841" to-port="1" />
		<edge from-layer="841" from-port="2" to-layer="842" to-port="0" />
		<edge from-layer="842" from-port="1" to-layer="845" to-port="0" />
		<edge from-layer="843" from-port="0" to-layer="844" to-port="0" />
		<edge from-layer="844" from-port="1" to-layer="845" to-port="1" />
		<edge from-layer="845" from-port="2" to-layer="848" to-port="0" />
		<edge from-layer="846" from-port="0" to-layer="847" to-port="0" />
		<edge from-layer="847" from-port="1" to-layer="848" to-port="1" />
		<edge from-layer="848" from-port="2" to-layer="849" to-port="0" />
		<edge from-layer="849" from-port="2" to-layer="851" to-port="0" />
		<edge from-layer="850" from-port="0" to-layer="851" to-port="1" />
		<edge from-layer="851" from-port="2" to-layer="854" to-port="0" />
		<edge from-layer="852" from-port="0" to-layer="853" to-port="0" />
		<edge from-layer="853" from-port="1" to-layer="854" to-port="1" />
		<edge from-layer="854" from-port="2" to-layer="857" to-port="0" />
		<edge from-layer="855" from-port="0" to-layer="856" to-port="0" />
		<edge from-layer="856" from-port="1" to-layer="857" to-port="1" />
		<edge from-layer="857" from-port="2" to-layer="860" to-port="0" />
		<edge from-layer="858" from-port="0" to-layer="859" to-port="0" />
		<edge from-layer="859" from-port="1" to-layer="860" to-port="1" />
		<edge from-layer="860" from-port="2" to-layer="862" to-port="0" />
		<edge from-layer="861" from-port="0" to-layer="862" to-port="1" />
		<edge from-layer="862" from-port="2" to-layer="864" to-port="0" />
		<edge from-layer="863" from-port="0" to-layer="864" to-port="1" />
		<edge from-layer="864" from-port="2" to-layer="867" to-port="0" />
		<edge from-layer="865" from-port="0" to-layer="866" to-port="0" />
		<edge from-layer="866" from-port="1" to-layer="867" to-port="1" />
		<edge from-layer="867" from-port="2" to-layer="870" to-port="0" />
		<edge from-layer="868" from-port="0" to-layer="869" to-port="0" />
		<edge from-layer="869" from-port="1" to-layer="870" to-port="1" />
		<edge from-layer="870" from-port="2" to-layer="871" to-port="0" />
		<edge from-layer="871" from-port="1" to-layer="873" to-port="0" />
		<edge from-layer="872" from-port="0" to-layer="873" to-port="1" />
		<edge from-layer="873" from-port="2" to-layer="875" to-port="0" />
		<edge from-layer="874" from-port="0" to-layer="875" to-port="1" />
		<edge from-layer="875" from-port="2" to-layer="876" to-port="0" />
		<edge from-layer="876" from-port="1" to-layer="878" to-port="0" />
		<edge from-layer="877" from-port="0" to-layer="878" to-port="1" />
		<edge from-layer="878" from-port="2" to-layer="879" to-port="0" />
	</edges>
	<rt_info>
		<info name="OpenVINO Runtime" value="2026.2.0-21903-52ddc073857-releases/2026/2" />
		<Runtime_version value="2026.2.0-21903-52ddc073857-releases/2026/2" />
		<conversion_parameters>
			<input_model value="DIR/midas_v21_small_256.onnx" />
			<is_python_object value="False" />
		</conversion_parameters>
	</rt_info>
</net>
