<?xml version="1.0"?>
<net name="onnx_Frontend_IR" version="11">
	<layers>
		<layer id="0" name="input" type="Parameter" version="opset1">
			<data shape="1,3,384,384" element_type="f32" />
			<output>
				<port id="0" precision="FP32" names="input">
					<dim>1</dim>
					<dim>3</dim>
					<dim>384</dim>
					<dim>384</dim>
				</port>
			</output>
		</layer>
		<layer id="1" name="expand_compressed" type="Const" version="opset1">
			<data element_type="f16" shape="1, 1, 1024" offset="0" size="2048" />
			<output>
				<port id="0" precision="FP16" names="expand">
					<dim>1</dim>
					<dim>1</dim>
					<dim>1024</dim>
				</port>
			</output>
		</layer>
		<layer id="2" name="expand" type="Convert" version="opset1">
			<data destination_type="f32" />
			<rt_info>
				<attribute name="decompression" version="0" />
			</rt_info>
			<input>
				<port id="0" precision="FP16">
					<dim>1</dim>
					<dim>1</dim>
					<dim>1024</dim>
				</port>
			</input>
			<output>
				<port id="1" precision="FP32">
					<dim>1</dim>
					<dim>1</dim>
					<dim>1024</dim>
				</port>
			</output>
		</layer>
		<layer id="3" name="dpt.embeddings.patch_embeddings.projection.weight_compressed" type="Const" version="opset1">
			<data element_type="f16" shape="1024, 3, 16, 16" offset="2048" size="1572864" />
			<output>
				<port id="0" precision="FP16" names="dpt.embeddings.patch_embeddings.projection.weight">
					<dim>1024</dim>
					<dim>3</dim>
					<dim>16</dim>
					<dim>16</dim>
				</port>
			</output>
		</layer>
		<layer id="4" name="dpt.embeddings.patch_embeddings.projection.weight" type="Convert" version="opset1">
			<data destination_type="f32" />
			<rt_info>
				<attribute name="decompression" version="0" />
			</rt_info>
			<input>
				<port id="0" precision="FP16">
					<dim>1024</dim>
					<dim>3</dim>
					<dim>16</dim>
					<dim>16</dim>
				</port>
			</input>
			<output>
				<port id="1" precision="FP32">
					<dim>1024</dim>
					<dim>3</dim>
					<dim>16</dim>
					<dim>16</dim>
				</port>
			</output>
		</layer>
		<layer id="5" name="node_conv2d/WithoutBiases" type="Convolution" version="opset1">
			<data strides="16, 16" dilations="1, 1" pads_begin="0, 0" pads_end="0, 0" auto_pad="explicit" />
			<input>
				<port id="0" precision="FP32">
					<dim>1</dim>
					<dim>3</dim>
					<dim>384</dim>
					<dim>384</dim>
				</port>
				<port id="1" precision="FP32">
					<dim>1024</dim>
					<dim>3</dim>
					<dim>16</dim>
					<dim>16</dim>
				</port>
			</input>
			<output>
				<port id="2" precision="FP32">
					<dim>1</dim>
					<dim>1024</dim>
					<dim>24</dim>
					<dim>24</dim>
				</port>
			</output>
		</layer>
		<layer id="6" name="Reshape_22_compressed" type="Const" version="opset1">
			<data element_type="f16" shape="1, 1024, 1, 1" offset="1574912" size="2048" />
			<output>
				<port id="0" precision="FP16">
					<dim>1</dim>
					<dim>1024</dim>
					<dim>1</dim>
					<dim>1</dim>
				</port>
			</output>
		</layer>
		<layer id="7" name="Reshape_22" type="Convert" version="opset1">
			<data destination_type="f32" />
			<rt_info>
				<attribute name="decompression" version="0" />
			</rt_info>
			<input>
				<port id="0" precision="FP16">
					<dim>1</dim>
					<dim>1024</dim>
					<dim>1</dim>
					<dim>1</dim>
				</port>
			</input>
			<output>
				<port id="1" precision="FP32">
					<dim>1</dim>
					<dim>1024</dim>
					<dim>1</dim>
					<dim>1</dim>
				</port>
			</output>
		</layer>
		<layer id="8" name="node_conv2d" type="Add" version="opset1">
			<data auto_broadcast="numpy" />
			<input>
				<port id="0" precision="FP32">
					<dim>1</dim>
					<dim>1024</dim>
					<dim>24</dim>
					<dim>24</dim>
				</port>
				<port id="1" precision="FP32">
					<dim>1</dim>
					<dim>1024</dim>
					<dim>1</dim>
					<dim>1</dim>
				</port>
			</input>
			<output>
				<port id="2" precision="FP32" names="conv2d">
					<dim>1</dim>
					<dim>1024</dim>
					<dim>24</dim>
					<dim>24</dim>
				</port>
			</output>
		</layer>
		<layer id="9" name="val_42" type="Const" version="opset1">
			<data element_type="i64" shape="3" offset="1576960" size="24" />
			<rt_info>
				<attribute name="precise" version="0" />
			</rt_info>
			<output>
				<port id="0" precision="I64" names="val_42">
					<dim>3</dim>
				</port>
			</output>
		</layer>
		<layer id="10" name="node_view_2" type="Reshape" version="opset1">
			<data special_zero="true" />
			<input>
				<port id="0" precision="FP32">
					<dim>1</dim>
					<dim>1024</dim>
					<dim>24</dim>
					<dim>24</dim>
				</port>
				<port id="1" precision="I64">
					<dim>3</dim>
				</port>
			</input>
			<output>
				<port id="2" precision="FP32" names="view_2">
					<dim>1</dim>
					<dim>1024</dim>
					<dim>576</dim>
				</port>
			</output>
		</layer>
		<layer id="11" name="Constant_30" type="Const" version="opset1">
			<data element_type="i64" shape="3" offset="1576984" size="24" />
			<output>
				<port id="0" precision="I64">
					<dim>3</dim>
				</port>
			</output>
		</layer>
		<layer id="12" name="node_transpose" type="Transpose" version="opset1">
			<input>
				<port id="0" precision="FP32">
					<dim>1</dim>
					<dim>1024</dim>
					<dim>576</dim>
				</port>
				<port id="1" precision="I64">
					<dim>3</dim>
				</port>
			</input>
			<output>
				<port id="2" precision="FP32" names="transpose">
					<dim>1</dim>
					<dim>576</dim>
					<dim>1024</dim>
				</port>
			</output>
		</layer>
		<layer id="13" name="node_cat_1" type="Concat" version="opset1">
			<data axis="1" />
			<input>
				<port id="0" precision="FP32">
					<dim>1</dim>
					<dim>1</dim>
					<dim>1024</dim>
				</port>
				<port id="1" precision="FP32">
					<dim>1</dim>
					<dim>576</dim>
					<dim>1024</dim>
				</port>
			</input>
			<output>
				<port id="2" precision="FP32" names="cat_1">
					<dim>1</dim>
					<dim>577</dim>
					<dim>1024</dim>
				</port>
			</output>
		</layer>
		<layer id="14" name="node_cat_compressed" type="Const" version="opset1">
			<data element_type="f16" shape="1, 577, 1024" offset="1577008" size="1181696" />
			<output>
				<port id="0" precision="FP16" names="cat">
					<dim>1</dim>
					<dim>577</dim>
					<dim>1024</dim>
				</port>
			</output>
		</layer>
		<layer id="15" name="node_cat" type="Convert" version="opset1">
			<data destination_type="f32" />
			<rt_info>
				<attribute name="decompression" version="0" />
			</rt_info>
			<input>
				<port id="0" precision="FP16">
					<dim>1</dim>
					<dim>577</dim>
					<dim>1024</dim>
				</port>
			</input>
			<output>
				<port id="1" precision="FP32">
					<dim>1</dim>
					<dim>577</dim>
					<dim>1024</dim>
				</port>
			</output>
		</layer>
		<layer id="16" name="node_add" type="Add" version="opset1">
			<data auto_broadcast="numpy" />
			<input>
				<port id="0" precision="FP32">
					<dim>1</dim>
					<dim>577</dim>
					<dim>1024</dim>
				</port>
				<port id="1" precision="FP32">
					<dim>1</dim>
					<dim>577</dim>
					<dim>1024</dim>
				</port>
			</input>
			<output>
				<port id="2" precision="FP32" names="add">
					<dim>1</dim>
					<dim>577</dim>
					<dim>1024</dim>
				</port>
			</output>
		</layer>
		<layer id="17" name="Range_51" type="Const" version="opset1">
			<data element_type="i64" shape="1" offset="2758704" size="8" />
			<output>
				<port id="0" precision="I64">
					<dim>1</dim>
				</port>
			</output>
		</layer>
		<layer id="18" name="MVN_52" type="MVN" version="opset6">
			<data eps="9.999999960041972e-13" normalize_variance="true" eps_mode="INSIDE_SQRT" />
			<input>
				<port id="0" precision="FP32">
					<dim>1</dim>
					<dim>577</dim>
					<dim>1024</dim>
				</port>
				<port id="1" precision="I64">
					<dim>1</dim>
				</port>
			</input>
			<output>
				<port id="2" precision="FP32">
					<dim>1</dim>
					<dim>577</dim>
					<dim>1024</dim>
				</port>
			</output>
		</layer>
		<layer id="19" name="Constant_12041_compressed" type="Const" version="opset1">
			<data element_type="f16" shape="1, 1, 1024" offset="2758712" size="2048" />
			<output>
				<port id="0" precision="FP16">
					<dim>1</dim>
					<dim>1</dim>
					<dim>1024</dim>
				</port>
			</output>
		</layer>
		<layer id="20" name="Constant_12041" type="Convert" version="opset1">
			<data destination_type="f32" />
			<rt_info>
				<attribute name="decompression" version="0" />
			</rt_info>
			<input>
				<port id="0" precision="FP16">
					<dim>1</dim>
					<dim>1</dim>
					<dim>1024</dim>
				</port>
			</input>
			<output>
				<port id="1" precision="FP32">
					<dim>1</dim>
					<dim>1</dim>
					<dim>1024</dim>
				</port>
			</output>
		</layer>
		<layer id="21" name="Multiply_59" type="Multiply" version="opset1">
			<data auto_broadcast="numpy" />
			<input>
				<port id="0" precision="FP32">
					<dim>1</dim>
					<dim>577</dim>
					<dim>1024</dim>
				</port>
				<port id="1" precision="FP32">
					<dim>1</dim>
					<dim>1</dim>
					<dim>1024</dim>
				</port>
			</input>
			<output>
				<port id="2" precision="FP32">
					<dim>1</dim>
					<dim>577</dim>
					<dim>1024</dim>
				</port>
			</output>
		</layer>
		<layer id="22" name="Constant_12042_compressed" type="Const" version="opset1">
			<data element_type="f16" shape="1, 1, 1024" offset="2760760" size="2048" />
			<output>
				<port id="0" precision="FP16">
					<dim>1</dim>
					<dim>1</dim>
					<dim>1024</dim>
				</port>
			</output>
		</layer>
		<layer id="23" name="Constant_12042" type="Convert" version="opset1">
			<data destination_type="f32" />
			<rt_info>
				<attribute name="decompression" version="0" />
			</rt_info>
			<input>
				<port id="0" precision="FP16">
					<dim>1</dim>
					<dim>1</dim>
					<dim>1024</dim>
				</port>
			</input>
			<output>
				<port id="1" precision="FP32">
					<dim>1</dim>
					<dim>1</dim>
					<dim>1024</dim>
				</port>
			</output>
		</layer>
		<layer id="24" name="node_layer_norm" type="Add" version="opset1">
			<data auto_broadcast="numpy" />
			<input>
				<port id="0" precision="FP32">
					<dim>1</dim>
					<dim>577</dim>
					<dim>1024</dim>
				</port>
				<port id="1" precision="FP32">
					<dim>1</dim>
					<dim>1</dim>
					<dim>1024</dim>
				</port>
			</input>
			<output>
				<port id="2" precision="FP32" names="layer_norm">
					<dim>1</dim>
					<dim>577</dim>
					<dim>1024</dim>
				</port>
			</output>
		</layer>
		<layer id="25" name="Transpose_7717_compressed" type="Const" version="opset1">
			<data element_type="f16" shape="1024, 1024" offset="2762808" size="2097152" />
			<output>
				<port id="0" precision="FP16">
					<dim>1024</dim>
					<dim>1024</dim>
				</port>
			</output>
		</layer>
		<layer id="26" name="Transpose_7717" type="Convert" version="opset1">
			<data destination_type="f32" />
			<rt_info>
				<attribute name="decompression" version="0" />
			</rt_info>
			<input>
				<port id="0" precision="FP16">
					<dim>1024</dim>
					<dim>1024</dim>
				</port>
			</input>
			<output>
				<port id="1" precision="FP32">
					<dim>1024</dim>
					<dim>1024</dim>
				</port>
			</output>
		</layer>
		<layer id="27" name="node_MatMul_65" type="MatMul" version="opset1">
			<data transpose_a="false" transpose_b="true" />
			<input>
				<port id="0" precision="FP32">
					<dim>1</dim>
					<dim>577</dim>
					<dim>1024</dim>
				</port>
				<port id="1" precision="FP32">
					<dim>1024</dim>
					<dim>1024</dim>
				</port>
			</input>
			<output>
				<port id="2" precision="FP32" names="val_67">
					<dim>1</dim>
					<dim>577</dim>
					<dim>1024</dim>
				</port>
			</output>
		</layer>
		<layer id="28" name="Constant_12043_compressed" type="Const" version="opset1">
			<data element_type="f16" shape="1, 1, 1024" offset="4859960" size="2048" />
			<output>
				<port id="0" precision="FP16">
					<dim>1</dim>
					<dim>1</dim>
					<dim>1024</dim>
				</port>
			</output>
		</layer>
		<layer id="29" name="Constant_12043" type="Convert" version="opset1">
			<data destination_type="f32" />
			<rt_info>
				<attribute name="decompression" version="0" />
			</rt_info>
			<input>
				<port id="0" precision="FP16">
					<dim>1</dim>
					<dim>1</dim>
					<dim>1024</dim>
				</port>
			</input>
			<output>
				<port id="1" precision="FP32">
					<dim>1</dim>
					<dim>1</dim>
					<dim>1024</dim>
				</port>
			</output>
		</layer>
		<layer id="30" name="node_linear_2" type="Add" version="opset1">
			<data auto_broadcast="numpy" />
			<input>
				<port id="0" precision="FP32">
					<dim>1</dim>
					<dim>577</dim>
					<dim>1024</dim>
				</port>
				<port id="1" precision="FP32">
					<dim>1</dim>
					<dim>1</dim>
					<dim>1024</dim>
				</port>
			</input>
			<output>
				<port id="2" precision="FP32" names="linear_2">
					<dim>1</dim>
					<dim>577</dim>
					<dim>1024</dim>
				</port>
			</output>
		</layer>
		<layer id="31" name="val_57" type="Const" version="opset1">
			<data element_type="i64" shape="4" offset="4862008" size="32" />
			<rt_info>
				<attribute name="precise" version="0" />
			</rt_info>
			<output>
				<port id="0" precision="I64" names="val_57">
					<dim>4</dim>
				</port>
			</output>
		</layer>
		<layer id="32" name="node_view_5" type="Reshape" version="opset1">
			<data special_zero="true" />
			<input>
				<port id="0" precision="FP32">
					<dim>1</dim>
					<dim>577</dim>
					<dim>1024</dim>
				</port>
				<port id="1" precision="I64">
					<dim>4</dim>
				</port>
			</input>
			<output>
				<port id="2" precision="FP32" names="view_5">
					<dim>1</dim>
					<dim>577</dim>
					<dim>16</dim>
					<dim>64</dim>
				</port>
			</output>
		</layer>
		<layer id="33" name="Constant_81" type="Const" version="opset1">
			<data element_type="i64" shape="4" offset="4862040" size="32" />
			<output>
				<port id="0" precision="I64">
					<dim>4</dim>
				</port>
			</output>
		</layer>
		<layer id="34" name="node_transpose_3" type="Transpose" version="opset1">
			<input>
				<port id="0" precision="FP32">
					<dim>1</dim>
					<dim>577</dim>
					<dim>16</dim>
					<dim>64</dim>
				</port>
				<port id="1" precision="I64">
					<dim>4</dim>
				</port>
			</input>
			<output>
				<port id="2" precision="FP32" names="transpose_3">
					<dim>1</dim>
					<dim>16</dim>
					<dim>577</dim>
					<dim>64</dim>
				</port>
			</output>
		</layer>
		<layer id="35" name="Constant_12044" type="Const" version="opset1">
			<data element_type="f32" shape="1, 1, 1, 1" offset="4862072" size="4" />
			<output>
				<port id="0" precision="FP32">
					<dim>1</dim>
					<dim>1</dim>
					<dim>1</dim>
					<dim>1</dim>
				</port>
			</output>
		</layer>
		<layer id="36" name="node_Mul_89" type="Multiply" version="opset1">
			<data auto_broadcast="numpy" />
			<input>
				<port id="0" precision="FP32">
					<dim>1</dim>
					<dim>16</dim>
					<dim>577</dim>
					<dim>64</dim>
				</port>
				<port id="1" precision="FP32">
					<dim>1</dim>
					<dim>1</dim>
					<dim>1</dim>
					<dim>1</dim>
				</port>
			</input>
			<output>
				<port id="2" precision="FP32" names="val_91">
					<dim>1</dim>
					<dim>16</dim>
					<dim>577</dim>
					<dim>64</dim>
				</port>
			</output>
		</layer>
		<layer id="37" name="Transpose_7724_compressed" type="Const" version="opset1">
			<data element_type="f16" shape="1024, 1024" offset="4862076" size="2097152" />
			<output>
				<port id="0" precision="FP16">
					<dim>1024</dim>
					<dim>1024</dim>
				</port>
			</output>
		</layer>
		<layer id="38" name="Transpose_7724" type="Convert" version="opset1">
			<data destination_type="f32" />
			<rt_info>
				<attribute name="decompression" version="0" />
			</rt_info>
			<input>
				<port id="0" precision="FP16">
					<dim>1024</dim>
					<dim>1024</dim>
				</port>
			</input>
			<output>
				<port id="1" precision="FP32">
					<dim>1024</dim>
					<dim>1024</dim>
				</port>
			</output>
		</layer>
		<layer id="39" name="node_MatMul_49" type="MatMul" version="opset1">
			<data transpose_a="false" transpose_b="true" />
			<input>
				<port id="0" precision="FP32">
					<dim>1</dim>
					<dim>577</dim>
					<dim>1024</dim>
				</port>
				<port id="1" precision="FP32">
					<dim>1024</dim>
					<dim>1024</dim>
				</port>
			</input>
			<output>
				<port id="2" precision="FP32" names="val_51">
					<dim>1</dim>
					<dim>577</dim>
					<dim>1024</dim>
				</port>
			</output>
		</layer>
		<layer id="40" name="Constant_12045_compressed" type="Const" version="opset1">
			<data element_type="f16" shape="1, 1, 1024" offset="6959228" size="2048" />
			<output>
				<port id="0" precision="FP16">
					<dim>1</dim>
					<dim>1</dim>
					<dim>1024</dim>
				</port>
			</output>
		</layer>
		<layer id="41" name="Constant_12045" type="Convert" version="opset1">
			<data destination_type="f32" />
			<rt_info>
				<attribute name="decompression" version="0" />
			</rt_info>
			<input>
				<port id="0" precision="FP16">
					<dim>1</dim>
					<dim>1</dim>
					<dim>1024</dim>
				</port>
			</input>
			<output>
				<port id="1" precision="FP32">
					<dim>1</dim>
					<dim>1</dim>
					<dim>1024</dim>
				</port>
			</output>
		</layer>
		<layer id="42" name="node_linear" type="Add" version="opset1">
			<data auto_broadcast="numpy" />
			<input>
				<port id="0" precision="FP32">
					<dim>1</dim>
					<dim>577</dim>
					<dim>1024</dim>
				</port>
				<port id="1" precision="FP32">
					<dim>1</dim>
					<dim>1</dim>
					<dim>1024</dim>
				</port>
			</input>
			<output>
				<port id="2" precision="FP32" names="linear">
					<dim>1</dim>
					<dim>577</dim>
					<dim>1024</dim>
				</port>
			</output>
		</layer>
		<layer id="43" name="node_view_3" type="Reshape" version="opset1">
			<data special_zero="true" />
			<input>
				<port id="0" precision="FP32">
					<dim>1</dim>
					<dim>577</dim>
					<dim>1024</dim>
				</port>
				<port id="1" precision="I64">
					<dim>4</dim>
				</port>
			</input>
			<output>
				<port id="2" precision="FP32" names="view_3">
					<dim>1</dim>
					<dim>577</dim>
					<dim>16</dim>
					<dim>64</dim>
				</port>
			</output>
		</layer>
		<layer id="44" name="Constant_77" type="Const" version="opset1">
			<data element_type="i64" shape="4" offset="4862040" size="32" />
			<output>
				<port id="0" precision="I64">
					<dim>4</dim>
				</port>
			</output>
		</layer>
		<layer id="45" name="node_transpose_1" type="Transpose" version="opset1">
			<input>
				<port id="0" precision="FP32">
					<dim>1</dim>
					<dim>577</dim>
					<dim>16</dim>
					<dim>64</dim>
				</port>
				<port id="1" precision="I64">
					<dim>4</dim>
				</port>
			</input>
			<output>
				<port id="2" precision="FP32" names="transpose_1">
					<dim>1</dim>
					<dim>16</dim>
					<dim>577</dim>
					<dim>64</dim>
				</port>
			</output>
		</layer>
		<layer id="46" name="val_85" type="Const" version="opset1">
			<data element_type="i64" shape="3" offset="6961276" size="24" />
			<rt_info>
				<attribute name="precise" version="0" />
			</rt_info>
			<output>
				<port id="0" precision="I64" names="val_85">
					<dim>3</dim>
				</port>
			</output>
		</layer>
		<layer id="47" name="node_Reshape_84" type="Reshape" version="opset1">
			<data special_zero="true" />
			<input>
				<port id="0" precision="FP32">
					<dim>1</dim>
					<dim>16</dim>
					<dim>577</dim>
					<dim>64</dim>
				</port>
				<port id="1" precision="I64">
					<dim>3</dim>
				</port>
			</input>
			<output>
				<port id="2" precision="FP32" names="val_86">
					<dim>16</dim>
					<dim>577</dim>
					<dim>64</dim>
				</port>
			</output>
		</layer>
		<layer id="48" name="Constant_87" type="Const" version="opset1">
			<data element_type="i64" shape="3" offset="1576984" size="24" />
			<output>
				<port id="0" precision="I64">
					<dim>3</dim>
				</port>
			</output>
		</layer>
		<layer id="49" name="node_Transpose_85" type="Transpose" version="opset1">
			<input>
				<port id="0" precision="FP32">
					<dim>16</dim>
					<dim>577</dim>
					<dim>64</dim>
				</port>
				<port id="1" precision="I64">
					<dim>3</dim>
				</port>
			</input>
			<output>
				<port id="2" precision="FP32" names="val_87">
					<dim>16</dim>
					<dim>64</dim>
					<dim>577</dim>
				</port>
			</output>
		</layer>
		<layer id="50" name="val_88" type="Const" version="opset1">
			<data element_type="i64" shape="4" offset="6961300" size="32" />
			<rt_info>
				<attribute name="precise" version="0" />
			</rt_info>
			<output>
				<port id="0" precision="I64" names="val_88">
					<dim>4</dim>
				</port>
			</output>
		</layer>
		<layer id="51" name="node_Reshape_87" type="Reshape" version="opset1">
			<data special_zero="true" />
			<input>
				<port id="0" precision="FP32">
					<dim>16</dim>
					<dim>64</dim>
					<dim>577</dim>
				</port>
				<port id="1" precision="I64">
					<dim>4</dim>
				</port>
			</input>
			<output>
				<port id="2" precision="FP32" names="val_89">
					<dim>1</dim>
					<dim>16</dim>
					<dim>64</dim>
					<dim>577</dim>
				</port>
			</output>
		</layer>
		<layer id="52" name="Constant_10968" type="Const" version="opset1">
			<data element_type="i64" shape="4" offset="6961332" size="32" />
			<output>
				<port id="0" precision="I64">
					<dim>4</dim>
				</port>
			</output>
		</layer>
		<layer id="53" name="Transpose_10969" type="Transpose" version="opset1">
			<input>
				<port id="0" precision="FP32">
					<dim>1</dim>
					<dim>16</dim>
					<dim>64</dim>
					<dim>577</dim>
				</port>
				<port id="1" precision="I64">
					<dim>4</dim>
				</port>
			</input>
			<output>
				<port id="2" precision="FP32">
					<dim>1</dim>
					<dim>16</dim>
					<dim>577</dim>
					<dim>64</dim>
				</port>
			</output>
		</layer>
		<layer id="54" name="Transpose_7731_compressed" type="Const" version="opset1">
			<data element_type="f16" shape="1024, 1024" offset="6961364" size="2097152" />
			<output>
				<port id="0" precision="FP16">
					<dim>1024</dim>
					<dim>1024</dim>
				</port>
			</output>
		</layer>
		<layer id="55" name="Transpose_7731" type="Convert" version="opset1">
			<data destination_type="f32" />
			<rt_info>
				<attribute name="decompression" version="0" />
			</rt_info>
			<input>
				<port id="0" precision="FP16">
					<dim>1024</dim>
					<dim>1024</dim>
				</port>
			</input>
			<output>
				<port id="1" precision="FP32">
					<dim>1024</dim>
					<dim>1024</dim>
				</port>
			</output>
		</layer>
		<layer id="56" name="node_MatMul_57" type="MatMul" version="opset1">
			<data transpose_a="false" transpose_b="true" />
			<input>
				<port id="0" precision="FP32">
					<dim>1</dim>
					<dim>577</dim>
					<dim>1024</dim>
				</port>
				<port id="1" precision="FP32">
					<dim>1024</dim>
					<dim>1024</dim>
				</port>
			</input>
			<output>
				<port id="2" precision="FP32" names="val_59">
					<dim>1</dim>
					<dim>577</dim>
					<dim>1024</dim>
				</port>
			</output>
		</layer>
		<layer id="57" name="Constant_12046_compressed" type="Const" version="opset1">
			<data element_type="f16" shape="1, 1, 1024" offset="9058516" size="2048" />
			<output>
				<port id="0" precision="FP16">
					<dim>1</dim>
					<dim>1</dim>
					<dim>1024</dim>
				</port>
			</output>
		</layer>
		<layer id="58" name="Constant_12046" type="Convert" version="opset1">
			<data destination_type="f32" />
			<rt_info>
				<attribute name="decompression" version="0" />
			</rt_info>
			<input>
				<port id="0" precision="FP16">
					<dim>1</dim>
					<dim>1</dim>
					<dim>1024</dim>
				</port>
			</input>
			<output>
				<port id="1" precision="FP32">
					<dim>1</dim>
					<dim>1</dim>
					<dim>1024</dim>
				</port>
			</output>
		</layer>
		<layer id="59" name="node_linear_1" type="Add" version="opset1">
			<data auto_broadcast="numpy" />
			<input>
				<port id="0" precision="FP32">
					<dim>1</dim>
					<dim>577</dim>
					<dim>1024</dim>
				</port>
				<port id="1" precision="FP32">
					<dim>1</dim>
					<dim>1</dim>
					<dim>1024</dim>
				</port>
			</input>
			<output>
				<port id="2" precision="FP32" names="linear_1">
					<dim>1</dim>
					<dim>577</dim>
					<dim>1024</dim>
				</port>
			</output>
		</layer>
		<layer id="60" name="node_view_4" type="Reshape" version="opset1">
			<data special_zero="true" />
			<input>
				<port id="0" precision="FP32">
					<dim>1</dim>
					<dim>577</dim>
					<dim>1024</dim>
				</port>
				<port id="1" precision="I64">
					<dim>4</dim>
				</port>
			</input>
			<output>
				<port id="2" precision="FP32" names="view_4">
					<dim>1</dim>
					<dim>577</dim>
					<dim>16</dim>
					<dim>64</dim>
				</port>
			</output>
		</layer>
		<layer id="61" name="Constant_79" type="Const" version="opset1">
			<data element_type="i64" shape="4" offset="4862040" size="32" />
			<output>
				<port id="0" precision="I64">
					<dim>4</dim>
				</port>
			</output>
		</layer>
		<layer id="62" name="node_transpose_2" type="Transpose" version="opset1">
			<input>
				<port id="0" precision="FP32">
					<dim>1</dim>
					<dim>577</dim>
					<dim>16</dim>
					<dim>64</dim>
				</port>
				<port id="1" precision="I64">
					<dim>4</dim>
				</port>
			</input>
			<output>
				<port id="2" precision="FP32" names="transpose_2">
					<dim>1</dim>
					<dim>16</dim>
					<dim>577</dim>
					<dim>64</dim>
				</port>
			</output>
		</layer>
		<layer id="63" name="Constant_10967_compressed" type="Const" version="opset1">
			<data element_type="f16" shape="" offset="9060564" size="2" />
			<output>
				<port id="0" precision="FP16" />
			</output>
		</layer>
		<layer id="64" name="Constant_10967" type="Convert" version="opset1">
			<data destination_type="f32" />
			<rt_info>
				<attribute name="decompression" version="0" />
			</rt_info>
			<input>
				<port id="0" precision="FP16" />
			</input>
			<output>
				<port id="1" precision="FP32" />
			</output>
		</layer>
		<layer id="65" name="val_90" type="Const" version="opset1">
			<data element_type="f32" shape="" offset="4862072" size="4" />
			<output>
				<port id="0" precision="FP32" names="val_90" />
			</output>
		</layer>
		<layer id="66" name="node_scaled_dot_product_attention" type="ScaledDotProductAttention" version="opset13">
			<data causal="false" />
			<input>
				<port id="0" precision="FP32">
					<dim>1</dim>
					<dim>16</dim>
					<dim>577</dim>
					<dim>64</dim>
				</port>
				<port id="1" precision="FP32">
					<dim>1</dim>
					<dim>16</dim>
					<dim>577</dim>
					<dim>64</dim>
				</port>
				<port id="2" precision="FP32">
					<dim>1</dim>
					<dim>16</dim>
					<dim>577</dim>
					<dim>64</dim>
				</port>
				<port id="3" precision="FP32" />
				<port id="4" precision="FP32" />
			</input>
			<output>
				<port id="5" precision="FP32" names="scaled_dot_product_attention">
					<dim>1</dim>
					<dim>16</dim>
					<dim>577</dim>
					<dim>64</dim>
				</port>
			</output>
		</layer>
		<layer id="67" name="Constant_95" type="Const" version="opset1">
			<data element_type="i64" shape="4" offset="4862040" size="32" />
			<output>
				<port id="0" precision="I64">
					<dim>4</dim>
				</port>
			</output>
		</layer>
		<layer id="68" name="node_transpose_4" type="Transpose" version="opset1">
			<input>
				<port id="0" precision="FP32">
					<dim>1</dim>
					<dim>16</dim>
					<dim>577</dim>
					<dim>64</dim>
				</port>
				<port id="1" precision="I64">
					<dim>4</dim>
				</port>
			</input>
			<output>
				<port id="2" precision="FP32" names="transpose_4">
					<dim>1</dim>
					<dim>577</dim>
					<dim>16</dim>
					<dim>64</dim>
				</port>
			</output>
		</layer>
		<layer id="69" name="val_101" type="Const" version="opset1">
			<data element_type="i64" shape="3" offset="9060566" size="24" />
			<rt_info>
				<attribute name="precise" version="0" />
			</rt_info>
			<output>
				<port id="0" precision="I64" names="val_101">
					<dim>3</dim>
				</port>
			</output>
		</layer>
		<layer id="70" name="node_view_6" type="Reshape" version="opset1">
			<data special_zero="true" />
			<input>
				<port id="0" precision="FP32">
					<dim>1</dim>
					<dim>577</dim>
					<dim>16</dim>
					<dim>64</dim>
				</port>
				<port id="1" precision="I64">
					<dim>3</dim>
				</port>
			</input>
			<output>
				<port id="2" precision="FP32" names="view_6">
					<dim>1</dim>
					<dim>577</dim>
					<dim>1024</dim>
				</port>
			</output>
		</layer>
		<layer id="71" name="Transpose_7736_compressed" type="Const" version="opset1">
			<data element_type="f16" shape="1024, 1024" offset="9060590" size="2097152" />
			<output>
				<port id="0" precision="FP16">
					<dim>1024</dim>
					<dim>1024</dim>
				</port>
			</output>
		</layer>
		<layer id="72" name="Transpose_7736" type="Convert" version="opset1">
			<data destination_type="f32" />
			<rt_info>
				<attribute name="decompression" version="0" />
			</rt_info>
			<input>
				<port id="0" precision="FP16">
					<dim>1024</dim>
					<dim>1024</dim>
				</port>
			</input>
			<output>
				<port id="1" precision="FP32">
					<dim>1024</dim>
					<dim>1024</dim>
				</port>
			</output>
		</layer>
		<layer id="73" name="node_MatMul_101" type="MatMul" version="opset1">
			<data transpose_a="false" transpose_b="true" />
			<input>
				<port id="0" precision="FP32">
					<dim>1</dim>
					<dim>577</dim>
					<dim>1024</dim>
				</port>
				<port id="1" precision="FP32">
					<dim>1024</dim>
					<dim>1024</dim>
				</port>
			</input>
			<output>
				<port id="2" precision="FP32" names="val_103">
					<dim>1</dim>
					<dim>577</dim>
					<dim>1024</dim>
				</port>
			</output>
		</layer>
		<layer id="74" name="Constant_12047_compressed" type="Const" version="opset1">
			<data element_type="f16" shape="1, 1, 1024" offset="11157742" size="2048" />
			<output>
				<port id="0" precision="FP16">
					<dim>1</dim>
					<dim>1</dim>
					<dim>1024</dim>
				</port>
			</output>
		</layer>
		<layer id="75" name="Constant_12047" type="Convert" version="opset1">
			<data destination_type="f32" />
			<rt_info>
				<attribute name="decompression" version="0" />
			</rt_info>
			<input>
				<port id="0" precision="FP16">
					<dim>1</dim>
					<dim>1</dim>
					<dim>1024</dim>
				</port>
			</input>
			<output>
				<port id="1" precision="FP32">
					<dim>1</dim>
					<dim>1</dim>
					<dim>1024</dim>
				</port>
			</output>
		</layer>
		<layer id="76" name="node_linear_3" type="Add" version="opset1">
			<data auto_broadcast="numpy" />
			<input>
				<port id="0" precision="FP32">
					<dim>1</dim>
					<dim>577</dim>
					<dim>1024</dim>
				</port>
				<port id="1" precision="FP32">
					<dim>1</dim>
					<dim>1</dim>
					<dim>1024</dim>
				</port>
			</input>
			<output>
				<port id="2" precision="FP32" names="linear_3">
					<dim>1</dim>
					<dim>577</dim>
					<dim>1024</dim>
				</port>
			</output>
		</layer>
		<layer id="77" name="node_add_1" type="Add" version="opset1">
			<data auto_broadcast="numpy" />
			<input>
				<port id="0" precision="FP32">
					<dim>1</dim>
					<dim>577</dim>
					<dim>1024</dim>
				</port>
				<port id="1" precision="FP32">
					<dim>1</dim>
					<dim>577</dim>
					<dim>1024</dim>
				</port>
			</input>
			<output>
				<port id="2" precision="FP32" names="add_1">
					<dim>1</dim>
					<dim>577</dim>
					<dim>1024</dim>
				</port>
			</output>
		</layer>
		<layer id="78" name="Range_109" type="Const" version="opset1">
			<data element_type="i64" shape="1" offset="2758704" size="8" />
			<output>
				<port id="0" precision="I64">
					<dim>1</dim>
				</port>
			</output>
		</layer>
		<layer id="79" name="MVN_110" type="MVN" version="opset6">
			<data eps="9.999999960041972e-13" normalize_variance="true" eps_mode="INSIDE_SQRT" />
			<input>
				<port id="0" precision="FP32">
					<dim>1</dim>
					<dim>577</dim>
					<dim>1024</dim>
				</port>
				<port id="1" precision="I64">
					<dim>1</dim>
				</port>
			</input>
			<output>
				<port id="2" precision="FP32">
					<dim>1</dim>
					<dim>577</dim>
					<dim>1024</dim>
				</port>
			</output>
		</layer>
		<layer id="80" name="Constant_12048_compressed" type="Const" version="opset1">
			<data element_type="f16" shape="1, 1, 1024" offset="11159790" size="2048" />
			<output>
				<port id="0" precision="FP16">
					<dim>1</dim>
					<dim>1</dim>
					<dim>1024</dim>
				</port>
			</output>
		</layer>
		<layer id="81" name="Constant_12048" type="Convert" version="opset1">
			<data destination_type="f32" />
			<rt_info>
				<attribute name="decompression" version="0" />
			</rt_info>
			<input>
				<port id="0" precision="FP16">
					<dim>1</dim>
					<dim>1</dim>
					<dim>1024</dim>
				</port>
			</input>
			<output>
				<port id="1" precision="FP32">
					<dim>1</dim>
					<dim>1</dim>
					<dim>1024</dim>
				</port>
			</output>
		</layer>
		<layer id="82" name="Multiply_117" type="Multiply" version="opset1">
			<data auto_broadcast="numpy" />
			<input>
				<port id="0" precision="FP32">
					<dim>1</dim>
					<dim>577</dim>
					<dim>1024</dim>
				</port>
				<port id="1" precision="FP32">
					<dim>1</dim>
					<dim>1</dim>
					<dim>1024</dim>
				</port>
			</input>
			<output>
				<port id="2" precision="FP32">
					<dim>1</dim>
					<dim>577</dim>
					<dim>1024</dim>
				</port>
			</output>
		</layer>
		<layer id="83" name="Constant_12049_compressed" type="Const" version="opset1">
			<data element_type="f16" shape="1, 1, 1024" offset="11161838" size="2048" />
			<output>
				<port id="0" precision="FP16">
					<dim>1</dim>
					<dim>1</dim>
					<dim>1024</dim>
				</port>
			</output>
		</layer>
		<layer id="84" name="Constant_12049" type="Convert" version="opset1">
			<data destination_type="f32" />
			<rt_info>
				<attribute name="decompression" version="0" />
			</rt_info>
			<input>
				<port id="0" precision="FP16">
					<dim>1</dim>
					<dim>1</dim>
					<dim>1024</dim>
				</port>
			</input>
			<output>
				<port id="1" precision="FP32">
					<dim>1</dim>
					<dim>1</dim>
					<dim>1024</dim>
				</port>
			</output>
		</layer>
		<layer id="85" name="node_layer_norm_1" type="Add" version="opset1">
			<data auto_broadcast="numpy" />
			<input>
				<port id="0" precision="FP32">
					<dim>1</dim>
					<dim>577</dim>
					<dim>1024</dim>
				</port>
				<port id="1" precision="FP32">
					<dim>1</dim>
					<dim>1</dim>
					<dim>1024</dim>
				</port>
			</input>
			<output>
				<port id="2" precision="FP32" names="layer_norm_1">
					<dim>1</dim>
					<dim>577</dim>
					<dim>1024</dim>
				</port>
			</output>
		</layer>
		<layer id="86" name="Transpose_7747_compressed" type="Const" version="opset1">
			<data element_type="f16" shape="4096, 1024" offset="11163886" size="8388608" />
			<output>
				<port id="0" precision="FP16">
					<dim>4096</dim>
					<dim>1024</dim>
				</port>
			</output>
		</layer>
		<layer id="87" name="Transpose_7747" type="Convert" version="opset1">
			<data destination_type="f32" />
			<rt_info>
				<attribute name="decompression" version="0" />
			</rt_info>
			<input>
				<port id="0" precision="FP16">
					<dim>4096</dim>
					<dim>1024</dim>
				</port>
			</input>
			<output>
				<port id="1" precision="FP32">
					<dim>4096</dim>
					<dim>1024</dim>
				</port>
			</output>
		</layer>
		<layer id="88" name="node_MatMul_103" type="MatMul" version="opset1">
			<data transpose_a="false" transpose_b="true" />
			<input>
				<port id="0" precision="FP32">
					<dim>1</dim>
					<dim>577</dim>
					<dim>1024</dim>
				</port>
				<port id="1" precision="FP32">
					<dim>4096</dim>
					<dim>1024</dim>
				</port>
			</input>
			<output>
				<port id="2" precision="FP32" names="val_107">
					<dim>1</dim>
					<dim>577</dim>
					<dim>4096</dim>
				</port>
			</output>
		</layer>
		<layer id="89" name="Constant_12050_compressed" type="Const" version="opset1">
			<data element_type="f16" shape="1, 1, 4096" offset="19552494" size="8192" />
			<output>
				<port id="0" precision="FP16">
					<dim>1</dim>
					<dim>1</dim>
					<dim>4096</dim>
				</port>
			</output>
		</layer>
		<layer id="90" name="Constant_12050" type="Convert" version="opset1">
			<data destination_type="f32" />
			<rt_info>
				<attribute name="decompression" version="0" />
			</rt_info>
			<input>
				<port id="0" precision="FP16">
					<dim>1</dim>
					<dim>1</dim>
					<dim>4096</dim>
				</port>
			</input>
			<output>
				<port id="1" precision="FP32">
					<dim>1</dim>
					<dim>1</dim>
					<dim>4096</dim>
				</port>
			</output>
		</layer>
		<layer id="91" name="node_linear_4" type="Add" version="opset1">
			<data auto_broadcast="numpy" />
			<input>
				<port id="0" precision="FP32">
					<dim>1</dim>
					<dim>577</dim>
					<dim>4096</dim>
				</port>
				<port id="1" precision="FP32">
					<dim>1</dim>
					<dim>1</dim>
					<dim>4096</dim>
				</port>
			</input>
			<output>
				<port id="2" precision="FP32" names="linear_4">
					<dim>1</dim>
					<dim>577</dim>
					<dim>4096</dim>
				</port>
			</output>
		</layer>
		<layer id="92" name="node_gelu" type="Gelu" version="opset7">
			<data approximation_mode="ERF" />
			<input>
				<port id="0" precision="FP32">
					<dim>1</dim>
					<dim>577</dim>
					<dim>4096</dim>
				</port>
			</input>
			<output>
				<port id="1" precision="FP32" names="gelu">
					<dim>1</dim>
					<dim>577</dim>
					<dim>4096</dim>
				</port>
			</output>
		</layer>
		<layer id="93" name="Transpose_7752_compressed" type="Const" version="opset1">
			<data element_type="f16" shape="1024, 4096" offset="19560686" size="8388608" />
			<output>
				<port id="0" precision="FP16">
					<dim>1024</dim>
					<dim>4096</dim>
				</port>
			</output>
		</layer>
		<layer id="94" name="Transpose_7752" type="Convert" version="opset1">
			<data destination_type="f32" />
			<rt_info>
				<attribute name="decompression" version="0" />
			</rt_info>
			<input>
				<port id="0" precision="FP16">
					<dim>1024</dim>
					<dim>4096</dim>
				</port>
			</input>
			<output>
				<port id="1" precision="FP32">
					<dim>1024</dim>
					<dim>4096</dim>
				</port>
			</output>
		</layer>
		<layer id="95" name="node_MatMul_112" type="MatMul" version="opset1">
			<data transpose_a="false" transpose_b="true" />
			<input>
				<port id="0" precision="FP32">
					<dim>1</dim>
					<dim>577</dim>
					<dim>4096</dim>
				</port>
				<port id="1" precision="FP32">
					<dim>1024</dim>
					<dim>4096</dim>
				</port>
			</input>
			<output>
				<port id="2" precision="FP32" names="val_116">
					<dim>1</dim>
					<dim>577</dim>
					<dim>1024</dim>
				</port>
			</output>
		</layer>
		<layer id="96" name="Constant_12051_compressed" type="Const" version="opset1">
			<data element_type="f16" shape="1, 1, 1024" offset="27949294" size="2048" />
			<output>
				<port id="0" precision="FP16">
					<dim>1</dim>
					<dim>1</dim>
					<dim>1024</dim>
				</port>
			</output>
		</layer>
		<layer id="97" name="Constant_12051" type="Convert" version="opset1">
			<data destination_type="f32" />
			<rt_info>
				<attribute name="decompression" version="0" />
			</rt_info>
			<input>
				<port id="0" precision="FP16">
					<dim>1</dim>
					<dim>1</dim>
					<dim>1024</dim>
				</port>
			</input>
			<output>
				<port id="1" precision="FP32">
					<dim>1</dim>
					<dim>1</dim>
					<dim>1024</dim>
				</port>
			</output>
		</layer>
		<layer id="98" name="node_linear_5" type="Add" version="opset1">
			<data auto_broadcast="numpy" />
			<input>
				<port id="0" precision="FP32">
					<dim>1</dim>
					<dim>577</dim>
					<dim>1024</dim>
				</port>
				<port id="1" precision="FP32">
					<dim>1</dim>
					<dim>1</dim>
					<dim>1024</dim>
				</port>
			</input>
			<output>
				<port id="2" precision="FP32" names="linear_5">
					<dim>1</dim>
					<dim>577</dim>
					<dim>1024</dim>
				</port>
			</output>
		</layer>
		<layer id="99" name="node_add_2" type="Add" version="opset1">
			<data auto_broadcast="numpy" />
			<input>
				<port id="0" precision="FP32">
					<dim>1</dim>
					<dim>577</dim>
					<dim>1024</dim>
				</port>
				<port id="1" precision="FP32">
					<dim>1</dim>
					<dim>577</dim>
					<dim>1024</dim>
				</port>
			</input>
			<output>
				<port id="2" precision="FP32" names="add_2">
					<dim>1</dim>
					<dim>577</dim>
					<dim>1024</dim>
				</port>
			</output>
		</layer>
		<layer id="100" name="Range_141" type="Const" version="opset1">
			<data element_type="i64" shape="1" offset="2758704" size="8" />
			<output>
				<port id="0" precision="I64">
					<dim>1</dim>
				</port>
			</output>
		</layer>
		<layer id="101" name="MVN_142" type="MVN" version="opset6">
			<data eps="9.999999960041972e-13" normalize_variance="true" eps_mode="INSIDE_SQRT" />
			<input>
				<port id="0" precision="FP32">
					<dim>1</dim>
					<dim>577</dim>
					<dim>1024</dim>
				</port>
				<port id="1" precision="I64">
					<dim>1</dim>
				</port>
			</input>
			<output>
				<port id="2" precision="FP32">
					<dim>1</dim>
					<dim>577</dim>
					<dim>1024</dim>
				</port>
			</output>
		</layer>
		<layer id="102" name="Constant_12052_compressed" type="Const" version="opset1">
			<data element_type="f16" shape="1, 1, 1024" offset="27951342" size="2048" />
			<output>
				<port id="0" precision="FP16">
					<dim>1</dim>
					<dim>1</dim>
					<dim>1024</dim>
				</port>
			</output>
		</layer>
		<layer id="103" name="Constant_12052" type="Convert" version="opset1">
			<data destination_type="f32" />
			<rt_info>
				<attribute name="decompression" version="0" />
			</rt_info>
			<input>
				<port id="0" precision="FP16">
					<dim>1</dim>
					<dim>1</dim>
					<dim>1024</dim>
				</port>
			</input>
			<output>
				<port id="1" precision="FP32">
					<dim>1</dim>
					<dim>1</dim>
					<dim>1024</dim>
				</port>
			</output>
		</layer>
		<layer id="104" name="Multiply_149" type="Multiply" version="opset1">
			<data auto_broadcast="numpy" />
			<input>
				<port id="0" precision="FP32">
					<dim>1</dim>
					<dim>577</dim>
					<dim>1024</dim>
				</port>
				<port id="1" precision="FP32">
					<dim>1</dim>
					<dim>1</dim>
					<dim>1024</dim>
				</port>
			</input>
			<output>
				<port id="2" precision="FP32">
					<dim>1</dim>
					<dim>577</dim>
					<dim>1024</dim>
				</port>
			</output>
		</layer>
		<layer id="105" name="Constant_12053_compressed" type="Const" version="opset1">
			<data element_type="f16" shape="1, 1, 1024" offset="27953390" size="2048" />
			<output>
				<port id="0" precision="FP16">
					<dim>1</dim>
					<dim>1</dim>
					<dim>1024</dim>
				</port>
			</output>
		</layer>
		<layer id="106" name="Constant_12053" type="Convert" version="opset1">
			<data destination_type="f32" />
			<rt_info>
				<attribute name="decompression" version="0" />
			</rt_info>
			<input>
				<port id="0" precision="FP16">
					<dim>1</dim>
					<dim>1</dim>
					<dim>1024</dim>
				</port>
			</input>
			<output>
				<port id="1" precision="FP32">
					<dim>1</dim>
					<dim>1</dim>
					<dim>1024</dim>
				</port>
			</output>
		</layer>
		<layer id="107" name="node_layer_norm_2" type="Add" version="opset1">
			<data auto_broadcast="numpy" />
			<input>
				<port id="0" precision="FP32">
					<dim>1</dim>
					<dim>577</dim>
					<dim>1024</dim>
				</port>
				<port id="1" precision="FP32">
					<dim>1</dim>
					<dim>1</dim>
					<dim>1024</dim>
				</port>
			</input>
			<output>
				<port id="2" precision="FP32" names="layer_norm_2">
					<dim>1</dim>
					<dim>577</dim>
					<dim>1024</dim>
				</port>
			</output>
		</layer>
		<layer id="108" name="Transpose_7763_compressed" type="Const" version="opset1">
			<data element_type="f16" shape="1024, 1024" offset="27955438" size="2097152" />
			<output>
				<port id="0" precision="FP16">
					<dim>1024</dim>
					<dim>1024</dim>
				</port>
			</output>
		</layer>
		<layer id="109" name="Transpose_7763" type="Convert" version="opset1">
			<data destination_type="f32" />
			<rt_info>
				<attribute name="decompression" version="0" />
			</rt_info>
			<input>
				<port id="0" precision="FP16">
					<dim>1024</dim>
					<dim>1024</dim>
				</port>
			</input>
			<output>
				<port id="1" precision="FP32">
					<dim>1024</dim>
					<dim>1024</dim>
				</port>
			</output>
		</layer>
		<layer id="110" name="node_MatMul_130" type="MatMul" version="opset1">
			<data transpose_a="false" transpose_b="true" />
			<input>
				<port id="0" precision="FP32">
					<dim>1</dim>
					<dim>577</dim>
					<dim>1024</dim>
				</port>
				<port id="1" precision="FP32">
					<dim>1024</dim>
					<dim>1024</dim>
				</port>
			</input>
			<output>
				<port id="2" precision="FP32" names="val_136">
					<dim>1</dim>
					<dim>577</dim>
					<dim>1024</dim>
				</port>
			</output>
		</layer>
		<layer id="111" name="Constant_12054_compressed" type="Const" version="opset1">
			<data element_type="f16" shape="1, 1, 1024" offset="30052590" size="2048" />
			<output>
				<port id="0" precision="FP16">
					<dim>1</dim>
					<dim>1</dim>
					<dim>1024</dim>
				</port>
			</output>
		</layer>
		<layer id="112" name="Constant_12054" type="Convert" version="opset1">
			<data destination_type="f32" />
			<rt_info>
				<attribute name="decompression" version="0" />
			</rt_info>
			<input>
				<port id="0" precision="FP16">
					<dim>1</dim>
					<dim>1</dim>
					<dim>1024</dim>
				</port>
			</input>
			<output>
				<port id="1" precision="FP32">
					<dim>1</dim>
					<dim>1</dim>
					<dim>1024</dim>
				</port>
			</output>
		</layer>
		<layer id="113" name="node_linear_8" type="Add" version="opset1">
			<data auto_broadcast="numpy" />
			<input>
				<port id="0" precision="FP32">
					<dim>1</dim>
					<dim>577</dim>
					<dim>1024</dim>
				</port>
				<port id="1" precision="FP32">
					<dim>1</dim>
					<dim>1</dim>
					<dim>1024</dim>
				</port>
			</input>
			<output>
				<port id="2" precision="FP32" names="linear_8">
					<dim>1</dim>
					<dim>577</dim>
					<dim>1024</dim>
				</port>
			</output>
		</layer>
		<layer id="114" name="node_view_9" type="Reshape" version="opset1">
			<data special_zero="true" />
			<input>
				<port id="0" precision="FP32">
					<dim>1</dim>
					<dim>577</dim>
					<dim>1024</dim>
				</port>
				<port id="1" precision="I64">
					<dim>4</dim>
				</port>
			</input>
			<output>
				<port id="2" precision="FP32" names="view_9">
					<dim>1</dim>
					<dim>577</dim>
					<dim>16</dim>
					<dim>64</dim>
				</port>
			</output>
		</layer>
		<layer id="115" name="Constant_170" type="Const" version="opset1">
			<data element_type="i64" shape="4" offset="4862040" size="32" />
			<output>
				<port id="0" precision="I64">
					<dim>4</dim>
				</port>
			</output>
		</layer>
		<layer id="116" name="node_transpose_7" type="Transpose" version="opset1">
			<input>
				<port id="0" precision="FP32">
					<dim>1</dim>
					<dim>577</dim>
					<dim>16</dim>
					<dim>64</dim>
				</port>
				<port id="1" precision="I64">
					<dim>4</dim>
				</port>
			</input>
			<output>
				<port id="2" precision="FP32" names="transpose_7">
					<dim>1</dim>
					<dim>16</dim>
					<dim>577</dim>
					<dim>64</dim>
				</port>
			</output>
		</layer>
		<layer id="117" name="Constant_12055" type="Const" version="opset1">
			<data element_type="f32" shape="1, 1, 1, 1" offset="4862072" size="4" />
			<output>
				<port id="0" precision="FP32">
					<dim>1</dim>
					<dim>1</dim>
					<dim>1</dim>
					<dim>1</dim>
				</port>
			</output>
		</layer>
		<layer id="118" name="node_Mul_151" type="Multiply" version="opset1">
			<data auto_broadcast="numpy" />
			<input>
				<port id="0" precision="FP32">
					<dim>1</dim>
					<dim>16</dim>
					<dim>577</dim>
					<dim>64</dim>
				</port>
				<port id="1" precision="FP32">
					<dim>1</dim>
					<dim>1</dim>
					<dim>1</dim>
					<dim>1</dim>
				</port>
			</input>
			<output>
				<port id="2" precision="FP32" names="val_157">
					<dim>1</dim>
					<dim>16</dim>
					<dim>577</dim>
					<dim>64</dim>
				</port>
			</output>
		</layer>
		<layer id="119" name="Transpose_7770_compressed" type="Const" version="opset1">
			<data element_type="f16" shape="1024, 1024" offset="30054638" size="2097152" />
			<output>
				<port id="0" precision="FP16">
					<dim>1024</dim>
					<dim>1024</dim>
				</port>
			</output>
		</layer>
		<layer id="120" name="Transpose_7770" type="Convert" version="opset1">
			<data destination_type="f32" />
			<rt_info>
				<attribute name="decompression" version="0" />
			</rt_info>
			<input>
				<port id="0" precision="FP16">
					<dim>1024</dim>
					<dim>1024</dim>
				</port>
			</input>
			<output>
				<port id="1" precision="FP32">
					<dim>1024</dim>
					<dim>1024</dim>
				</port>
			</output>
		</layer>
		<layer id="121" name="node_MatMul_114" type="MatMul" version="opset1">
			<data transpose_a="false" transpose_b="true" />
			<input>
				<port id="0" precision="FP32">
					<dim>1</dim>
					<dim>577</dim>
					<dim>1024</dim>
				</port>
				<port id="1" precision="FP32">
					<dim>1024</dim>
					<dim>1024</dim>
				</port>
			</input>
			<output>
				<port id="2" precision="FP32" names="val_120">
					<dim>1</dim>
					<dim>577</dim>
					<dim>1024</dim>
				</port>
			</output>
		</layer>
		<layer id="122" name="Constant_12056_compressed" type="Const" version="opset1">
			<data element_type="f16" shape="1, 1, 1024" offset="32151790" size="2048" />
			<output>
				<port id="0" precision="FP16">
					<dim>1</dim>
					<dim>1</dim>
					<dim>1024</dim>
				</port>
			</output>
		</layer>
		<layer id="123" name="Constant_12056" type="Convert" version="opset1">
			<data destination_type="f32" />
			<rt_info>
				<attribute name="decompression" version="0" />
			</rt_info>
			<input>
				<port id="0" precision="FP16">
					<dim>1</dim>
					<dim>1</dim>
					<dim>1024</dim>
				</port>
			</input>
			<output>
				<port id="1" precision="FP32">
					<dim>1</dim>
					<dim>1</dim>
					<dim>1024</dim>
				</port>
			</output>
		</layer>
		<layer id="124" name="node_linear_6" type="Add" version="opset1">
			<data auto_broadcast="numpy" />
			<input>
				<port id="0" precision="FP32">
					<dim>1</dim>
					<dim>577</dim>
					<dim>1024</dim>
				</port>
				<port id="1" precision="FP32">
					<dim>1</dim>
					<dim>1</dim>
					<dim>1024</dim>
				</port>
			</input>
			<output>
				<port id="2" precision="FP32" names="linear_6">
					<dim>1</dim>
					<dim>577</dim>
					<dim>1024</dim>
				</port>
			</output>
		</layer>
		<layer id="125" name="node_view_7" type="Reshape" version="opset1">
			<data special_zero="true" />
			<input>
				<port id="0" precision="FP32">
					<dim>1</dim>
					<dim>577</dim>
					<dim>1024</dim>
				</port>
				<port id="1" precision="I64">
					<dim>4</dim>
				</port>
			</input>
			<output>
				<port id="2" precision="FP32" names="view_7">
					<dim>1</dim>
					<dim>577</dim>
					<dim>16</dim>
					<dim>64</dim>
				</port>
			</output>
		</layer>
		<layer id="126" name="Constant_166" type="Const" version="opset1">
			<data element_type="i64" shape="4" offset="4862040" size="32" />
			<output>
				<port id="0" precision="I64">
					<dim>4</dim>
				</port>
			</output>
		</layer>
		<layer id="127" name="node_transpose_5" type="Transpose" version="opset1">
			<input>
				<port id="0" precision="FP32">
					<dim>1</dim>
					<dim>577</dim>
					<dim>16</dim>
					<dim>64</dim>
				</port>
				<port id="1" precision="I64">
					<dim>4</dim>
				</port>
			</input>
			<output>
				<port id="2" precision="FP32" names="transpose_5">
					<dim>1</dim>
					<dim>16</dim>
					<dim>577</dim>
					<dim>64</dim>
				</port>
			</output>
		</layer>
		<layer id="128" name="node_Reshape_146" type="Reshape" version="opset1">
			<data special_zero="true" />
			<input>
				<port id="0" precision="FP32">
					<dim>1</dim>
					<dim>16</dim>
					<dim>577</dim>
					<dim>64</dim>
				</port>
				<port id="1" precision="I64">
					<dim>3</dim>
				</port>
			</input>
			<output>
				<port id="2" precision="FP32" names="val_152">
					<dim>16</dim>
					<dim>577</dim>
					<dim>64</dim>
				</port>
			</output>
		</layer>
		<layer id="129" name="Constant_174" type="Const" version="opset1">
			<data element_type="i64" shape="3" offset="1576984" size="24" />
			<output>
				<port id="0" precision="I64">
					<dim>3</dim>
				</port>
			</output>
		</layer>
		<layer id="130" name="node_Transpose_147" type="Transpose" version="opset1">
			<input>
				<port id="0" precision="FP32">
					<dim>16</dim>
					<dim>577</dim>
					<dim>64</dim>
				</port>
				<port id="1" precision="I64">
					<dim>3</dim>
				</port>
			</input>
			<output>
				<port id="2" precision="FP32" names="val_153">
					<dim>16</dim>
					<dim>64</dim>
					<dim>577</dim>
				</port>
			</output>
		</layer>
		<layer id="131" name="node_Reshape_149" type="Reshape" version="opset1">
			<data special_zero="true" />
			<input>
				<port id="0" precision="FP32">
					<dim>16</dim>
					<dim>64</dim>
					<dim>577</dim>
				</port>
				<port id="1" precision="I64">
					<dim>4</dim>
				</port>
			</input>
			<output>
				<port id="2" precision="FP32" names="val_155">
					<dim>1</dim>
					<dim>16</dim>
					<dim>64</dim>
					<dim>577</dim>
				</port>
			</output>
		</layer>
		<layer id="132" name="Constant_10986" type="Const" version="opset1">
			<data element_type="i64" shape="4" offset="6961332" size="32" />
			<output>
				<port id="0" precision="I64">
					<dim>4</dim>
				</port>
			</output>
		</layer>
		<layer id="133" name="Transpose_10987" type="Transpose" version="opset1">
			<input>
				<port id="0" precision="FP32">
					<dim>1</dim>
					<dim>16</dim>
					<dim>64</dim>
					<dim>577</dim>
				</port>
				<port id="1" precision="I64">
					<dim>4</dim>
				</port>
			</input>
			<output>
				<port id="2" precision="FP32">
					<dim>1</dim>
					<dim>16</dim>
					<dim>577</dim>
					<dim>64</dim>
				</port>
			</output>
		</layer>
		<layer id="134" name="Transpose_7777_compressed" type="Const" version="opset1">
			<data element_type="f16" shape="1024, 1024" offset="32153838" size="2097152" />
			<output>
				<port id="0" precision="FP16">
					<dim>1024</dim>
					<dim>1024</dim>
				</port>
			</output>
		</layer>
		<layer id="135" name="Transpose_7777" type="Convert" version="opset1">
			<data destination_type="f32" />
			<rt_info>
				<attribute name="decompression" version="0" />
			</rt_info>
			<input>
				<port id="0" precision="FP16">
					<dim>1024</dim>
					<dim>1024</dim>
				</port>
			</input>
			<output>
				<port id="1" precision="FP32">
					<dim>1024</dim>
					<dim>1024</dim>
				</port>
			</output>
		</layer>
		<layer id="136" name="node_MatMul_122" type="MatMul" version="opset1">
			<data transpose_a="false" transpose_b="true" />
			<input>
				<port id="0" precision="FP32">
					<dim>1</dim>
					<dim>577</dim>
					<dim>1024</dim>
				</port>
				<port id="1" precision="FP32">
					<dim>1024</dim>
					<dim>1024</dim>
				</port>
			</input>
			<output>
				<port id="2" precision="FP32" names="val_128">
					<dim>1</dim>
					<dim>577</dim>
					<dim>1024</dim>
				</port>
			</output>
		</layer>
		<layer id="137" name="Constant_12057_compressed" type="Const" version="opset1">
			<data element_type="f16" shape="1, 1, 1024" offset="34250990" size="2048" />
			<output>
				<port id="0" precision="FP16">
					<dim>1</dim>
					<dim>1</dim>
					<dim>1024</dim>
				</port>
			</output>
		</layer>
		<layer id="138" name="Constant_12057" type="Convert" version="opset1">
			<data destination_type="f32" />
			<rt_info>
				<attribute name="decompression" version="0" />
			</rt_info>
			<input>
				<port id="0" precision="FP16">
					<dim>1</dim>
					<dim>1</dim>
					<dim>1024</dim>
				</port>
			</input>
			<output>
				<port id="1" precision="FP32">
					<dim>1</dim>
					<dim>1</dim>
					<dim>1024</dim>
				</port>
			</output>
		</layer>
		<layer id="139" name="node_linear_7" type="Add" version="opset1">
			<data auto_broadcast="numpy" />
			<input>
				<port id="0" precision="FP32">
					<dim>1</dim>
					<dim>577</dim>
					<dim>1024</dim>
				</port>
				<port id="1" precision="FP32">
					<dim>1</dim>
					<dim>1</dim>
					<dim>1024</dim>
				</port>
			</input>
			<output>
				<port id="2" precision="FP32" names="linear_7">
					<dim>1</dim>
					<dim>577</dim>
					<dim>1024</dim>
				</port>
			</output>
		</layer>
		<layer id="140" name="node_view_8" type="Reshape" version="opset1">
			<data special_zero="true" />
			<input>
				<port id="0" precision="FP32">
					<dim>1</dim>
					<dim>577</dim>
					<dim>1024</dim>
				</port>
				<port id="1" precision="I64">
					<dim>4</dim>
				</port>
			</input>
			<output>
				<port id="2" precision="FP32" names="view_8">
					<dim>1</dim>
					<dim>577</dim>
					<dim>16</dim>
					<dim>64</dim>
				</port>
			</output>
		</layer>
		<layer id="141" name="Constant_168" type="Const" version="opset1">
			<data element_type="i64" shape="4" offset="4862040" size="32" />
			<output>
				<port id="0" precision="I64">
					<dim>4</dim>
				</port>
			</output>
		</layer>
		<layer id="142" name="node_transpose_6" type="Transpose" version="opset1">
			<input>
				<port id="0" precision="FP32">
					<dim>1</dim>
					<dim>577</dim>
					<dim>16</dim>
					<dim>64</dim>
				</port>
				<port id="1" precision="I64">
					<dim>4</dim>
				</port>
			</input>
			<output>
				<port id="2" precision="FP32" names="transpose_6">
					<dim>1</dim>
					<dim>16</dim>
					<dim>577</dim>
					<dim>64</dim>
				</port>
			</output>
		</layer>
		<layer id="143" name="Constant_10985_compressed" type="Const" version="opset1">
			<data element_type="f16" shape="" offset="9060564" size="2" />
			<output>
				<port id="0" precision="FP16" />
			</output>
		</layer>
		<layer id="144" name="Constant_10985" type="Convert" version="opset1">
			<data destination_type="f32" />
			<rt_info>
				<attribute name="decompression" version="0" />
			</rt_info>
			<input>
				<port id="0" precision="FP16" />
			</input>
			<output>
				<port id="1" precision="FP32" />
			</output>
		</layer>
		<layer id="145" name="node_scaled_dot_product_attention_1" type="ScaledDotProductAttention" version="opset13">
			<data causal="false" />
			<input>
				<port id="0" precision="FP32">
					<dim>1</dim>
					<dim>16</dim>
					<dim>577</dim>
					<dim>64</dim>
				</port>
				<port id="1" precision="FP32">
					<dim>1</dim>
					<dim>16</dim>
					<dim>577</dim>
					<dim>64</dim>
				</port>
				<port id="2" precision="FP32">
					<dim>1</dim>
					<dim>16</dim>
					<dim>577</dim>
					<dim>64</dim>
				</port>
				<port id="3" precision="FP32" />
				<port id="4" precision="FP32" />
			</input>
			<output>
				<port id="5" precision="FP32" names="scaled_dot_product_attention_1">
					<dim>1</dim>
					<dim>16</dim>
					<dim>577</dim>
					<dim>64</dim>
				</port>
			</output>
		</layer>
		<layer id="146" name="Constant_181" type="Const" version="opset1">
			<data element_type="i64" shape="4" offset="4862040" size="32" />
			<output>
				<port id="0" precision="I64">
					<dim>4</dim>
				</port>
			</output>
		</layer>
		<layer id="147" name="node_transpose_8" type="Transpose" version="opset1">
			<input>
				<port id="0" precision="FP32">
					<dim>1</dim>
					<dim>16</dim>
					<dim>577</dim>
					<dim>64</dim>
				</port>
				<port id="1" precision="I64">
					<dim>4</dim>
				</port>
			</input>
			<output>
				<port id="2" precision="FP32" names="transpose_8">
					<dim>1</dim>
					<dim>577</dim>
					<dim>16</dim>
					<dim>64</dim>
				</port>
			</output>
		</layer>
		<layer id="148" name="node_view_10" type="Reshape" version="opset1">
			<data special_zero="true" />
			<input>
				<port id="0" precision="FP32">
					<dim>1</dim>
					<dim>577</dim>
					<dim>16</dim>
					<dim>64</dim>
				</port>
				<port id="1" precision="I64">
					<dim>3</dim>
				</port>
			</input>
			<output>
				<port id="2" precision="FP32" names="view_10">
					<dim>1</dim>
					<dim>577</dim>
					<dim>1024</dim>
				</port>
			</output>
		</layer>
		<layer id="149" name="Transpose_7782_compressed" type="Const" version="opset1">
			<data element_type="f16" shape="1024, 1024" offset="34253038" size="2097152" />
			<output>
				<port id="0" precision="FP16">
					<dim>1024</dim>
					<dim>1024</dim>
				</port>
			</output>
		</layer>
		<layer id="150" name="Transpose_7782" type="Convert" version="opset1">
			<data destination_type="f32" />
			<rt_info>
				<attribute name="decompression" version="0" />
			</rt_info>
			<input>
				<port id="0" precision="FP16">
					<dim>1024</dim>
					<dim>1024</dim>
				</port>
			</input>
			<output>
				<port id="1" precision="FP32">
					<dim>1024</dim>
					<dim>1024</dim>
				</port>
			</output>
		</layer>
		<layer id="151" name="node_MatMul_163" type="MatMul" version="opset1">
			<data transpose_a="false" transpose_b="true" />
			<input>
				<port id="0" precision="FP32">
					<dim>1</dim>
					<dim>577</dim>
					<dim>1024</dim>
				</port>
				<port id="1" precision="FP32">
					<dim>1024</dim>
					<dim>1024</dim>
				</port>
			</input>
			<output>
				<port id="2" precision="FP32" names="val_169">
					<dim>1</dim>
					<dim>577</dim>
					<dim>1024</dim>
				</port>
			</output>
		</layer>
		<layer id="152" name="Constant_12058_compressed" type="Const" version="opset1">
			<data element_type="f16" shape="1, 1, 1024" offset="36350190" size="2048" />
			<output>
				<port id="0" precision="FP16">
					<dim>1</dim>
					<dim>1</dim>
					<dim>1024</dim>
				</port>
			</output>
		</layer>
		<layer id="153" name="Constant_12058" type="Convert" version="opset1">
			<data destination_type="f32" />
			<rt_info>
				<attribute name="decompression" version="0" />
			</rt_info>
			<input>
				<port id="0" precision="FP16">
					<dim>1</dim>
					<dim>1</dim>
					<dim>1024</dim>
				</port>
			</input>
			<output>
				<port id="1" precision="FP32">
					<dim>1</dim>
					<dim>1</dim>
					<dim>1024</dim>
				</port>
			</output>
		</layer>
		<layer id="154" name="node_linear_9" type="Add" version="opset1">
			<data auto_broadcast="numpy" />
			<input>
				<port id="0" precision="FP32">
					<dim>1</dim>
					<dim>577</dim>
					<dim>1024</dim>
				</port>
				<port id="1" precision="FP32">
					<dim>1</dim>
					<dim>1</dim>
					<dim>1024</dim>
				</port>
			</input>
			<output>
				<port id="2" precision="FP32" names="linear_9">
					<dim>1</dim>
					<dim>577</dim>
					<dim>1024</dim>
				</port>
			</output>
		</layer>
		<layer id="155" name="node_add_3" type="Add" version="opset1">
			<data auto_broadcast="numpy" />
			<input>
				<port id="0" precision="FP32">
					<dim>1</dim>
					<dim>577</dim>
					<dim>1024</dim>
				</port>
				<port id="1" precision="FP32">
					<dim>1</dim>
					<dim>577</dim>
					<dim>1024</dim>
				</port>
			</input>
			<output>
				<port id="2" precision="FP32" names="add_3">
					<dim>1</dim>
					<dim>577</dim>
					<dim>1024</dim>
				</port>
			</output>
		</layer>
		<layer id="156" name="Range_194" type="Const" version="opset1">
			<data element_type="i64" shape="1" offset="2758704" size="8" />
			<output>
				<port id="0" precision="I64">
					<dim>1</dim>
				</port>
			</output>
		</layer>
		<layer id="157" name="MVN_195" type="MVN" version="opset6">
			<data eps="9.999999960041972e-13" normalize_variance="true" eps_mode="INSIDE_SQRT" />
			<input>
				<port id="0" precision="FP32">
					<dim>1</dim>
					<dim>577</dim>
					<dim>1024</dim>
				</port>
				<port id="1" precision="I64">
					<dim>1</dim>
				</port>
			</input>
			<output>
				<port id="2" precision="FP32">
					<dim>1</dim>
					<dim>577</dim>
					<dim>1024</dim>
				</port>
			</output>
		</layer>
		<layer id="158" name="Constant_12059_compressed" type="Const" version="opset1">
			<data element_type="f16" shape="1, 1, 1024" offset="36352238" size="2048" />
			<output>
				<port id="0" precision="FP16">
					<dim>1</dim>
					<dim>1</dim>
					<dim>1024</dim>
				</port>
			</output>
		</layer>
		<layer id="159" name="Constant_12059" type="Convert" version="opset1">
			<data destination_type="f32" />
			<rt_info>
				<attribute name="decompression" version="0" />
			</rt_info>
			<input>
				<port id="0" precision="FP16">
					<dim>1</dim>
					<dim>1</dim>
					<dim>1024</dim>
				</port>
			</input>
			<output>
				<port id="1" precision="FP32">
					<dim>1</dim>
					<dim>1</dim>
					<dim>1024</dim>
				</port>
			</output>
		</layer>
		<layer id="160" name="Multiply_202" type="Multiply" version="opset1">
			<data auto_broadcast="numpy" />
			<input>
				<port id="0" precision="FP32">
					<dim>1</dim>
					<dim>577</dim>
					<dim>1024</dim>
				</port>
				<port id="1" precision="FP32">
					<dim>1</dim>
					<dim>1</dim>
					<dim>1024</dim>
				</port>
			</input>
			<output>
				<port id="2" precision="FP32">
					<dim>1</dim>
					<dim>577</dim>
					<dim>1024</dim>
				</port>
			</output>
		</layer>
		<layer id="161" name="Constant_12060_compressed" type="Const" version="opset1">
			<data element_type="f16" shape="1, 1, 1024" offset="36354286" size="2048" />
			<output>
				<port id="0" precision="FP16">
					<dim>1</dim>
					<dim>1</dim>
					<dim>1024</dim>
				</port>
			</output>
		</layer>
		<layer id="162" name="Constant_12060" type="Convert" version="opset1">
			<data destination_type="f32" />
			<rt_info>
				<attribute name="decompression" version="0" />
			</rt_info>
			<input>
				<port id="0" precision="FP16">
					<dim>1</dim>
					<dim>1</dim>
					<dim>1024</dim>
				</port>
			</input>
			<output>
				<port id="1" precision="FP32">
					<dim>1</dim>
					<dim>1</dim>
					<dim>1024</dim>
				</port>
			</output>
		</layer>
		<layer id="163" name="node_layer_norm_3" type="Add" version="opset1">
			<data auto_broadcast="numpy" />
			<input>
				<port id="0" precision="FP32">
					<dim>1</dim>
					<dim>577</dim>
					<dim>1024</dim>
				</port>
				<port id="1" precision="FP32">
					<dim>1</dim>
					<dim>1</dim>
					<dim>1024</dim>
				</port>
			</input>
			<output>
				<port id="2" precision="FP32" names="layer_norm_3">
					<dim>1</dim>
					<dim>577</dim>
					<dim>1024</dim>
				</port>
			</output>
		</layer>
		<layer id="164" name="Transpose_7793_compressed" type="Const" version="opset1">
			<data element_type="f16" shape="4096, 1024" offset="36356334" size="8388608" />
			<output>
				<port id="0" precision="FP16">
					<dim>4096</dim>
					<dim>1024</dim>
				</port>
			</output>
		</layer>
		<layer id="165" name="Transpose_7793" type="Convert" version="opset1">
			<data destination_type="f32" />
			<rt_info>
				<attribute name="decompression" version="0" />
			</rt_info>
			<input>
				<port id="0" precision="FP16">
					<dim>4096</dim>
					<dim>1024</dim>
				</port>
			</input>
			<output>
				<port id="1" precision="FP32">
					<dim>4096</dim>
					<dim>1024</dim>
				</port>
			</output>
		</layer>
		<layer id="166" name="node_MatMul_165" type="MatMul" version="opset1">
			<data transpose_a="false" transpose_b="true" />
			<input>
				<port id="0" precision="FP32">
					<dim>1</dim>
					<dim>577</dim>
					<dim>1024</dim>
				</port>
				<port id="1" precision="FP32">
					<dim>4096</dim>
					<dim>1024</dim>
				</port>
			</input>
			<output>
				<port id="2" precision="FP32" names="val_173">
					<dim>1</dim>
					<dim>577</dim>
					<dim>4096</dim>
				</port>
			</output>
		</layer>
		<layer id="167" name="Constant_12061_compressed" type="Const" version="opset1">
			<data element_type="f16" shape="1, 1, 4096" offset="44744942" size="8192" />
			<output>
				<port id="0" precision="FP16">
					<dim>1</dim>
					<dim>1</dim>
					<dim>4096</dim>
				</port>
			</output>
		</layer>
		<layer id="168" name="Constant_12061" type="Convert" version="opset1">
			<data destination_type="f32" />
			<rt_info>
				<attribute name="decompression" version="0" />
			</rt_info>
			<input>
				<port id="0" precision="FP16">
					<dim>1</dim>
					<dim>1</dim>
					<dim>4096</dim>
				</port>
			</input>
			<output>
				<port id="1" precision="FP32">
					<dim>1</dim>
					<dim>1</dim>
					<dim>4096</dim>
				</port>
			</output>
		</layer>
		<layer id="169" name="node_linear_10" type="Add" version="opset1">
			<data auto_broadcast="numpy" />
			<input>
				<port id="0" precision="FP32">
					<dim>1</dim>
					<dim>577</dim>
					<dim>4096</dim>
				</port>
				<port id="1" precision="FP32">
					<dim>1</dim>
					<dim>1</dim>
					<dim>4096</dim>
				</port>
			</input>
			<output>
				<port id="2" precision="FP32" names="linear_10">
					<dim>1</dim>
					<dim>577</dim>
					<dim>4096</dim>
				</port>
			</output>
		</layer>
		<layer id="170" name="node_gelu_1" type="Gelu" version="opset7">
			<data approximation_mode="ERF" />
			<input>
				<port id="0" precision="FP32">
					<dim>1</dim>
					<dim>577</dim>
					<dim>4096</dim>
				</port>
			</input>
			<output>
				<port id="1" precision="FP32" names="gelu_1">
					<dim>1</dim>
					<dim>577</dim>
					<dim>4096</dim>
				</port>
			</output>
		</layer>
		<layer id="171" name="Transpose_7798_compressed" type="Const" version="opset1">
			<data element_type="f16" shape="1024, 4096" offset="44753134" size="8388608" />
			<output>
				<port id="0" precision="FP16">
					<dim>1024</dim>
					<dim>4096</dim>
				</port>
			</output>
		</layer>
		<layer id="172" name="Transpose_7798" type="Convert" version="opset1">
			<data destination_type="f32" />
			<rt_info>
				<attribute name="decompression" version="0" />
			</rt_info>
			<input>
				<port id="0" precision="FP16">
					<dim>1024</dim>
					<dim>4096</dim>
				</port>
			</input>
			<output>
				<port id="1" precision="FP32">
					<dim>1024</dim>
					<dim>4096</dim>
				</port>
			</output>
		</layer>
		<layer id="173" name="node_MatMul_174" type="MatMul" version="opset1">
			<data transpose_a="false" transpose_b="true" />
			<input>
				<port id="0" precision="FP32">
					<dim>1</dim>
					<dim>577</dim>
					<dim>4096</dim>
				</port>
				<port id="1" precision="FP32">
					<dim>1024</dim>
					<dim>4096</dim>
				</port>
			</input>
			<output>
				<port id="2" precision="FP32" names="val_182">
					<dim>1</dim>
					<dim>577</dim>
					<dim>1024</dim>
				</port>
			</output>
		</layer>
		<layer id="174" name="Constant_12062_compressed" type="Const" version="opset1">
			<data element_type="f16" shape="1, 1, 1024" offset="53141742" size="2048" />
			<output>
				<port id="0" precision="FP16">
					<dim>1</dim>
					<dim>1</dim>
					<dim>1024</dim>
				</port>
			</output>
		</layer>
		<layer id="175" name="Constant_12062" type="Convert" version="opset1">
			<data destination_type="f32" />
			<rt_info>
				<attribute name="decompression" version="0" />
			</rt_info>
			<input>
				<port id="0" precision="FP16">
					<dim>1</dim>
					<dim>1</dim>
					<dim>1024</dim>
				</port>
			</input>
			<output>
				<port id="1" precision="FP32">
					<dim>1</dim>
					<dim>1</dim>
					<dim>1024</dim>
				</port>
			</output>
		</layer>
		<layer id="176" name="node_linear_11" type="Add" version="opset1">
			<data auto_broadcast="numpy" />
			<input>
				<port id="0" precision="FP32">
					<dim>1</dim>
					<dim>577</dim>
					<dim>1024</dim>
				</port>
				<port id="1" precision="FP32">
					<dim>1</dim>
					<dim>1</dim>
					<dim>1024</dim>
				</port>
			</input>
			<output>
				<port id="2" precision="FP32" names="linear_11">
					<dim>1</dim>
					<dim>577</dim>
					<dim>1024</dim>
				</port>
			</output>
		</layer>
		<layer id="177" name="node_add_4" type="Add" version="opset1">
			<data auto_broadcast="numpy" />
			<input>
				<port id="0" precision="FP32">
					<dim>1</dim>
					<dim>577</dim>
					<dim>1024</dim>
				</port>
				<port id="1" precision="FP32">
					<dim>1</dim>
					<dim>577</dim>
					<dim>1024</dim>
				</port>
			</input>
			<output>
				<port id="2" precision="FP32" names="add_4">
					<dim>1</dim>
					<dim>577</dim>
					<dim>1024</dim>
				</port>
			</output>
		</layer>
		<layer id="178" name="Range_223" type="Const" version="opset1">
			<data element_type="i64" shape="1" offset="2758704" size="8" />
			<output>
				<port id="0" precision="I64">
					<dim>1</dim>
				</port>
			</output>
		</layer>
		<layer id="179" name="MVN_224" type="MVN" version="opset6">
			<data eps="9.999999960041972e-13" normalize_variance="true" eps_mode="INSIDE_SQRT" />
			<input>
				<port id="0" precision="FP32">
					<dim>1</dim>
					<dim>577</dim>
					<dim>1024</dim>
				</port>
				<port id="1" precision="I64">
					<dim>1</dim>
				</port>
			</input>
			<output>
				<port id="2" precision="FP32">
					<dim>1</dim>
					<dim>577</dim>
					<dim>1024</dim>
				</port>
			</output>
		</layer>
		<layer id="180" name="Constant_12063_compressed" type="Const" version="opset1">
			<data element_type="f16" shape="1, 1, 1024" offset="53143790" size="2048" />
			<output>
				<port id="0" precision="FP16">
					<dim>1</dim>
					<dim>1</dim>
					<dim>1024</dim>
				</port>
			</output>
		</layer>
		<layer id="181" name="Constant_12063" type="Convert" version="opset1">
			<data destination_type="f32" />
			<rt_info>
				<attribute name="decompression" version="0" />
			</rt_info>
			<input>
				<port id="0" precision="FP16">
					<dim>1</dim>
					<dim>1</dim>
					<dim>1024</dim>
				</port>
			</input>
			<output>
				<port id="1" precision="FP32">
					<dim>1</dim>
					<dim>1</dim>
					<dim>1024</dim>
				</port>
			</output>
		</layer>
		<layer id="182" name="Multiply_231" type="Multiply" version="opset1">
			<data auto_broadcast="numpy" />
			<input>
				<port id="0" precision="FP32">
					<dim>1</dim>
					<dim>577</dim>
					<dim>1024</dim>
				</port>
				<port id="1" precision="FP32">
					<dim>1</dim>
					<dim>1</dim>
					<dim>1024</dim>
				</port>
			</input>
			<output>
				<port id="2" precision="FP32">
					<dim>1</dim>
					<dim>577</dim>
					<dim>1024</dim>
				</port>
			</output>
		</layer>
		<layer id="183" name="Constant_12064_compressed" type="Const" version="opset1">
			<data element_type="f16" shape="1, 1, 1024" offset="53145838" size="2048" />
			<output>
				<port id="0" precision="FP16">
					<dim>1</dim>
					<dim>1</dim>
					<dim>1024</dim>
				</port>
			</output>
		</layer>
		<layer id="184" name="Constant_12064" type="Convert" version="opset1">
			<data destination_type="f32" />
			<rt_info>
				<attribute name="decompression" version="0" />
			</rt_info>
			<input>
				<port id="0" precision="FP16">
					<dim>1</dim>
					<dim>1</dim>
					<dim>1024</dim>
				</port>
			</input>
			<output>
				<port id="1" precision="FP32">
					<dim>1</dim>
					<dim>1</dim>
					<dim>1024</dim>
				</port>
			</output>
		</layer>
		<layer id="185" name="node_layer_norm_4" type="Add" version="opset1">
			<data auto_broadcast="numpy" />
			<input>
				<port id="0" precision="FP32">
					<dim>1</dim>
					<dim>577</dim>
					<dim>1024</dim>
				</port>
				<port id="1" precision="FP32">
					<dim>1</dim>
					<dim>1</dim>
					<dim>1024</dim>
				</port>
			</input>
			<output>
				<port id="2" precision="FP32" names="layer_norm_4">
					<dim>1</dim>
					<dim>577</dim>
					<dim>1024</dim>
				</port>
			</output>
		</layer>
		<layer id="186" name="Transpose_7809_compressed" type="Const" version="opset1">
			<data element_type="f16" shape="1024, 1024" offset="53147886" size="2097152" />
			<output>
				<port id="0" precision="FP16">
					<dim>1024</dim>
					<dim>1024</dim>
				</port>
			</output>
		</layer>
		<layer id="187" name="Transpose_7809" type="Convert" version="opset1">
			<data destination_type="f32" />
			<rt_info>
				<attribute name="decompression" version="0" />
			</rt_info>
			<input>
				<port id="0" precision="FP16">
					<dim>1024</dim>
					<dim>1024</dim>
				</port>
			</input>
			<output>
				<port id="1" precision="FP32">
					<dim>1024</dim>
					<dim>1024</dim>
				</port>
			</output>
		</layer>
		<layer id="188" name="node_MatMul_192" type="MatMul" version="opset1">
			<data transpose_a="false" transpose_b="true" />
			<input>
				<port id="0" precision="FP32">
					<dim>1</dim>
					<dim>577</dim>
					<dim>1024</dim>
				</port>
				<port id="1" precision="FP32">
					<dim>1024</dim>
					<dim>1024</dim>
				</port>
			</input>
			<output>
				<port id="2" precision="FP32" names="val_202">
					<dim>1</dim>
					<dim>577</dim>
					<dim>1024</dim>
				</port>
			</output>
		</layer>
		<layer id="189" name="Constant_12065_compressed" type="Const" version="opset1">
			<data element_type="f16" shape="1, 1, 1024" offset="55245038" size="2048" />
			<output>
				<port id="0" precision="FP16">
					<dim>1</dim>
					<dim>1</dim>
					<dim>1024</dim>
				</port>
			</output>
		</layer>
		<layer id="190" name="Constant_12065" type="Convert" version="opset1">
			<data destination_type="f32" />
			<rt_info>
				<attribute name="decompression" version="0" />
			</rt_info>
			<input>
				<port id="0" precision="FP16">
					<dim>1</dim>
					<dim>1</dim>
					<dim>1024</dim>
				</port>
			</input>
			<output>
				<port id="1" precision="FP32">
					<dim>1</dim>
					<dim>1</dim>
					<dim>1024</dim>
				</port>
			</output>
		</layer>
		<layer id="191" name="node_linear_14" type="Add" version="opset1">
			<data auto_broadcast="numpy" />
			<input>
				<port id="0" precision="FP32">
					<dim>1</dim>
					<dim>577</dim>
					<dim>1024</dim>
				</port>
				<port id="1" precision="FP32">
					<dim>1</dim>
					<dim>1</dim>
					<dim>1024</dim>
				</port>
			</input>
			<output>
				<port id="2" precision="FP32" names="linear_14">
					<dim>1</dim>
					<dim>577</dim>
					<dim>1024</dim>
				</port>
			</output>
		</layer>
		<layer id="192" name="node_view_13" type="Reshape" version="opset1">
			<data special_zero="true" />
			<input>
				<port id="0" precision="FP32">
					<dim>1</dim>
					<dim>577</dim>
					<dim>1024</dim>
				</port>
				<port id="1" precision="I64">
					<dim>4</dim>
				</port>
			</input>
			<output>
				<port id="2" precision="FP32" names="view_13">
					<dim>1</dim>
					<dim>577</dim>
					<dim>16</dim>
					<dim>64</dim>
				</port>
			</output>
		</layer>
		<layer id="193" name="Constant_252" type="Const" version="opset1">
			<data element_type="i64" shape="4" offset="4862040" size="32" />
			<output>
				<port id="0" precision="I64">
					<dim>4</dim>
				</port>
			</output>
		</layer>
		<layer id="194" name="node_transpose_11" type="Transpose" version="opset1">
			<input>
				<port id="0" precision="FP32">
					<dim>1</dim>
					<dim>577</dim>
					<dim>16</dim>
					<dim>64</dim>
				</port>
				<port id="1" precision="I64">
					<dim>4</dim>
				</port>
			</input>
			<output>
				<port id="2" precision="FP32" names="transpose_11">
					<dim>1</dim>
					<dim>16</dim>
					<dim>577</dim>
					<dim>64</dim>
				</port>
			</output>
		</layer>
		<layer id="195" name="Constant_12066" type="Const" version="opset1">
			<data element_type="f32" shape="1, 1, 1, 1" offset="4862072" size="4" />
			<output>
				<port id="0" precision="FP32">
					<dim>1</dim>
					<dim>1</dim>
					<dim>1</dim>
					<dim>1</dim>
				</port>
			</output>
		</layer>
		<layer id="196" name="node_Mul_213" type="Multiply" version="opset1">
			<data auto_broadcast="numpy" />
			<input>
				<port id="0" precision="FP32">
					<dim>1</dim>
					<dim>16</dim>
					<dim>577</dim>
					<dim>64</dim>
				</port>
				<port id="1" precision="FP32">
					<dim>1</dim>
					<dim>1</dim>
					<dim>1</dim>
					<dim>1</dim>
				</port>
			</input>
			<output>
				<port id="2" precision="FP32" names="val_223">
					<dim>1</dim>
					<dim>16</dim>
					<dim>577</dim>
					<dim>64</dim>
				</port>
			</output>
		</layer>
		<layer id="197" name="Transpose_7816_compressed" type="Const" version="opset1">
			<data element_type="f16" shape="1024, 1024" offset="55247086" size="2097152" />
			<output>
				<port id="0" precision="FP16">
					<dim>1024</dim>
					<dim>1024</dim>
				</port>
			</output>
		</layer>
		<layer id="198" name="Transpose_7816" type="Convert" version="opset1">
			<data destination_type="f32" />
			<rt_info>
				<attribute name="decompression" version="0" />
			</rt_info>
			<input>
				<port id="0" precision="FP16">
					<dim>1024</dim>
					<dim>1024</dim>
				</port>
			</input>
			<output>
				<port id="1" precision="FP32">
					<dim>1024</dim>
					<dim>1024</dim>
				</port>
			</output>
		</layer>
		<layer id="199" name="node_MatMul_176" type="MatMul" version="opset1">
			<data transpose_a="false" transpose_b="true" />
			<input>
				<port id="0" precision="FP32">
					<dim>1</dim>
					<dim>577</dim>
					<dim>1024</dim>
				</port>
				<port id="1" precision="FP32">
					<dim>1024</dim>
					<dim>1024</dim>
				</port>
			</input>
			<output>
				<port id="2" precision="FP32" names="val_186">
					<dim>1</dim>
					<dim>577</dim>
					<dim>1024</dim>
				</port>
			</output>
		</layer>
		<layer id="200" name="Constant_12067_compressed" type="Const" version="opset1">
			<data element_type="f16" shape="1, 1, 1024" offset="57344238" size="2048" />
			<output>
				<port id="0" precision="FP16">
					<dim>1</dim>
					<dim>1</dim>
					<dim>1024</dim>
				</port>
			</output>
		</layer>
		<layer id="201" name="Constant_12067" type="Convert" version="opset1">
			<data destination_type="f32" />
			<rt_info>
				<attribute name="decompression" version="0" />
			</rt_info>
			<input>
				<port id="0" precision="FP16">
					<dim>1</dim>
					<dim>1</dim>
					<dim>1024</dim>
				</port>
			</input>
			<output>
				<port id="1" precision="FP32">
					<dim>1</dim>
					<dim>1</dim>
					<dim>1024</dim>
				</port>
			</output>
		</layer>
		<layer id="202" name="node_linear_12" type="Add" version="opset1">
			<data auto_broadcast="numpy" />
			<input>
				<port id="0" precision="FP32">
					<dim>1</dim>
					<dim>577</dim>
					<dim>1024</dim>
				</port>
				<port id="1" precision="FP32">
					<dim>1</dim>
					<dim>1</dim>
					<dim>1024</dim>
				</port>
			</input>
			<output>
				<port id="2" precision="FP32" names="linear_12">
					<dim>1</dim>
					<dim>577</dim>
					<dim>1024</dim>
				</port>
			</output>
		</layer>
		<layer id="203" name="node_view_11" type="Reshape" version="opset1">
			<data special_zero="true" />
			<input>
				<port id="0" precision="FP32">
					<dim>1</dim>
					<dim>577</dim>
					<dim>1024</dim>
				</port>
				<port id="1" precision="I64">
					<dim>4</dim>
				</port>
			</input>
			<output>
				<port id="2" precision="FP32" names="view_11">
					<dim>1</dim>
					<dim>577</dim>
					<dim>16</dim>
					<dim>64</dim>
				</port>
			</output>
		</layer>
		<layer id="204" name="Constant_248" type="Const" version="opset1">
			<data element_type="i64" shape="4" offset="4862040" size="32" />
			<output>
				<port id="0" precision="I64">
					<dim>4</dim>
				</port>
			</output>
		</layer>
		<layer id="205" name="node_transpose_9" type="Transpose" version="opset1">
			<input>
				<port id="0" precision="FP32">
					<dim>1</dim>
					<dim>577</dim>
					<dim>16</dim>
					<dim>64</dim>
				</port>
				<port id="1" precision="I64">
					<dim>4</dim>
				</port>
			</input>
			<output>
				<port id="2" precision="FP32" names="transpose_9">
					<dim>1</dim>
					<dim>16</dim>
					<dim>577</dim>
					<dim>64</dim>
				</port>
			</output>
		</layer>
		<layer id="206" name="node_Reshape_208" type="Reshape" version="opset1">
			<data special_zero="true" />
			<input>
				<port id="0" precision="FP32">
					<dim>1</dim>
					<dim>16</dim>
					<dim>577</dim>
					<dim>64</dim>
				</port>
				<port id="1" precision="I64">
					<dim>3</dim>
				</port>
			</input>
			<output>
				<port id="2" precision="FP32" names="val_218">
					<dim>16</dim>
					<dim>577</dim>
					<dim>64</dim>
				</port>
			</output>
		</layer>
		<layer id="207" name="Constant_256" type="Const" version="opset1">
			<data element_type="i64" shape="3" offset="1576984" size="24" />
			<output>
				<port id="0" precision="I64">
					<dim>3</dim>
				</port>
			</output>
		</layer>
		<layer id="208" name="node_Transpose_209" type="Transpose" version="opset1">
			<input>
				<port id="0" precision="FP32">
					<dim>16</dim>
					<dim>577</dim>
					<dim>64</dim>
				</port>
				<port id="1" precision="I64">
					<dim>3</dim>
				</port>
			</input>
			<output>
				<port id="2" precision="FP32" names="val_219">
					<dim>16</dim>
					<dim>64</dim>
					<dim>577</dim>
				</port>
			</output>
		</layer>
		<layer id="209" name="node_Reshape_211" type="Reshape" version="opset1">
			<data special_zero="true" />
			<input>
				<port id="0" precision="FP32">
					<dim>16</dim>
					<dim>64</dim>
					<dim>577</dim>
				</port>
				<port id="1" precision="I64">
					<dim>4</dim>
				</port>
			</input>
			<output>
				<port id="2" precision="FP32" names="val_221">
					<dim>1</dim>
					<dim>16</dim>
					<dim>64</dim>
					<dim>577</dim>
				</port>
			</output>
		</layer>
		<layer id="210" name="Constant_11004" type="Const" version="opset1">
			<data element_type="i64" shape="4" offset="6961332" size="32" />
			<output>
				<port id="0" precision="I64">
					<dim>4</dim>
				</port>
			</output>
		</layer>
		<layer id="211" name="Transpose_11005" type="Transpose" version="opset1">
			<input>
				<port id="0" precision="FP32">
					<dim>1</dim>
					<dim>16</dim>
					<dim>64</dim>
					<dim>577</dim>
				</port>
				<port id="1" precision="I64">
					<dim>4</dim>
				</port>
			</input>
			<output>
				<port id="2" precision="FP32">
					<dim>1</dim>
					<dim>16</dim>
					<dim>577</dim>
					<dim>64</dim>
				</port>
			</output>
		</layer>
		<layer id="212" name="Transpose_7823_compressed" type="Const" version="opset1">
			<data element_type="f16" shape="1024, 1024" offset="57346286" size="2097152" />
			<output>
				<port id="0" precision="FP16">
					<dim>1024</dim>
					<dim>1024</dim>
				</port>
			</output>
		</layer>
		<layer id="213" name="Transpose_7823" type="Convert" version="opset1">
			<data destination_type="f32" />
			<rt_info>
				<attribute name="decompression" version="0" />
			</rt_info>
			<input>
				<port id="0" precision="FP16">
					<dim>1024</dim>
					<dim>1024</dim>
				</port>
			</input>
			<output>
				<port id="1" precision="FP32">
					<dim>1024</dim>
					<dim>1024</dim>
				</port>
			</output>
		</layer>
		<layer id="214" name="node_MatMul_184" type="MatMul" version="opset1">
			<data transpose_a="false" transpose_b="true" />
			<input>
				<port id="0" precision="FP32">
					<dim>1</dim>
					<dim>577</dim>
					<dim>1024</dim>
				</port>
				<port id="1" precision="FP32">
					<dim>1024</dim>
					<dim>1024</dim>
				</port>
			</input>
			<output>
				<port id="2" precision="FP32" names="val_194">
					<dim>1</dim>
					<dim>577</dim>
					<dim>1024</dim>
				</port>
			</output>
		</layer>
		<layer id="215" name="Constant_12068_compressed" type="Const" version="opset1">
			<data element_type="f16" shape="1, 1, 1024" offset="59443438" size="2048" />
			<output>
				<port id="0" precision="FP16">
					<dim>1</dim>
					<dim>1</dim>
					<dim>1024</dim>
				</port>
			</output>
		</layer>
		<layer id="216" name="Constant_12068" type="Convert" version="opset1">
			<data destination_type="f32" />
			<rt_info>
				<attribute name="decompression" version="0" />
			</rt_info>
			<input>
				<port id="0" precision="FP16">
					<dim>1</dim>
					<dim>1</dim>
					<dim>1024</dim>
				</port>
			</input>
			<output>
				<port id="1" precision="FP32">
					<dim>1</dim>
					<dim>1</dim>
					<dim>1024</dim>
				</port>
			</output>
		</layer>
		<layer id="217" name="node_linear_13" type="Add" version="opset1">
			<data auto_broadcast="numpy" />
			<input>
				<port id="0" precision="FP32">
					<dim>1</dim>
					<dim>577</dim>
					<dim>1024</dim>
				</port>
				<port id="1" precision="FP32">
					<dim>1</dim>
					<dim>1</dim>
					<dim>1024</dim>
				</port>
			</input>
			<output>
				<port id="2" precision="FP32" names="linear_13">
					<dim>1</dim>
					<dim>577</dim>
					<dim>1024</dim>
				</port>
			</output>
		</layer>
		<layer id="218" name="node_view_12" type="Reshape" version="opset1">
			<data special_zero="true" />
			<input>
				<port id="0" precision="FP32">
					<dim>1</dim>
					<dim>577</dim>
					<dim>1024</dim>
				</port>
				<port id="1" precision="I64">
					<dim>4</dim>
				</port>
			</input>
			<output>
				<port id="2" precision="FP32" names="view_12">
					<dim>1</dim>
					<dim>577</dim>
					<dim>16</dim>
					<dim>64</dim>
				</port>
			</output>
		</layer>
		<layer id="219" name="Constant_250" type="Const" version="opset1">
			<data element_type="i64" shape="4" offset="4862040" size="32" />
			<output>
				<port id="0" precision="I64">
					<dim>4</dim>
				</port>
			</output>
		</layer>
		<layer id="220" name="node_transpose_10" type="Transpose" version="opset1">
			<input>
				<port id="0" precision="FP32">
					<dim>1</dim>
					<dim>577</dim>
					<dim>16</dim>
					<dim>64</dim>
				</port>
				<port id="1" precision="I64">
					<dim>4</dim>
				</port>
			</input>
			<output>
				<port id="2" precision="FP32" names="transpose_10">
					<dim>1</dim>
					<dim>16</dim>
					<dim>577</dim>
					<dim>64</dim>
				</port>
			</output>
		</layer>
		<layer id="221" name="Constant_11003_compressed" type="Const" version="opset1">
			<data element_type="f16" shape="" offset="9060564" size="2" />
			<output>
				<port id="0" precision="FP16" />
			</output>
		</layer>
		<layer id="222" name="Constant_11003" type="Convert" version="opset1">
			<data destination_type="f32" />
			<rt_info>
				<attribute name="decompression" version="0" />
			</rt_info>
			<input>
				<port id="0" precision="FP16" />
			</input>
			<output>
				<port id="1" precision="FP32" />
			</output>
		</layer>
		<layer id="223" name="node_scaled_dot_product_attention_2" type="ScaledDotProductAttention" version="opset13">
			<data causal="false" />
			<input>
				<port id="0" precision="FP32">
					<dim>1</dim>
					<dim>16</dim>
					<dim>577</dim>
					<dim>64</dim>
				</port>
				<port id="1" precision="FP32">
					<dim>1</dim>
					<dim>16</dim>
					<dim>577</dim>
					<dim>64</dim>
				</port>
				<port id="2" precision="FP32">
					<dim>1</dim>
					<dim>16</dim>
					<dim>577</dim>
					<dim>64</dim>
				</port>
				<port id="3" precision="FP32" />
				<port id="4" precision="FP32" />
			</input>
			<output>
				<port id="5" precision="FP32" names="scaled_dot_product_attention_2">
					<dim>1</dim>
					<dim>16</dim>
					<dim>577</dim>
					<dim>64</dim>
				</port>
			</output>
		</layer>
		<layer id="224" name="Constant_263" type="Const" version="opset1">
			<data element_type="i64" shape="4" offset="4862040" size="32" />
			<output>
				<port id="0" precision="I64">
					<dim>4</dim>
				</port>
			</output>
		</layer>
		<layer id="225" name="node_transpose_12" type="Transpose" version="opset1">
			<input>
				<port id="0" precision="FP32">
					<dim>1</dim>
					<dim>16</dim>
					<dim>577</dim>
					<dim>64</dim>
				</port>
				<port id="1" precision="I64">
					<dim>4</dim>
				</port>
			</input>
			<output>
				<port id="2" precision="FP32" names="transpose_12">
					<dim>1</dim>
					<dim>577</dim>
					<dim>16</dim>
					<dim>64</dim>
				</port>
			</output>
		</layer>
		<layer id="226" name="node_view_14" type="Reshape" version="opset1">
			<data special_zero="true" />
			<input>
				<port id="0" precision="FP32">
					<dim>1</dim>
					<dim>577</dim>
					<dim>16</dim>
					<dim>64</dim>
				</port>
				<port id="1" precision="I64">
					<dim>3</dim>
				</port>
			</input>
			<output>
				<port id="2" precision="FP32" names="view_14">
					<dim>1</dim>
					<dim>577</dim>
					<dim>1024</dim>
				</port>
			</output>
		</layer>
		<layer id="227" name="Transpose_7828_compressed" type="Const" version="opset1">
			<data element_type="f16" shape="1024, 1024" offset="59445486" size="2097152" />
			<output>
				<port id="0" precision="FP16">
					<dim>1024</dim>
					<dim>1024</dim>
				</port>
			</output>
		</layer>
		<layer id="228" name="Transpose_7828" type="Convert" version="opset1">
			<data destination_type="f32" />
			<rt_info>
				<attribute name="decompression" version="0" />
			</rt_info>
			<input>
				<port id="0" precision="FP16">
					<dim>1024</dim>
					<dim>1024</dim>
				</port>
			</input>
			<output>
				<port id="1" precision="FP32">
					<dim>1024</dim>
					<dim>1024</dim>
				</port>
			</output>
		</layer>
		<layer id="229" name="node_MatMul_225" type="MatMul" version="opset1">
			<data transpose_a="false" transpose_b="true" />
			<input>
				<port id="0" precision="FP32">
					<dim>1</dim>
					<dim>577</dim>
					<dim>1024</dim>
				</port>
				<port id="1" precision="FP32">
					<dim>1024</dim>
					<dim>1024</dim>
				</port>
			</input>
			<output>
				<port id="2" precision="FP32" names="val_235">
					<dim>1</dim>
					<dim>577</dim>
					<dim>1024</dim>
				</port>
			</output>
		</layer>
		<layer id="230" name="Constant_12069_compressed" type="Const" version="opset1">
			<data element_type="f16" shape="1, 1, 1024" offset="61542638" size="2048" />
			<output>
				<port id="0" precision="FP16">
					<dim>1</dim>
					<dim>1</dim>
					<dim>1024</dim>
				</port>
			</output>
		</layer>
		<layer id="231" name="Constant_12069" type="Convert" version="opset1">
			<data destination_type="f32" />
			<rt_info>
				<attribute name="decompression" version="0" />
			</rt_info>
			<input>
				<port id="0" precision="FP16">
					<dim>1</dim>
					<dim>1</dim>
					<dim>1024</dim>
				</port>
			</input>
			<output>
				<port id="1" precision="FP32">
					<dim>1</dim>
					<dim>1</dim>
					<dim>1024</dim>
				</port>
			</output>
		</layer>
		<layer id="232" name="node_linear_15" type="Add" version="opset1">
			<data auto_broadcast="numpy" />
			<input>
				<port id="0" precision="FP32">
					<dim>1</dim>
					<dim>577</dim>
					<dim>1024</dim>
				</port>
				<port id="1" precision="FP32">
					<dim>1</dim>
					<dim>1</dim>
					<dim>1024</dim>
				</port>
			</input>
			<output>
				<port id="2" precision="FP32" names="linear_15">
					<dim>1</dim>
					<dim>577</dim>
					<dim>1024</dim>
				</port>
			</output>
		</layer>
		<layer id="233" name="node_add_5" type="Add" version="opset1">
			<data auto_broadcast="numpy" />
			<input>
				<port id="0" precision="FP32">
					<dim>1</dim>
					<dim>577</dim>
					<dim>1024</dim>
				</port>
				<port id="1" precision="FP32">
					<dim>1</dim>
					<dim>577</dim>
					<dim>1024</dim>
				</port>
			</input>
			<output>
				<port id="2" precision="FP32" names="add_5">
					<dim>1</dim>
					<dim>577</dim>
					<dim>1024</dim>
				</port>
			</output>
		</layer>
		<layer id="234" name="Range_276" type="Const" version="opset1">
			<data element_type="i64" shape="1" offset="2758704" size="8" />
			<output>
				<port id="0" precision="I64">
					<dim>1</dim>
				</port>
			</output>
		</layer>
		<layer id="235" name="MVN_277" type="MVN" version="opset6">
			<data eps="9.999999960041972e-13" normalize_variance="true" eps_mode="INSIDE_SQRT" />
			<input>
				<port id="0" precision="FP32">
					<dim>1</dim>
					<dim>577</dim>
					<dim>1024</dim>
				</port>
				<port id="1" precision="I64">
					<dim>1</dim>
				</port>
			</input>
			<output>
				<port id="2" precision="FP32">
					<dim>1</dim>
					<dim>577</dim>
					<dim>1024</dim>
				</port>
			</output>
		</layer>
		<layer id="236" name="Constant_12070_compressed" type="Const" version="opset1">
			<data element_type="f16" shape="1, 1, 1024" offset="61544686" size="2048" />
			<output>
				<port id="0" precision="FP16">
					<dim>1</dim>
					<dim>1</dim>
					<dim>1024</dim>
				</port>
			</output>
		</layer>
		<layer id="237" name="Constant_12070" type="Convert" version="opset1">
			<data destination_type="f32" />
			<rt_info>
				<attribute name="decompression" version="0" />
			</rt_info>
			<input>
				<port id="0" precision="FP16">
					<dim>1</dim>
					<dim>1</dim>
					<dim>1024</dim>
				</port>
			</input>
			<output>
				<port id="1" precision="FP32">
					<dim>1</dim>
					<dim>1</dim>
					<dim>1024</dim>
				</port>
			</output>
		</layer>
		<layer id="238" name="Multiply_284" type="Multiply" version="opset1">
			<data auto_broadcast="numpy" />
			<input>
				<port id="0" precision="FP32">
					<dim>1</dim>
					<dim>577</dim>
					<dim>1024</dim>
				</port>
				<port id="1" precision="FP32">
					<dim>1</dim>
					<dim>1</dim>
					<dim>1024</dim>
				</port>
			</input>
			<output>
				<port id="2" precision="FP32">
					<dim>1</dim>
					<dim>577</dim>
					<dim>1024</dim>
				</port>
			</output>
		</layer>
		<layer id="239" name="Constant_12071_compressed" type="Const" version="opset1">
			<data element_type="f16" shape="1, 1, 1024" offset="61546734" size="2048" />
			<output>
				<port id="0" precision="FP16">
					<dim>1</dim>
					<dim>1</dim>
					<dim>1024</dim>
				</port>
			</output>
		</layer>
		<layer id="240" name="Constant_12071" type="Convert" version="opset1">
			<data destination_type="f32" />
			<rt_info>
				<attribute name="decompression" version="0" />
			</rt_info>
			<input>
				<port id="0" precision="FP16">
					<dim>1</dim>
					<dim>1</dim>
					<dim>1024</dim>
				</port>
			</input>
			<output>
				<port id="1" precision="FP32">
					<dim>1</dim>
					<dim>1</dim>
					<dim>1024</dim>
				</port>
			</output>
		</layer>
		<layer id="241" name="node_layer_norm_5" type="Add" version="opset1">
			<data auto_broadcast="numpy" />
			<input>
				<port id="0" precision="FP32">
					<dim>1</dim>
					<dim>577</dim>
					<dim>1024</dim>
				</port>
				<port id="1" precision="FP32">
					<dim>1</dim>
					<dim>1</dim>
					<dim>1024</dim>
				</port>
			</input>
			<output>
				<port id="2" precision="FP32" names="layer_norm_5">
					<dim>1</dim>
					<dim>577</dim>
					<dim>1024</dim>
				</port>
			</output>
		</layer>
		<layer id="242" name="Transpose_7839_compressed" type="Const" version="opset1">
			<data element_type="f16" shape="4096, 1024" offset="61548782" size="8388608" />
			<output>
				<port id="0" precision="FP16">
					<dim>4096</dim>
					<dim>1024</dim>
				</port>
			</output>
		</layer>
		<layer id="243" name="Transpose_7839" type="Convert" version="opset1">
			<data destination_type="f32" />
			<rt_info>
				<attribute name="decompression" version="0" />
			</rt_info>
			<input>
				<port id="0" precision="FP16">
					<dim>4096</dim>
					<dim>1024</dim>
				</port>
			</input>
			<output>
				<port id="1" precision="FP32">
					<dim>4096</dim>
					<dim>1024</dim>
				</port>
			</output>
		</layer>
		<layer id="244" name="node_MatMul_227" type="MatMul" version="opset1">
			<data transpose_a="false" transpose_b="true" />
			<input>
				<port id="0" precision="FP32">
					<dim>1</dim>
					<dim>577</dim>
					<dim>1024</dim>
				</port>
				<port id="1" precision="FP32">
					<dim>4096</dim>
					<dim>1024</dim>
				</port>
			</input>
			<output>
				<port id="2" precision="FP32" names="val_239">
					<dim>1</dim>
					<dim>577</dim>
					<dim>4096</dim>
				</port>
			</output>
		</layer>
		<layer id="245" name="Constant_12072_compressed" type="Const" version="opset1">
			<data element_type="f16" shape="1, 1, 4096" offset="69937390" size="8192" />
			<output>
				<port id="0" precision="FP16">
					<dim>1</dim>
					<dim>1</dim>
					<dim>4096</dim>
				</port>
			</output>
		</layer>
		<layer id="246" name="Constant_12072" type="Convert" version="opset1">
			<data destination_type="f32" />
			<rt_info>
				<attribute name="decompression" version="0" />
			</rt_info>
			<input>
				<port id="0" precision="FP16">
					<dim>1</dim>
					<dim>1</dim>
					<dim>4096</dim>
				</port>
			</input>
			<output>
				<port id="1" precision="FP32">
					<dim>1</dim>
					<dim>1</dim>
					<dim>4096</dim>
				</port>
			</output>
		</layer>
		<layer id="247" name="node_linear_16" type="Add" version="opset1">
			<data auto_broadcast="numpy" />
			<input>
				<port id="0" precision="FP32">
					<dim>1</dim>
					<dim>577</dim>
					<dim>4096</dim>
				</port>
				<port id="1" precision="FP32">
					<dim>1</dim>
					<dim>1</dim>
					<dim>4096</dim>
				</port>
			</input>
			<output>
				<port id="2" precision="FP32" names="linear_16">
					<dim>1</dim>
					<dim>577</dim>
					<dim>4096</dim>
				</port>
			</output>
		</layer>
		<layer id="248" name="node_gelu_2" type="Gelu" version="opset7">
			<data approximation_mode="ERF" />
			<input>
				<port id="0" precision="FP32">
					<dim>1</dim>
					<dim>577</dim>
					<dim>4096</dim>
				</port>
			</input>
			<output>
				<port id="1" precision="FP32" names="gelu_2">
					<dim>1</dim>
					<dim>577</dim>
					<dim>4096</dim>
				</port>
			</output>
		</layer>
		<layer id="249" name="Transpose_7844_compressed" type="Const" version="opset1">
			<data element_type="f16" shape="1024, 4096" offset="69945582" size="8388608" />
			<output>
				<port id="0" precision="FP16">
					<dim>1024</dim>
					<dim>4096</dim>
				</port>
			</output>
		</layer>
		<layer id="250" name="Transpose_7844" type="Convert" version="opset1">
			<data destination_type="f32" />
			<rt_info>
				<attribute name="decompression" version="0" />
			</rt_info>
			<input>
				<port id="0" precision="FP16">
					<dim>1024</dim>
					<dim>4096</dim>
				</port>
			</input>
			<output>
				<port id="1" precision="FP32">
					<dim>1024</dim>
					<dim>4096</dim>
				</port>
			</output>
		</layer>
		<layer id="251" name="node_MatMul_236" type="MatMul" version="opset1">
			<data transpose_a="false" transpose_b="true" />
			<input>
				<port id="0" precision="FP32">
					<dim>1</dim>
					<dim>577</dim>
					<dim>4096</dim>
				</port>
				<port id="1" precision="FP32">
					<dim>1024</dim>
					<dim>4096</dim>
				</port>
			</input>
			<output>
				<port id="2" precision="FP32" names="val_248">
					<dim>1</dim>
					<dim>577</dim>
					<dim>1024</dim>
				</port>
			</output>
		</layer>
		<layer id="252" name="Constant_12073_compressed" type="Const" version="opset1">
			<data element_type="f16" shape="1, 1, 1024" offset="78334190" size="2048" />
			<output>
				<port id="0" precision="FP16">
					<dim>1</dim>
					<dim>1</dim>
					<dim>1024</dim>
				</port>
			</output>
		</layer>
		<layer id="253" name="Constant_12073" type="Convert" version="opset1">
			<data destination_type="f32" />
			<rt_info>
				<attribute name="decompression" version="0" />
			</rt_info>
			<input>
				<port id="0" precision="FP16">
					<dim>1</dim>
					<dim>1</dim>
					<dim>1024</dim>
				</port>
			</input>
			<output>
				<port id="1" precision="FP32">
					<dim>1</dim>
					<dim>1</dim>
					<dim>1024</dim>
				</port>
			</output>
		</layer>
		<layer id="254" name="node_linear_17" type="Add" version="opset1">
			<data auto_broadcast="numpy" />
			<input>
				<port id="0" precision="FP32">
					<dim>1</dim>
					<dim>577</dim>
					<dim>1024</dim>
				</port>
				<port id="1" precision="FP32">
					<dim>1</dim>
					<dim>1</dim>
					<dim>1024</dim>
				</port>
			</input>
			<output>
				<port id="2" precision="FP32" names="linear_17">
					<dim>1</dim>
					<dim>577</dim>
					<dim>1024</dim>
				</port>
			</output>
		</layer>
		<layer id="255" name="node_add_6" type="Add" version="opset1">
			<data auto_broadcast="numpy" />
			<input>
				<port id="0" precision="FP32">
					<dim>1</dim>
					<dim>577</dim>
					<dim>1024</dim>
				</port>
				<port id="1" precision="FP32">
					<dim>1</dim>
					<dim>577</dim>
					<dim>1024</dim>
				</port>
			</input>
			<output>
				<port id="2" precision="FP32" names="add_6">
					<dim>1</dim>
					<dim>577</dim>
					<dim>1024</dim>
				</port>
			</output>
		</layer>
		<layer id="256" name="Range_305" type="Const" version="opset1">
			<data element_type="i64" shape="1" offset="2758704" size="8" />
			<output>
				<port id="0" precision="I64">
					<dim>1</dim>
				</port>
			</output>
		</layer>
		<layer id="257" name="MVN_306" type="MVN" version="opset6">
			<data eps="9.999999960041972e-13" normalize_variance="true" eps_mode="INSIDE_SQRT" />
			<input>
				<port id="0" precision="FP32">
					<dim>1</dim>
					<dim>577</dim>
					<dim>1024</dim>
				</port>
				<port id="1" precision="I64">
					<dim>1</dim>
				</port>
			</input>
			<output>
				<port id="2" precision="FP32">
					<dim>1</dim>
					<dim>577</dim>
					<dim>1024</dim>
				</port>
			</output>
		</layer>
		<layer id="258" name="Constant_12074_compressed" type="Const" version="opset1">
			<data element_type="f16" shape="1, 1, 1024" offset="78336238" size="2048" />
			<output>
				<port id="0" precision="FP16">
					<dim>1</dim>
					<dim>1</dim>
					<dim>1024</dim>
				</port>
			</output>
		</layer>
		<layer id="259" name="Constant_12074" type="Convert" version="opset1">
			<data destination_type="f32" />
			<rt_info>
				<attribute name="decompression" version="0" />
			</rt_info>
			<input>
				<port id="0" precision="FP16">
					<dim>1</dim>
					<dim>1</dim>
					<dim>1024</dim>
				</port>
			</input>
			<output>
				<port id="1" precision="FP32">
					<dim>1</dim>
					<dim>1</dim>
					<dim>1024</dim>
				</port>
			</output>
		</layer>
		<layer id="260" name="Multiply_313" type="Multiply" version="opset1">
			<data auto_broadcast="numpy" />
			<input>
				<port id="0" precision="FP32">
					<dim>1</dim>
					<dim>577</dim>
					<dim>1024</dim>
				</port>
				<port id="1" precision="FP32">
					<dim>1</dim>
					<dim>1</dim>
					<dim>1024</dim>
				</port>
			</input>
			<output>
				<port id="2" precision="FP32">
					<dim>1</dim>
					<dim>577</dim>
					<dim>1024</dim>
				</port>
			</output>
		</layer>
		<layer id="261" name="Constant_12075_compressed" type="Const" version="opset1">
			<data element_type="f16" shape="1, 1, 1024" offset="78338286" size="2048" />
			<output>
				<port id="0" precision="FP16">
					<dim>1</dim>
					<dim>1</dim>
					<dim>1024</dim>
				</port>
			</output>
		</layer>
		<layer id="262" name="Constant_12075" type="Convert" version="opset1">
			<data destination_type="f32" />
			<rt_info>
				<attribute name="decompression" version="0" />
			</rt_info>
			<input>
				<port id="0" precision="FP16">
					<dim>1</dim>
					<dim>1</dim>
					<dim>1024</dim>
				</port>
			</input>
			<output>
				<port id="1" precision="FP32">
					<dim>1</dim>
					<dim>1</dim>
					<dim>1024</dim>
				</port>
			</output>
		</layer>
		<layer id="263" name="node_layer_norm_6" type="Add" version="opset1">
			<data auto_broadcast="numpy" />
			<input>
				<port id="0" precision="FP32">
					<dim>1</dim>
					<dim>577</dim>
					<dim>1024</dim>
				</port>
				<port id="1" precision="FP32">
					<dim>1</dim>
					<dim>1</dim>
					<dim>1024</dim>
				</port>
			</input>
			<output>
				<port id="2" precision="FP32" names="layer_norm_6">
					<dim>1</dim>
					<dim>577</dim>
					<dim>1024</dim>
				</port>
			</output>
		</layer>
		<layer id="264" name="Transpose_7855_compressed" type="Const" version="opset1">
			<data element_type="f16" shape="1024, 1024" offset="78340334" size="2097152" />
			<output>
				<port id="0" precision="FP16">
					<dim>1024</dim>
					<dim>1024</dim>
				</port>
			</output>
		</layer>
		<layer id="265" name="Transpose_7855" type="Convert" version="opset1">
			<data destination_type="f32" />
			<rt_info>
				<attribute name="decompression" version="0" />
			</rt_info>
			<input>
				<port id="0" precision="FP16">
					<dim>1024</dim>
					<dim>1024</dim>
				</port>
			</input>
			<output>
				<port id="1" precision="FP32">
					<dim>1024</dim>
					<dim>1024</dim>
				</port>
			</output>
		</layer>
		<layer id="266" name="node_MatMul_254" type="MatMul" version="opset1">
			<data transpose_a="false" transpose_b="true" />
			<input>
				<port id="0" precision="FP32">
					<dim>1</dim>
					<dim>577</dim>
					<dim>1024</dim>
				</port>
				<port id="1" precision="FP32">
					<dim>1024</dim>
					<dim>1024</dim>
				</port>
			</input>
			<output>
				<port id="2" precision="FP32" names="val_268">
					<dim>1</dim>
					<dim>577</dim>
					<dim>1024</dim>
				</port>
			</output>
		</layer>
		<layer id="267" name="Constant_12076_compressed" type="Const" version="opset1">
			<data element_type="f16" shape="1, 1, 1024" offset="80437486" size="2048" />
			<output>
				<port id="0" precision="FP16">
					<dim>1</dim>
					<dim>1</dim>
					<dim>1024</dim>
				</port>
			</output>
		</layer>
		<layer id="268" name="Constant_12076" type="Convert" version="opset1">
			<data destination_type="f32" />
			<rt_info>
				<attribute name="decompression" version="0" />
			</rt_info>
			<input>
				<port id="0" precision="FP16">
					<dim>1</dim>
					<dim>1</dim>
					<dim>1024</dim>
				</port>
			</input>
			<output>
				<port id="1" precision="FP32">
					<dim>1</dim>
					<dim>1</dim>
					<dim>1024</dim>
				</port>
			</output>
		</layer>
		<layer id="269" name="node_linear_20" type="Add" version="opset1">
			<data auto_broadcast="numpy" />
			<input>
				<port id="0" precision="FP32">
					<dim>1</dim>
					<dim>577</dim>
					<dim>1024</dim>
				</port>
				<port id="1" precision="FP32">
					<dim>1</dim>
					<dim>1</dim>
					<dim>1024</dim>
				</port>
			</input>
			<output>
				<port id="2" precision="FP32" names="linear_20">
					<dim>1</dim>
					<dim>577</dim>
					<dim>1024</dim>
				</port>
			</output>
		</layer>
		<layer id="270" name="node_view_17" type="Reshape" version="opset1">
			<data special_zero="true" />
			<input>
				<port id="0" precision="FP32">
					<dim>1</dim>
					<dim>577</dim>
					<dim>1024</dim>
				</port>
				<port id="1" precision="I64">
					<dim>4</dim>
				</port>
			</input>
			<output>
				<port id="2" precision="FP32" names="view_17">
					<dim>1</dim>
					<dim>577</dim>
					<dim>16</dim>
					<dim>64</dim>
				</port>
			</output>
		</layer>
		<layer id="271" name="Constant_334" type="Const" version="opset1">
			<data element_type="i64" shape="4" offset="4862040" size="32" />
			<output>
				<port id="0" precision="I64">
					<dim>4</dim>
				</port>
			</output>
		</layer>
		<layer id="272" name="node_transpose_15" type="Transpose" version="opset1">
			<input>
				<port id="0" precision="FP32">
					<dim>1</dim>
					<dim>577</dim>
					<dim>16</dim>
					<dim>64</dim>
				</port>
				<port id="1" precision="I64">
					<dim>4</dim>
				</port>
			</input>
			<output>
				<port id="2" precision="FP32" names="transpose_15">
					<dim>1</dim>
					<dim>16</dim>
					<dim>577</dim>
					<dim>64</dim>
				</port>
			</output>
		</layer>
		<layer id="273" name="Constant_12077" type="Const" version="opset1">
			<data element_type="f32" shape="1, 1, 1, 1" offset="4862072" size="4" />
			<output>
				<port id="0" precision="FP32">
					<dim>1</dim>
					<dim>1</dim>
					<dim>1</dim>
					<dim>1</dim>
				</port>
			</output>
		</layer>
		<layer id="274" name="node_Mul_275" type="Multiply" version="opset1">
			<data auto_broadcast="numpy" />
			<input>
				<port id="0" precision="FP32">
					<dim>1</dim>
					<dim>16</dim>
					<dim>577</dim>
					<dim>64</dim>
				</port>
				<port id="1" precision="FP32">
					<dim>1</dim>
					<dim>1</dim>
					<dim>1</dim>
					<dim>1</dim>
				</port>
			</input>
			<output>
				<port id="2" precision="FP32" names="val_289">
					<dim>1</dim>
					<dim>16</dim>
					<dim>577</dim>
					<dim>64</dim>
				</port>
			</output>
		</layer>
		<layer id="275" name="Transpose_7862_compressed" type="Const" version="opset1">
			<data element_type="f16" shape="1024, 1024" offset="80439534" size="2097152" />
			<output>
				<port id="0" precision="FP16">
					<dim>1024</dim>
					<dim>1024</dim>
				</port>
			</output>
		</layer>
		<layer id="276" name="Transpose_7862" type="Convert" version="opset1">
			<data destination_type="f32" />
			<rt_info>
				<attribute name="decompression" version="0" />
			</rt_info>
			<input>
				<port id="0" precision="FP16">
					<dim>1024</dim>
					<dim>1024</dim>
				</port>
			</input>
			<output>
				<port id="1" precision="FP32">
					<dim>1024</dim>
					<dim>1024</dim>
				</port>
			</output>
		</layer>
		<layer id="277" name="node_MatMul_238" type="MatMul" version="opset1">
			<data transpose_a="false" transpose_b="true" />
			<input>
				<port id="0" precision="FP32">
					<dim>1</dim>
					<dim>577</dim>
					<dim>1024</dim>
				</port>
				<port id="1" precision="FP32">
					<dim>1024</dim>
					<dim>1024</dim>
				</port>
			</input>
			<output>
				<port id="2" precision="FP32" names="val_252">
					<dim>1</dim>
					<dim>577</dim>
					<dim>1024</dim>
				</port>
			</output>
		</layer>
		<layer id="278" name="Constant_12078_compressed" type="Const" version="opset1">
			<data element_type="f16" shape="1, 1, 1024" offset="82536686" size="2048" />
			<output>
				<port id="0" precision="FP16">
					<dim>1</dim>
					<dim>1</dim>
					<dim>1024</dim>
				</port>
			</output>
		</layer>
		<layer id="279" name="Constant_12078" type="Convert" version="opset1">
			<data destination_type="f32" />
			<rt_info>
				<attribute name="decompression" version="0" />
			</rt_info>
			<input>
				<port id="0" precision="FP16">
					<dim>1</dim>
					<dim>1</dim>
					<dim>1024</dim>
				</port>
			</input>
			<output>
				<port id="1" precision="FP32">
					<dim>1</dim>
					<dim>1</dim>
					<dim>1024</dim>
				</port>
			</output>
		</layer>
		<layer id="280" name="node_linear_18" type="Add" version="opset1">
			<data auto_broadcast="numpy" />
			<input>
				<port id="0" precision="FP32">
					<dim>1</dim>
					<dim>577</dim>
					<dim>1024</dim>
				</port>
				<port id="1" precision="FP32">
					<dim>1</dim>
					<dim>1</dim>
					<dim>1024</dim>
				</port>
			</input>
			<output>
				<port id="2" precision="FP32" names="linear_18">
					<dim>1</dim>
					<dim>577</dim>
					<dim>1024</dim>
				</port>
			</output>
		</layer>
		<layer id="281" name="node_view_15" type="Reshape" version="opset1">
			<data special_zero="true" />
			<input>
				<port id="0" precision="FP32">
					<dim>1</dim>
					<dim>577</dim>
					<dim>1024</dim>
				</port>
				<port id="1" precision="I64">
					<dim>4</dim>
				</port>
			</input>
			<output>
				<port id="2" precision="FP32" names="view_15">
					<dim>1</dim>
					<dim>577</dim>
					<dim>16</dim>
					<dim>64</dim>
				</port>
			</output>
		</layer>
		<layer id="282" name="Constant_330" type="Const" version="opset1">
			<data element_type="i64" shape="4" offset="4862040" size="32" />
			<output>
				<port id="0" precision="I64">
					<dim>4</dim>
				</port>
			</output>
		</layer>
		<layer id="283" name="node_transpose_13" type="Transpose" version="opset1">
			<input>
				<port id="0" precision="FP32">
					<dim>1</dim>
					<dim>577</dim>
					<dim>16</dim>
					<dim>64</dim>
				</port>
				<port id="1" precision="I64">
					<dim>4</dim>
				</port>
			</input>
			<output>
				<port id="2" precision="FP32" names="transpose_13">
					<dim>1</dim>
					<dim>16</dim>
					<dim>577</dim>
					<dim>64</dim>
				</port>
			</output>
		</layer>
		<layer id="284" name="node_Reshape_270" type="Reshape" version="opset1">
			<data special_zero="true" />
			<input>
				<port id="0" precision="FP32">
					<dim>1</dim>
					<dim>16</dim>
					<dim>577</dim>
					<dim>64</dim>
				</port>
				<port id="1" precision="I64">
					<dim>3</dim>
				</port>
			</input>
			<output>
				<port id="2" precision="FP32" names="val_284">
					<dim>16</dim>
					<dim>577</dim>
					<dim>64</dim>
				</port>
			</output>
		</layer>
		<layer id="285" name="Constant_338" type="Const" version="opset1">
			<data element_type="i64" shape="3" offset="1576984" size="24" />
			<output>
				<port id="0" precision="I64">
					<dim>3</dim>
				</port>
			</output>
		</layer>
		<layer id="286" name="node_Transpose_271" type="Transpose" version="opset1">
			<input>
				<port id="0" precision="FP32">
					<dim>16</dim>
					<dim>577</dim>
					<dim>64</dim>
				</port>
				<port id="1" precision="I64">
					<dim>3</dim>
				</port>
			</input>
			<output>
				<port id="2" precision="FP32" names="val_285">
					<dim>16</dim>
					<dim>64</dim>
					<dim>577</dim>
				</port>
			</output>
		</layer>
		<layer id="287" name="node_Reshape_273" type="Reshape" version="opset1">
			<data special_zero="true" />
			<input>
				<port id="0" precision="FP32">
					<dim>16</dim>
					<dim>64</dim>
					<dim>577</dim>
				</port>
				<port id="1" precision="I64">
					<dim>4</dim>
				</port>
			</input>
			<output>
				<port id="2" precision="FP32" names="val_287">
					<dim>1</dim>
					<dim>16</dim>
					<dim>64</dim>
					<dim>577</dim>
				</port>
			</output>
		</layer>
		<layer id="288" name="Constant_11022" type="Const" version="opset1">
			<data element_type="i64" shape="4" offset="6961332" size="32" />
			<output>
				<port id="0" precision="I64">
					<dim>4</dim>
				</port>
			</output>
		</layer>
		<layer id="289" name="Transpose_11023" type="Transpose" version="opset1">
			<input>
				<port id="0" precision="FP32">
					<dim>1</dim>
					<dim>16</dim>
					<dim>64</dim>
					<dim>577</dim>
				</port>
				<port id="1" precision="I64">
					<dim>4</dim>
				</port>
			</input>
			<output>
				<port id="2" precision="FP32">
					<dim>1</dim>
					<dim>16</dim>
					<dim>577</dim>
					<dim>64</dim>
				</port>
			</output>
		</layer>
		<layer id="290" name="Transpose_7869_compressed" type="Const" version="opset1">
			<data element_type="f16" shape="1024, 1024" offset="82538734" size="2097152" />
			<output>
				<port id="0" precision="FP16">
					<dim>1024</dim>
					<dim>1024</dim>
				</port>
			</output>
		</layer>
		<layer id="291" name="Transpose_7869" type="Convert" version="opset1">
			<data destination_type="f32" />
			<rt_info>
				<attribute name="decompression" version="0" />
			</rt_info>
			<input>
				<port id="0" precision="FP16">
					<dim>1024</dim>
					<dim>1024</dim>
				</port>
			</input>
			<output>
				<port id="1" precision="FP32">
					<dim>1024</dim>
					<dim>1024</dim>
				</port>
			</output>
		</layer>
		<layer id="292" name="node_MatMul_246" type="MatMul" version="opset1">
			<data transpose_a="false" transpose_b="true" />
			<input>
				<port id="0" precision="FP32">
					<dim>1</dim>
					<dim>577</dim>
					<dim>1024</dim>
				</port>
				<port id="1" precision="FP32">
					<dim>1024</dim>
					<dim>1024</dim>
				</port>
			</input>
			<output>
				<port id="2" precision="FP32" names="val_260">
					<dim>1</dim>
					<dim>577</dim>
					<dim>1024</dim>
				</port>
			</output>
		</layer>
		<layer id="293" name="Constant_12079_compressed" type="Const" version="opset1">
			<data element_type="f16" shape="1, 1, 1024" offset="84635886" size="2048" />
			<output>
				<port id="0" precision="FP16">
					<dim>1</dim>
					<dim>1</dim>
					<dim>1024</dim>
				</port>
			</output>
		</layer>
		<layer id="294" name="Constant_12079" type="Convert" version="opset1">
			<data destination_type="f32" />
			<rt_info>
				<attribute name="decompression" version="0" />
			</rt_info>
			<input>
				<port id="0" precision="FP16">
					<dim>1</dim>
					<dim>1</dim>
					<dim>1024</dim>
				</port>
			</input>
			<output>
				<port id="1" precision="FP32">
					<dim>1</dim>
					<dim>1</dim>
					<dim>1024</dim>
				</port>
			</output>
		</layer>
		<layer id="295" name="node_linear_19" type="Add" version="opset1">
			<data auto_broadcast="numpy" />
			<input>
				<port id="0" precision="FP32">
					<dim>1</dim>
					<dim>577</dim>
					<dim>1024</dim>
				</port>
				<port id="1" precision="FP32">
					<dim>1</dim>
					<dim>1</dim>
					<dim>1024</dim>
				</port>
			</input>
			<output>
				<port id="2" precision="FP32" names="linear_19">
					<dim>1</dim>
					<dim>577</dim>
					<dim>1024</dim>
				</port>
			</output>
		</layer>
		<layer id="296" name="node_view_16" type="Reshape" version="opset1">
			<data special_zero="true" />
			<input>
				<port id="0" precision="FP32">
					<dim>1</dim>
					<dim>577</dim>
					<dim>1024</dim>
				</port>
				<port id="1" precision="I64">
					<dim>4</dim>
				</port>
			</input>
			<output>
				<port id="2" precision="FP32" names="view_16">
					<dim>1</dim>
					<dim>577</dim>
					<dim>16</dim>
					<dim>64</dim>
				</port>
			</output>
		</layer>
		<layer id="297" name="Constant_332" type="Const" version="opset1">
			<data element_type="i64" shape="4" offset="4862040" size="32" />
			<output>
				<port id="0" precision="I64">
					<dim>4</dim>
				</port>
			</output>
		</layer>
		<layer id="298" name="node_transpose_14" type="Transpose" version="opset1">
			<input>
				<port id="0" precision="FP32">
					<dim>1</dim>
					<dim>577</dim>
					<dim>16</dim>
					<dim>64</dim>
				</port>
				<port id="1" precision="I64">
					<dim>4</dim>
				</port>
			</input>
			<output>
				<port id="2" precision="FP32" names="transpose_14">
					<dim>1</dim>
					<dim>16</dim>
					<dim>577</dim>
					<dim>64</dim>
				</port>
			</output>
		</layer>
		<layer id="299" name="Constant_11021_compressed" type="Const" version="opset1">
			<data element_type="f16" shape="" offset="9060564" size="2" />
			<output>
				<port id="0" precision="FP16" />
			</output>
		</layer>
		<layer id="300" name="Constant_11021" type="Convert" version="opset1">
			<data destination_type="f32" />
			<rt_info>
				<attribute name="decompression" version="0" />
			</rt_info>
			<input>
				<port id="0" precision="FP16" />
			</input>
			<output>
				<port id="1" precision="FP32" />
			</output>
		</layer>
		<layer id="301" name="node_scaled_dot_product_attention_3" type="ScaledDotProductAttention" version="opset13">
			<data causal="false" />
			<input>
				<port id="0" precision="FP32">
					<dim>1</dim>
					<dim>16</dim>
					<dim>577</dim>
					<dim>64</dim>
				</port>
				<port id="1" precision="FP32">
					<dim>1</dim>
					<dim>16</dim>
					<dim>577</dim>
					<dim>64</dim>
				</port>
				<port id="2" precision="FP32">
					<dim>1</dim>
					<dim>16</dim>
					<dim>577</dim>
					<dim>64</dim>
				</port>
				<port id="3" precision="FP32" />
				<port id="4" precision="FP32" />
			</input>
			<output>
				<port id="5" precision="FP32" names="scaled_dot_product_attention_3">
					<dim>1</dim>
					<dim>16</dim>
					<dim>577</dim>
					<dim>64</dim>
				</port>
			</output>
		</layer>
		<layer id="302" name="Constant_345" type="Const" version="opset1">
			<data element_type="i64" shape="4" offset="4862040" size="32" />
			<output>
				<port id="0" precision="I64">
					<dim>4</dim>
				</port>
			</output>
		</layer>
		<layer id="303" name="node_transpose_16" type="Transpose" version="opset1">
			<input>
				<port id="0" precision="FP32">
					<dim>1</dim>
					<dim>16</dim>
					<dim>577</dim>
					<dim>64</dim>
				</port>
				<port id="1" precision="I64">
					<dim>4</dim>
				</port>
			</input>
			<output>
				<port id="2" precision="FP32" names="transpose_16">
					<dim>1</dim>
					<dim>577</dim>
					<dim>16</dim>
					<dim>64</dim>
				</port>
			</output>
		</layer>
		<layer id="304" name="node_view_18" type="Reshape" version="opset1">
			<data special_zero="true" />
			<input>
				<port id="0" precision="FP32">
					<dim>1</dim>
					<dim>577</dim>
					<dim>16</dim>
					<dim>64</dim>
				</port>
				<port id="1" precision="I64">
					<dim>3</dim>
				</port>
			</input>
			<output>
				<port id="2" precision="FP32" names="view_18">
					<dim>1</dim>
					<dim>577</dim>
					<dim>1024</dim>
				</port>
			</output>
		</layer>
		<layer id="305" name="Transpose_7874_compressed" type="Const" version="opset1">
			<data element_type="f16" shape="1024, 1024" offset="84637934" size="2097152" />
			<output>
				<port id="0" precision="FP16">
					<dim>1024</dim>
					<dim>1024</dim>
				</port>
			</output>
		</layer>
		<layer id="306" name="Transpose_7874" type="Convert" version="opset1">
			<data destination_type="f32" />
			<rt_info>
				<attribute name="decompression" version="0" />
			</rt_info>
			<input>
				<port id="0" precision="FP16">
					<dim>1024</dim>
					<dim>1024</dim>
				</port>
			</input>
			<output>
				<port id="1" precision="FP32">
					<dim>1024</dim>
					<dim>1024</dim>
				</port>
			</output>
		</layer>
		<layer id="307" name="node_MatMul_287" type="MatMul" version="opset1">
			<data transpose_a="false" transpose_b="true" />
			<input>
				<port id="0" precision="FP32">
					<dim>1</dim>
					<dim>577</dim>
					<dim>1024</dim>
				</port>
				<port id="1" precision="FP32">
					<dim>1024</dim>
					<dim>1024</dim>
				</port>
			</input>
			<output>
				<port id="2" precision="FP32" names="val_301">
					<dim>1</dim>
					<dim>577</dim>
					<dim>1024</dim>
				</port>
			</output>
		</layer>
		<layer id="308" name="Constant_12080_compressed" type="Const" version="opset1">
			<data element_type="f16" shape="1, 1, 1024" offset="86735086" size="2048" />
			<output>
				<port id="0" precision="FP16">
					<dim>1</dim>
					<dim>1</dim>
					<dim>1024</dim>
				</port>
			</output>
		</layer>
		<layer id="309" name="Constant_12080" type="Convert" version="opset1">
			<data destination_type="f32" />
			<rt_info>
				<attribute name="decompression" version="0" />
			</rt_info>
			<input>
				<port id="0" precision="FP16">
					<dim>1</dim>
					<dim>1</dim>
					<dim>1024</dim>
				</port>
			</input>
			<output>
				<port id="1" precision="FP32">
					<dim>1</dim>
					<dim>1</dim>
					<dim>1024</dim>
				</port>
			</output>
		</layer>
		<layer id="310" name="node_linear_21" type="Add" version="opset1">
			<data auto_broadcast="numpy" />
			<input>
				<port id="0" precision="FP32">
					<dim>1</dim>
					<dim>577</dim>
					<dim>1024</dim>
				</port>
				<port id="1" precision="FP32">
					<dim>1</dim>
					<dim>1</dim>
					<dim>1024</dim>
				</port>
			</input>
			<output>
				<port id="2" precision="FP32" names="linear_21">
					<dim>1</dim>
					<dim>577</dim>
					<dim>1024</dim>
				</port>
			</output>
		</layer>
		<layer id="311" name="node_add_7" type="Add" version="opset1">
			<data auto_broadcast="numpy" />
			<input>
				<port id="0" precision="FP32">
					<dim>1</dim>
					<dim>577</dim>
					<dim>1024</dim>
				</port>
				<port id="1" precision="FP32">
					<dim>1</dim>
					<dim>577</dim>
					<dim>1024</dim>
				</port>
			</input>
			<output>
				<port id="2" precision="FP32" names="add_7">
					<dim>1</dim>
					<dim>577</dim>
					<dim>1024</dim>
				</port>
			</output>
		</layer>
		<layer id="312" name="Range_358" type="Const" version="opset1">
			<data element_type="i64" shape="1" offset="2758704" size="8" />
			<output>
				<port id="0" precision="I64">
					<dim>1</dim>
				</port>
			</output>
		</layer>
		<layer id="313" name="MVN_359" type="MVN" version="opset6">
			<data eps="9.999999960041972e-13" normalize_variance="true" eps_mode="INSIDE_SQRT" />
			<input>
				<port id="0" precision="FP32">
					<dim>1</dim>
					<dim>577</dim>
					<dim>1024</dim>
				</port>
				<port id="1" precision="I64">
					<dim>1</dim>
				</port>
			</input>
			<output>
				<port id="2" precision="FP32">
					<dim>1</dim>
					<dim>577</dim>
					<dim>1024</dim>
				</port>
			</output>
		</layer>
		<layer id="314" name="Constant_12081_compressed" type="Const" version="opset1">
			<data element_type="f16" shape="1, 1, 1024" offset="86737134" size="2048" />
			<output>
				<port id="0" precision="FP16">
					<dim>1</dim>
					<dim>1</dim>
					<dim>1024</dim>
				</port>
			</output>
		</layer>
		<layer id="315" name="Constant_12081" type="Convert" version="opset1">
			<data destination_type="f32" />
			<rt_info>
				<attribute name="decompression" version="0" />
			</rt_info>
			<input>
				<port id="0" precision="FP16">
					<dim>1</dim>
					<dim>1</dim>
					<dim>1024</dim>
				</port>
			</input>
			<output>
				<port id="1" precision="FP32">
					<dim>1</dim>
					<dim>1</dim>
					<dim>1024</dim>
				</port>
			</output>
		</layer>
		<layer id="316" name="Multiply_366" type="Multiply" version="opset1">
			<data auto_broadcast="numpy" />
			<input>
				<port id="0" precision="FP32">
					<dim>1</dim>
					<dim>577</dim>
					<dim>1024</dim>
				</port>
				<port id="1" precision="FP32">
					<dim>1</dim>
					<dim>1</dim>
					<dim>1024</dim>
				</port>
			</input>
			<output>
				<port id="2" precision="FP32">
					<dim>1</dim>
					<dim>577</dim>
					<dim>1024</dim>
				</port>
			</output>
		</layer>
		<layer id="317" name="Constant_12082_compressed" type="Const" version="opset1">
			<data element_type="f16" shape="1, 1, 1024" offset="86739182" size="2048" />
			<output>
				<port id="0" precision="FP16">
					<dim>1</dim>
					<dim>1</dim>
					<dim>1024</dim>
				</port>
			</output>
		</layer>
		<layer id="318" name="Constant_12082" type="Convert" version="opset1">
			<data destination_type="f32" />
			<rt_info>
				<attribute name="decompression" version="0" />
			</rt_info>
			<input>
				<port id="0" precision="FP16">
					<dim>1</dim>
					<dim>1</dim>
					<dim>1024</dim>
				</port>
			</input>
			<output>
				<port id="1" precision="FP32">
					<dim>1</dim>
					<dim>1</dim>
					<dim>1024</dim>
				</port>
			</output>
		</layer>
		<layer id="319" name="node_layer_norm_7" type="Add" version="opset1">
			<data auto_broadcast="numpy" />
			<input>
				<port id="0" precision="FP32">
					<dim>1</dim>
					<dim>577</dim>
					<dim>1024</dim>
				</port>
				<port id="1" precision="FP32">
					<dim>1</dim>
					<dim>1</dim>
					<dim>1024</dim>
				</port>
			</input>
			<output>
				<port id="2" precision="FP32" names="layer_norm_7">
					<dim>1</dim>
					<dim>577</dim>
					<dim>1024</dim>
				</port>
			</output>
		</layer>
		<layer id="320" name="Transpose_7885_compressed" type="Const" version="opset1">
			<data element_type="f16" shape="4096, 1024" offset="86741230" size="8388608" />
			<output>
				<port id="0" precision="FP16">
					<dim>4096</dim>
					<dim>1024</dim>
				</port>
			</output>
		</layer>
		<layer id="321" name="Transpose_7885" type="Convert" version="opset1">
			<data destination_type="f32" />
			<rt_info>
				<attribute name="decompression" version="0" />
			</rt_info>
			<input>
				<port id="0" precision="FP16">
					<dim>4096</dim>
					<dim>1024</dim>
				</port>
			</input>
			<output>
				<port id="1" precision="FP32">
					<dim>4096</dim>
					<dim>1024</dim>
				</port>
			</output>
		</layer>
		<layer id="322" name="node_MatMul_289" type="MatMul" version="opset1">
			<data transpose_a="false" transpose_b="true" />
			<input>
				<port id="0" precision="FP32">
					<dim>1</dim>
					<dim>577</dim>
					<dim>1024</dim>
				</port>
				<port id="1" precision="FP32">
					<dim>4096</dim>
					<dim>1024</dim>
				</port>
			</input>
			<output>
				<port id="2" precision="FP32" names="val_305">
					<dim>1</dim>
					<dim>577</dim>
					<dim>4096</dim>
				</port>
			</output>
		</layer>
		<layer id="323" name="Constant_12083_compressed" type="Const" version="opset1">
			<data element_type="f16" shape="1, 1, 4096" offset="95129838" size="8192" />
			<output>
				<port id="0" precision="FP16">
					<dim>1</dim>
					<dim>1</dim>
					<dim>4096</dim>
				</port>
			</output>
		</layer>
		<layer id="324" name="Constant_12083" type="Convert" version="opset1">
			<data destination_type="f32" />
			<rt_info>
				<attribute name="decompression" version="0" />
			</rt_info>
			<input>
				<port id="0" precision="FP16">
					<dim>1</dim>
					<dim>1</dim>
					<dim>4096</dim>
				</port>
			</input>
			<output>
				<port id="1" precision="FP32">
					<dim>1</dim>
					<dim>1</dim>
					<dim>4096</dim>
				</port>
			</output>
		</layer>
		<layer id="325" name="node_linear_22" type="Add" version="opset1">
			<data auto_broadcast="numpy" />
			<input>
				<port id="0" precision="FP32">
					<dim>1</dim>
					<dim>577</dim>
					<dim>4096</dim>
				</port>
				<port id="1" precision="FP32">
					<dim>1</dim>
					<dim>1</dim>
					<dim>4096</dim>
				</port>
			</input>
			<output>
				<port id="2" precision="FP32" names="linear_22">
					<dim>1</dim>
					<dim>577</dim>
					<dim>4096</dim>
				</port>
			</output>
		</layer>
		<layer id="326" name="node_gelu_3" type="Gelu" version="opset7">
			<data approximation_mode="ERF" />
			<input>
				<port id="0" precision="FP32">
					<dim>1</dim>
					<dim>577</dim>
					<dim>4096</dim>
				</port>
			</input>
			<output>
				<port id="1" precision="FP32" names="gelu_3">
					<dim>1</dim>
					<dim>577</dim>
					<dim>4096</dim>
				</port>
			</output>
		</layer>
		<layer id="327" name="Transpose_7890_compressed" type="Const" version="opset1">
			<data element_type="f16" shape="1024, 4096" offset="95138030" size="8388608" />
			<output>
				<port id="0" precision="FP16">
					<dim>1024</dim>
					<dim>4096</dim>
				</port>
			</output>
		</layer>
		<layer id="328" name="Transpose_7890" type="Convert" version="opset1">
			<data destination_type="f32" />
			<rt_info>
				<attribute name="decompression" version="0" />
			</rt_info>
			<input>
				<port id="0" precision="FP16">
					<dim>1024</dim>
					<dim>4096</dim>
				</port>
			</input>
			<output>
				<port id="1" precision="FP32">
					<dim>1024</dim>
					<dim>4096</dim>
				</port>
			</output>
		</layer>
		<layer id="329" name="node_MatMul_298" type="MatMul" version="opset1">
			<data transpose_a="false" transpose_b="true" />
			<input>
				<port id="0" precision="FP32">
					<dim>1</dim>
					<dim>577</dim>
					<dim>4096</dim>
				</port>
				<port id="1" precision="FP32">
					<dim>1024</dim>
					<dim>4096</dim>
				</port>
			</input>
			<output>
				<port id="2" precision="FP32" names="val_314">
					<dim>1</dim>
					<dim>577</dim>
					<dim>1024</dim>
				</port>
			</output>
		</layer>
		<layer id="330" name="Constant_12084_compressed" type="Const" version="opset1">
			<data element_type="f16" shape="1, 1, 1024" offset="103526638" size="2048" />
			<output>
				<port id="0" precision="FP16">
					<dim>1</dim>
					<dim>1</dim>
					<dim>1024</dim>
				</port>
			</output>
		</layer>
		<layer id="331" name="Constant_12084" type="Convert" version="opset1">
			<data destination_type="f32" />
			<rt_info>
				<attribute name="decompression" version="0" />
			</rt_info>
			<input>
				<port id="0" precision="FP16">
					<dim>1</dim>
					<dim>1</dim>
					<dim>1024</dim>
				</port>
			</input>
			<output>
				<port id="1" precision="FP32">
					<dim>1</dim>
					<dim>1</dim>
					<dim>1024</dim>
				</port>
			</output>
		</layer>
		<layer id="332" name="node_linear_23" type="Add" version="opset1">
			<data auto_broadcast="numpy" />
			<input>
				<port id="0" precision="FP32">
					<dim>1</dim>
					<dim>577</dim>
					<dim>1024</dim>
				</port>
				<port id="1" precision="FP32">
					<dim>1</dim>
					<dim>1</dim>
					<dim>1024</dim>
				</port>
			</input>
			<output>
				<port id="2" precision="FP32" names="linear_23">
					<dim>1</dim>
					<dim>577</dim>
					<dim>1024</dim>
				</port>
			</output>
		</layer>
		<layer id="333" name="node_add_8" type="Add" version="opset1">
			<data auto_broadcast="numpy" />
			<input>
				<port id="0" precision="FP32">
					<dim>1</dim>
					<dim>577</dim>
					<dim>1024</dim>
				</port>
				<port id="1" precision="FP32">
					<dim>1</dim>
					<dim>577</dim>
					<dim>1024</dim>
				</port>
			</input>
			<output>
				<port id="2" precision="FP32" names="add_8">
					<dim>1</dim>
					<dim>577</dim>
					<dim>1024</dim>
				</port>
			</output>
		</layer>
		<layer id="334" name="Range_387" type="Const" version="opset1">
			<data element_type="i64" shape="1" offset="2758704" size="8" />
			<output>
				<port id="0" precision="I64">
					<dim>1</dim>
				</port>
			</output>
		</layer>
		<layer id="335" name="MVN_388" type="MVN" version="opset6">
			<data eps="9.999999960041972e-13" normalize_variance="true" eps_mode="INSIDE_SQRT" />
			<input>
				<port id="0" precision="FP32">
					<dim>1</dim>
					<dim>577</dim>
					<dim>1024</dim>
				</port>
				<port id="1" precision="I64">
					<dim>1</dim>
				</port>
			</input>
			<output>
				<port id="2" precision="FP32">
					<dim>1</dim>
					<dim>577</dim>
					<dim>1024</dim>
				</port>
			</output>
		</layer>
		<layer id="336" name="Constant_12085_compressed" type="Const" version="opset1">
			<data element_type="f16" shape="1, 1, 1024" offset="103528686" size="2048" />
			<output>
				<port id="0" precision="FP16">
					<dim>1</dim>
					<dim>1</dim>
					<dim>1024</dim>
				</port>
			</output>
		</layer>
		<layer id="337" name="Constant_12085" type="Convert" version="opset1">
			<data destination_type="f32" />
			<rt_info>
				<attribute name="decompression" version="0" />
			</rt_info>
			<input>
				<port id="0" precision="FP16">
					<dim>1</dim>
					<dim>1</dim>
					<dim>1024</dim>
				</port>
			</input>
			<output>
				<port id="1" precision="FP32">
					<dim>1</dim>
					<dim>1</dim>
					<dim>1024</dim>
				</port>
			</output>
		</layer>
		<layer id="338" name="Multiply_395" type="Multiply" version="opset1">
			<data auto_broadcast="numpy" />
			<input>
				<port id="0" precision="FP32">
					<dim>1</dim>
					<dim>577</dim>
					<dim>1024</dim>
				</port>
				<port id="1" precision="FP32">
					<dim>1</dim>
					<dim>1</dim>
					<dim>1024</dim>
				</port>
			</input>
			<output>
				<port id="2" precision="FP32">
					<dim>1</dim>
					<dim>577</dim>
					<dim>1024</dim>
				</port>
			</output>
		</layer>
		<layer id="339" name="Constant_12086_compressed" type="Const" version="opset1">
			<data element_type="f16" shape="1, 1, 1024" offset="103530734" size="2048" />
			<output>
				<port id="0" precision="FP16">
					<dim>1</dim>
					<dim>1</dim>
					<dim>1024</dim>
				</port>
			</output>
		</layer>
		<layer id="340" name="Constant_12086" type="Convert" version="opset1">
			<data destination_type="f32" />
			<rt_info>
				<attribute name="decompression" version="0" />
			</rt_info>
			<input>
				<port id="0" precision="FP16">
					<dim>1</dim>
					<dim>1</dim>
					<dim>1024</dim>
				</port>
			</input>
			<output>
				<port id="1" precision="FP32">
					<dim>1</dim>
					<dim>1</dim>
					<dim>1024</dim>
				</port>
			</output>
		</layer>
		<layer id="341" name="node_layer_norm_8" type="Add" version="opset1">
			<data auto_broadcast="numpy" />
			<input>
				<port id="0" precision="FP32">
					<dim>1</dim>
					<dim>577</dim>
					<dim>1024</dim>
				</port>
				<port id="1" precision="FP32">
					<dim>1</dim>
					<dim>1</dim>
					<dim>1024</dim>
				</port>
			</input>
			<output>
				<port id="2" precision="FP32" names="layer_norm_8">
					<dim>1</dim>
					<dim>577</dim>
					<dim>1024</dim>
				</port>
			</output>
		</layer>
		<layer id="342" name="Transpose_7901_compressed" type="Const" version="opset1">
			<data element_type="f16" shape="1024, 1024" offset="103532782" size="2097152" />
			<output>
				<port id="0" precision="FP16">
					<dim>1024</dim>
					<dim>1024</dim>
				</port>
			</output>
		</layer>
		<layer id="343" name="Transpose_7901" type="Convert" version="opset1">
			<data destination_type="f32" />
			<rt_info>
				<attribute name="decompression" version="0" />
			</rt_info>
			<input>
				<port id="0" precision="FP16">
					<dim>1024</dim>
					<dim>1024</dim>
				</port>
			</input>
			<output>
				<port id="1" precision="FP32">
					<dim>1024</dim>
					<dim>1024</dim>
				</port>
			</output>
		</layer>
		<layer id="344" name="node_MatMul_316" type="MatMul" version="opset1">
			<data transpose_a="false" transpose_b="true" />
			<input>
				<port id="0" precision="FP32">
					<dim>1</dim>
					<dim>577</dim>
					<dim>1024</dim>
				</port>
				<port id="1" precision="FP32">
					<dim>1024</dim>
					<dim>1024</dim>
				</port>
			</input>
			<output>
				<port id="2" precision="FP32" names="val_334">
					<dim>1</dim>
					<dim>577</dim>
					<dim>1024</dim>
				</port>
			</output>
		</layer>
		<layer id="345" name="Constant_12087_compressed" type="Const" version="opset1">
			<data element_type="f16" shape="1, 1, 1024" offset="105629934" size="2048" />
			<output>
				<port id="0" precision="FP16">
					<dim>1</dim>
					<dim>1</dim>
					<dim>1024</dim>
				</port>
			</output>
		</layer>
		<layer id="346" name="Constant_12087" type="Convert" version="opset1">
			<data destination_type="f32" />
			<rt_info>
				<attribute name="decompression" version="0" />
			</rt_info>
			<input>
				<port id="0" precision="FP16">
					<dim>1</dim>
					<dim>1</dim>
					<dim>1024</dim>
				</port>
			</input>
			<output>
				<port id="1" precision="FP32">
					<dim>1</dim>
					<dim>1</dim>
					<dim>1024</dim>
				</port>
			</output>
		</layer>
		<layer id="347" name="node_linear_26" type="Add" version="opset1">
			<data auto_broadcast="numpy" />
			<input>
				<port id="0" precision="FP32">
					<dim>1</dim>
					<dim>577</dim>
					<dim>1024</dim>
				</port>
				<port id="1" precision="FP32">
					<dim>1</dim>
					<dim>1</dim>
					<dim>1024</dim>
				</port>
			</input>
			<output>
				<port id="2" precision="FP32" names="linear_26">
					<dim>1</dim>
					<dim>577</dim>
					<dim>1024</dim>
				</port>
			</output>
		</layer>
		<layer id="348" name="node_view_21" type="Reshape" version="opset1">
			<data special_zero="true" />
			<input>
				<port id="0" precision="FP32">
					<dim>1</dim>
					<dim>577</dim>
					<dim>1024</dim>
				</port>
				<port id="1" precision="I64">
					<dim>4</dim>
				</port>
			</input>
			<output>
				<port id="2" precision="FP32" names="view_21">
					<dim>1</dim>
					<dim>577</dim>
					<dim>16</dim>
					<dim>64</dim>
				</port>
			</output>
		</layer>
		<layer id="349" name="Constant_416" type="Const" version="opset1">
			<data element_type="i64" shape="4" offset="4862040" size="32" />
			<output>
				<port id="0" precision="I64">
					<dim>4</dim>
				</port>
			</output>
		</layer>
		<layer id="350" name="node_transpose_19" type="Transpose" version="opset1">
			<input>
				<port id="0" precision="FP32">
					<dim>1</dim>
					<dim>577</dim>
					<dim>16</dim>
					<dim>64</dim>
				</port>
				<port id="1" precision="I64">
					<dim>4</dim>
				</port>
			</input>
			<output>
				<port id="2" precision="FP32" names="transpose_19">
					<dim>1</dim>
					<dim>16</dim>
					<dim>577</dim>
					<dim>64</dim>
				</port>
			</output>
		</layer>
		<layer id="351" name="Constant_12088" type="Const" version="opset1">
			<data element_type="f32" shape="1, 1, 1, 1" offset="4862072" size="4" />
			<output>
				<port id="0" precision="FP32">
					<dim>1</dim>
					<dim>1</dim>
					<dim>1</dim>
					<dim>1</dim>
				</port>
			</output>
		</layer>
		<layer id="352" name="node_Mul_337" type="Multiply" version="opset1">
			<data auto_broadcast="numpy" />
			<input>
				<port id="0" precision="FP32">
					<dim>1</dim>
					<dim>16</dim>
					<dim>577</dim>
					<dim>64</dim>
				</port>
				<port id="1" precision="FP32">
					<dim>1</dim>
					<dim>1</dim>
					<dim>1</dim>
					<dim>1</dim>
				</port>
			</input>
			<output>
				<port id="2" precision="FP32" names="val_355">
					<dim>1</dim>
					<dim>16</dim>
					<dim>577</dim>
					<dim>64</dim>
				</port>
			</output>
		</layer>
		<layer id="353" name="Transpose_7908_compressed" type="Const" version="opset1">
			<data element_type="f16" shape="1024, 1024" offset="105631982" size="2097152" />
			<output>
				<port id="0" precision="FP16">
					<dim>1024</dim>
					<dim>1024</dim>
				</port>
			</output>
		</layer>
		<layer id="354" name="Transpose_7908" type="Convert" version="opset1">
			<data destination_type="f32" />
			<rt_info>
				<attribute name="decompression" version="0" />
			</rt_info>
			<input>
				<port id="0" precision="FP16">
					<dim>1024</dim>
					<dim>1024</dim>
				</port>
			</input>
			<output>
				<port id="1" precision="FP32">
					<dim>1024</dim>
					<dim>1024</dim>
				</port>
			</output>
		</layer>
		<layer id="355" name="node_MatMul_300" type="MatMul" version="opset1">
			<data transpose_a="false" transpose_b="true" />
			<input>
				<port id="0" precision="FP32">
					<dim>1</dim>
					<dim>577</dim>
					<dim>1024</dim>
				</port>
				<port id="1" precision="FP32">
					<dim>1024</dim>
					<dim>1024</dim>
				</port>
			</input>
			<output>
				<port id="2" precision="FP32" names="val_318">
					<dim>1</dim>
					<dim>577</dim>
					<dim>1024</dim>
				</port>
			</output>
		</layer>
		<layer id="356" name="Constant_12089_compressed" type="Const" version="opset1">
			<data element_type="f16" shape="1, 1, 1024" offset="107729134" size="2048" />
			<output>
				<port id="0" precision="FP16">
					<dim>1</dim>
					<dim>1</dim>
					<dim>1024</dim>
				</port>
			</output>
		</layer>
		<layer id="357" name="Constant_12089" type="Convert" version="opset1">
			<data destination_type="f32" />
			<rt_info>
				<attribute name="decompression" version="0" />
			</rt_info>
			<input>
				<port id="0" precision="FP16">
					<dim>1</dim>
					<dim>1</dim>
					<dim>1024</dim>
				</port>
			</input>
			<output>
				<port id="1" precision="FP32">
					<dim>1</dim>
					<dim>1</dim>
					<dim>1024</dim>
				</port>
			</output>
		</layer>
		<layer id="358" name="node_linear_24" type="Add" version="opset1">
			<data auto_broadcast="numpy" />
			<input>
				<port id="0" precision="FP32">
					<dim>1</dim>
					<dim>577</dim>
					<dim>1024</dim>
				</port>
				<port id="1" precision="FP32">
					<dim>1</dim>
					<dim>1</dim>
					<dim>1024</dim>
				</port>
			</input>
			<output>
				<port id="2" precision="FP32" names="linear_24">
					<dim>1</dim>
					<dim>577</dim>
					<dim>1024</dim>
				</port>
			</output>
		</layer>
		<layer id="359" name="node_view_19" type="Reshape" version="opset1">
			<data special_zero="true" />
			<input>
				<port id="0" precision="FP32">
					<dim>1</dim>
					<dim>577</dim>
					<dim>1024</dim>
				</port>
				<port id="1" precision="I64">
					<dim>4</dim>
				</port>
			</input>
			<output>
				<port id="2" precision="FP32" names="view_19">
					<dim>1</dim>
					<dim>577</dim>
					<dim>16</dim>
					<dim>64</dim>
				</port>
			</output>
		</layer>
		<layer id="360" name="Constant_412" type="Const" version="opset1">
			<data element_type="i64" shape="4" offset="4862040" size="32" />
			<output>
				<port id="0" precision="I64">
					<dim>4</dim>
				</port>
			</output>
		</layer>
		<layer id="361" name="node_transpose_17" type="Transpose" version="opset1">
			<input>
				<port id="0" precision="FP32">
					<dim>1</dim>
					<dim>577</dim>
					<dim>16</dim>
					<dim>64</dim>
				</port>
				<port id="1" precision="I64">
					<dim>4</dim>
				</port>
			</input>
			<output>
				<port id="2" precision="FP32" names="transpose_17">
					<dim>1</dim>
					<dim>16</dim>
					<dim>577</dim>
					<dim>64</dim>
				</port>
			</output>
		</layer>
		<layer id="362" name="node_Reshape_332" type="Reshape" version="opset1">
			<data special_zero="true" />
			<input>
				<port id="0" precision="FP32">
					<dim>1</dim>
					<dim>16</dim>
					<dim>577</dim>
					<dim>64</dim>
				</port>
				<port id="1" precision="I64">
					<dim>3</dim>
				</port>
			</input>
			<output>
				<port id="2" precision="FP32" names="val_350">
					<dim>16</dim>
					<dim>577</dim>
					<dim>64</dim>
				</port>
			</output>
		</layer>
		<layer id="363" name="Constant_420" type="Const" version="opset1">
			<data element_type="i64" shape="3" offset="1576984" size="24" />
			<output>
				<port id="0" precision="I64">
					<dim>3</dim>
				</port>
			</output>
		</layer>
		<layer id="364" name="node_Transpose_333" type="Transpose" version="opset1">
			<input>
				<port id="0" precision="FP32">
					<dim>16</dim>
					<dim>577</dim>
					<dim>64</dim>
				</port>
				<port id="1" precision="I64">
					<dim>3</dim>
				</port>
			</input>
			<output>
				<port id="2" precision="FP32" names="val_351">
					<dim>16</dim>
					<dim>64</dim>
					<dim>577</dim>
				</port>
			</output>
		</layer>
		<layer id="365" name="node_Reshape_335" type="Reshape" version="opset1">
			<data special_zero="true" />
			<input>
				<port id="0" precision="FP32">
					<dim>16</dim>
					<dim>64</dim>
					<dim>577</dim>
				</port>
				<port id="1" precision="I64">
					<dim>4</dim>
				</port>
			</input>
			<output>
				<port id="2" precision="FP32" names="val_353">
					<dim>1</dim>
					<dim>16</dim>
					<dim>64</dim>
					<dim>577</dim>
				</port>
			</output>
		</layer>
		<layer id="366" name="Constant_11040" type="Const" version="opset1">
			<data element_type="i64" shape="4" offset="6961332" size="32" />
			<output>
				<port id="0" precision="I64">
					<dim>4</dim>
				</port>
			</output>
		</layer>
		<layer id="367" name="Transpose_11041" type="Transpose" version="opset1">
			<input>
				<port id="0" precision="FP32">
					<dim>1</dim>
					<dim>16</dim>
					<dim>64</dim>
					<dim>577</dim>
				</port>
				<port id="1" precision="I64">
					<dim>4</dim>
				</port>
			</input>
			<output>
				<port id="2" precision="FP32">
					<dim>1</dim>
					<dim>16</dim>
					<dim>577</dim>
					<dim>64</dim>
				</port>
			</output>
		</layer>
		<layer id="368" name="Transpose_7915_compressed" type="Const" version="opset1">
			<data element_type="f16" shape="1024, 1024" offset="107731182" size="2097152" />
			<output>
				<port id="0" precision="FP16">
					<dim>1024</dim>
					<dim>1024</dim>
				</port>
			</output>
		</layer>
		<layer id="369" name="Transpose_7915" type="Convert" version="opset1">
			<data destination_type="f32" />
			<rt_info>
				<attribute name="decompression" version="0" />
			</rt_info>
			<input>
				<port id="0" precision="FP16">
					<dim>1024</dim>
					<dim>1024</dim>
				</port>
			</input>
			<output>
				<port id="1" precision="FP32">
					<dim>1024</dim>
					<dim>1024</dim>
				</port>
			</output>
		</layer>
…
		<edge from-layer="1549" from-port="0" to-layer="1550" to-port="0" />
		<edge from-layer="1550" from-port="1" to-layer="1551" to-port="1" />
		<edge from-layer="1551" from-port="2" to-layer="1552" to-port="0" />
		<edge from-layer="1552" from-port="2" to-layer="1574" to-port="1" />
		<edge from-layer="1552" from-port="2" to-layer="1554" to-port="0" />
		<edge from-layer="1553" from-port="0" to-layer="1554" to-port="1" />
		<edge from-layer="1554" from-port="2" to-layer="1557" to-port="0" />
		<edge from-layer="1555" from-port="0" to-layer="1556" to-port="0" />
		<edge from-layer="1556" from-port="1" to-layer="1557" to-port="1" />
		<edge from-layer="1557" from-port="2" to-layer="1560" to-port="0" />
		<edge from-layer="1558" from-port="0" to-layer="1559" to-port="0" />
		<edge from-layer="1559" from-port="1" to-layer="1560" to-port="1" />
		<edge from-layer="1560" from-port="2" to-layer="1563" to-port="0" />
		<edge from-layer="1561" from-port="0" to-layer="1562" to-port="0" />
		<edge from-layer="1562" from-port="1" to-layer="1563" to-port="1" />
		<edge from-layer="1563" from-port="2" to-layer="1566" to-port="0" />
		<edge from-layer="1564" from-port="0" to-layer="1565" to-port="0" />
		<edge from-layer="1565" from-port="1" to-layer="1566" to-port="1" />
		<edge from-layer="1566" from-port="2" to-layer="1567" to-port="0" />
		<edge from-layer="1567" from-port="1" to-layer="1570" to-port="0" />
		<edge from-layer="1568" from-port="0" to-layer="1569" to-port="0" />
		<edge from-layer="1569" from-port="1" to-layer="1570" to-port="1" />
		<edge from-layer="1570" from-port="2" to-layer="1573" to-port="0" />
		<edge from-layer="1571" from-port="0" to-layer="1572" to-port="0" />
		<edge from-layer="1572" from-port="1" to-layer="1573" to-port="1" />
		<edge from-layer="1573" from-port="2" to-layer="1574" to-port="0" />
		<edge from-layer="1574" from-port="2" to-layer="1630" to-port="1" />
		<edge from-layer="1574" from-port="2" to-layer="1576" to-port="0" />
		<edge from-layer="1575" from-port="0" to-layer="1576" to-port="1" />
		<edge from-layer="1576" from-port="2" to-layer="1579" to-port="0" />
		<edge from-layer="1577" from-port="0" to-layer="1578" to-port="0" />
		<edge from-layer="1578" from-port="1" to-layer="1579" to-port="1" />
		<edge from-layer="1579" from-port="2" to-layer="1582" to-port="0" />
		<edge from-layer="1580" from-port="0" to-layer="1581" to-port="0" />
		<edge from-layer="1581" from-port="1" to-layer="1582" to-port="1" />
		<edge from-layer="1582" from-port="2" to-layer="1596" to-port="0" />
		<edge from-layer="1582" from-port="2" to-layer="1585" to-port="0" />
		<edge from-layer="1582" from-port="2" to-layer="1611" to-port="0" />
		<edge from-layer="1583" from-port="0" to-layer="1584" to-port="0" />
		<edge from-layer="1584" from-port="1" to-layer="1585" to-port="1" />
		<edge from-layer="1585" from-port="2" to-layer="1588" to-port="0" />
		<edge from-layer="1586" from-port="0" to-layer="1587" to-port="0" />
		<edge from-layer="1587" from-port="1" to-layer="1588" to-port="1" />
		<edge from-layer="1588" from-port="2" to-layer="1589" to-port="0" />
		<edge from-layer="1589" from-port="2" to-layer="1591" to-port="0" />
		<edge from-layer="1590" from-port="0" to-layer="1591" to-port="1" />
		<edge from-layer="1591" from-port="2" to-layer="1593" to-port="0" />
		<edge from-layer="1592" from-port="0" to-layer="1593" to-port="1" />
		<edge from-layer="1593" from-port="2" to-layer="1620" to-port="0" />
		<edge from-layer="1594" from-port="0" to-layer="1595" to-port="0" />
		<edge from-layer="1595" from-port="1" to-layer="1596" to-port="1" />
		<edge from-layer="1596" from-port="2" to-layer="1599" to-port="0" />
		<edge from-layer="1597" from-port="0" to-layer="1598" to-port="0" />
		<edge from-layer="1598" from-port="1" to-layer="1599" to-port="1" />
		<edge from-layer="1599" from-port="2" to-layer="1600" to-port="0" />
		<edge from-layer="1600" from-port="2" to-layer="1602" to-port="0" />
		<edge from-layer="1601" from-port="0" to-layer="1602" to-port="1" />
		<edge from-layer="1602" from-port="2" to-layer="1603" to-port="0" />
		<edge from-layer="1603" from-port="2" to-layer="1605" to-port="0" />
		<edge from-layer="1604" from-port="0" to-layer="1605" to-port="1" />
		<edge from-layer="1605" from-port="2" to-layer="1606" to-port="0" />
		<edge from-layer="1606" from-port="2" to-layer="1608" to-port="0" />
		<edge from-layer="1607" from-port="0" to-layer="1608" to-port="1" />
		<edge from-layer="1608" from-port="2" to-layer="1620" to-port="1" />
		<edge from-layer="1609" from-port="0" to-layer="1610" to-port="0" />
		<edge from-layer="1610" from-port="1" to-layer="1611" to-port="1" />
		<edge from-layer="1611" from-port="2" to-layer="1614" to-port="0" />
		<edge from-layer="1612" from-port="0" to-layer="1613" to-port="0" />
		<edge from-layer="1613" from-port="1" to-layer="1614" to-port="1" />
		<edge from-layer="1614" from-port="2" to-layer="1615" to-port="0" />
		<edge from-layer="1615" from-port="2" to-layer="1617" to-port="0" />
		<edge from-layer="1616" from-port="0" to-layer="1617" to-port="1" />
		<edge from-layer="1617" from-port="2" to-layer="1620" to-port="2" />
		<edge from-layer="1618" from-port="0" to-layer="1619" to-port="0" />
		<edge from-layer="1619" from-port="1" to-layer="1620" to-port="3" />
		<edge from-layer="1620" from-port="5" to-layer="1622" to-port="0" />
		<edge from-layer="1621" from-port="0" to-layer="1622" to-port="1" />
		<edge from-layer="1622" from-port="2" to-layer="1623" to-port="0" />
		<edge from-layer="1623" from-port="2" to-layer="1626" to-port="0" />
		<edge from-layer="1624" from-port="0" to-layer="1625" to-port="0" />
		<edge from-layer="1625" from-port="1" to-layer="1626" to-port="1" />
		<edge from-layer="1626" from-port="2" to-layer="1629" to-port="0" />
		<edge from-layer="1627" from-port="0" to-layer="1628" to-port="0" />
		<edge from-layer="1628" from-port="1" to-layer="1629" to-port="1" />
		<edge from-layer="1629" from-port="2" to-layer="1630" to-port="0" />
		<edge from-layer="1630" from-port="2" to-layer="1652" to-port="1" />
		<edge from-layer="1630" from-port="2" to-layer="1632" to-port="0" />
		<edge from-layer="1631" from-port="0" to-layer="1632" to-port="1" />
		<edge from-layer="1632" from-port="2" to-layer="1635" to-port="0" />
		<edge from-layer="1633" from-port="0" to-layer="1634" to-port="0" />
		<edge from-layer="1634" from-port="1" to-layer="1635" to-port="1" />
		<edge from-layer="1635" from-port="2" to-layer="1638" to-port="0" />
		<edge from-layer="1636" from-port="0" to-layer="1637" to-port="0" />
		<edge from-layer="1637" from-port="1" to-layer="1638" to-port="1" />
		<edge from-layer="1638" from-port="2" to-layer="1641" to-port="0" />
		<edge from-layer="1639" from-port="0" to-layer="1640" to-port="0" />
		<edge from-layer="1640" from-port="1" to-layer="1641" to-port="1" />
		<edge from-layer="1641" from-port="2" to-layer="1644" to-port="0" />
		<edge from-layer="1642" from-port="0" to-layer="1643" to-port="0" />
		<edge from-layer="1643" from-port="1" to-layer="1644" to-port="1" />
		<edge from-layer="1644" from-port="2" to-layer="1645" to-port="0" />
		<edge from-layer="1645" from-port="1" to-layer="1648" to-port="0" />
		<edge from-layer="1646" from-port="0" to-layer="1647" to-port="0" />
		<edge from-layer="1647" from-port="1" to-layer="1648" to-port="1" />
		<edge from-layer="1648" from-port="2" to-layer="1651" to-port="0" />
		<edge from-layer="1649" from-port="0" to-layer="1650" to-port="0" />
		<edge from-layer="1650" from-port="1" to-layer="1651" to-port="1" />
		<edge from-layer="1651" from-port="2" to-layer="1652" to-port="0" />
		<edge from-layer="1652" from-port="2" to-layer="1654" to-port="0" />
		<edge from-layer="1652" from-port="2" to-layer="1708" to-port="1" />
		<edge from-layer="1653" from-port="0" to-layer="1654" to-port="1" />
		<edge from-layer="1654" from-port="2" to-layer="1657" to-port="0" />
		<edge from-layer="1655" from-port="0" to-layer="1656" to-port="0" />
		<edge from-layer="1656" from-port="1" to-layer="1657" to-port="1" />
		<edge from-layer="1657" from-port="2" to-layer="1660" to-port="0" />
		<edge from-layer="1658" from-port="0" to-layer="1659" to-port="0" />
		<edge from-layer="1659" from-port="1" to-layer="1660" to-port="1" />
		<edge from-layer="1660" from-port="2" to-layer="1674" to-port="0" />
		<edge from-layer="1660" from-port="2" to-layer="1663" to-port="0" />
		<edge from-layer="1660" from-port="2" to-layer="1689" to-port="0" />
		<edge from-layer="1661" from-port="0" to-layer="1662" to-port="0" />
		<edge from-layer="1662" from-port="1" to-layer="1663" to-port="1" />
		<edge from-layer="1663" from-port="2" to-layer="1666" to-port="0" />
		<edge from-layer="1664" from-port="0" to-layer="1665" to-port="0" />
		<edge from-layer="1665" from-port="1" to-layer="1666" to-port="1" />
		<edge from-layer="1666" from-port="2" to-layer="1667" to-port="0" />
		<edge from-layer="1667" from-port="2" to-layer="1669" to-port="0" />
		<edge from-layer="1668" from-port="0" to-layer="1669" to-port="1" />
		<edge from-layer="1669" from-port="2" to-layer="1671" to-port="0" />
		<edge from-layer="1670" from-port="0" to-layer="1671" to-port="1" />
		<edge from-layer="1671" from-port="2" to-layer="1698" to-port="0" />
		<edge from-layer="1672" from-port="0" to-layer="1673" to-port="0" />
		<edge from-layer="1673" from-port="1" to-layer="1674" to-port="1" />
		<edge from-layer="1674" from-port="2" to-layer="1677" to-port="0" />
		<edge from-layer="1675" from-port="0" to-layer="1676" to-port="0" />
		<edge from-layer="1676" from-port="1" to-layer="1677" to-port="1" />
		<edge from-layer="1677" from-port="2" to-layer="1678" to-port="0" />
		<edge from-layer="1678" from-port="2" to-layer="1680" to-port="0" />
		<edge from-layer="1679" from-port="0" to-layer="1680" to-port="1" />
		<edge from-layer="1680" from-port="2" to-layer="1681" to-port="0" />
		<edge from-layer="1681" from-port="2" to-layer="1683" to-port="0" />
		<edge from-layer="1682" from-port="0" to-layer="1683" to-port="1" />
		<edge from-layer="1683" from-port="2" to-layer="1684" to-port="0" />
		<edge from-layer="1684" from-port="2" to-layer="1686" to-port="0" />
		<edge from-layer="1685" from-port="0" to-layer="1686" to-port="1" />
		<edge from-layer="1686" from-port="2" to-layer="1698" to-port="1" />
		<edge from-layer="1687" from-port="0" to-layer="1688" to-port="0" />
		<edge from-layer="1688" from-port="1" to-layer="1689" to-port="1" />
		<edge from-layer="1689" from-port="2" to-layer="1692" to-port="0" />
		<edge from-layer="1690" from-port="0" to-layer="1691" to-port="0" />
		<edge from-layer="1691" from-port="1" to-layer="1692" to-port="1" />
		<edge from-layer="1692" from-port="2" to-layer="1693" to-port="0" />
		<edge from-layer="1693" from-port="2" to-layer="1695" to-port="0" />
		<edge from-layer="1694" from-port="0" to-layer="1695" to-port="1" />
		<edge from-layer="1695" from-port="2" to-layer="1698" to-port="2" />
		<edge from-layer="1696" from-port="0" to-layer="1697" to-port="0" />
		<edge from-layer="1697" from-port="1" to-layer="1698" to-port="3" />
		<edge from-layer="1698" from-port="5" to-layer="1700" to-port="0" />
		<edge from-layer="1699" from-port="0" to-layer="1700" to-port="1" />
		<edge from-layer="1700" from-port="2" to-layer="1701" to-port="0" />
		<edge from-layer="1701" from-port="2" to-layer="1704" to-port="0" />
		<edge from-layer="1702" from-port="0" to-layer="1703" to-port="0" />
		<edge from-layer="1703" from-port="1" to-layer="1704" to-port="1" />
		<edge from-layer="1704" from-port="2" to-layer="1707" to-port="0" />
		<edge from-layer="1705" from-port="0" to-layer="1706" to-port="0" />
		<edge from-layer="1706" from-port="1" to-layer="1707" to-port="1" />
		<edge from-layer="1707" from-port="2" to-layer="1708" to-port="0" />
		<edge from-layer="1708" from-port="2" to-layer="1730" to-port="1" />
		<edge from-layer="1708" from-port="2" to-layer="1710" to-port="0" />
		<edge from-layer="1709" from-port="0" to-layer="1710" to-port="1" />
		<edge from-layer="1710" from-port="2" to-layer="1713" to-port="0" />
		<edge from-layer="1711" from-port="0" to-layer="1712" to-port="0" />
		<edge from-layer="1712" from-port="1" to-layer="1713" to-port="1" />
		<edge from-layer="1713" from-port="2" to-layer="1716" to-port="0" />
		<edge from-layer="1714" from-port="0" to-layer="1715" to-port="0" />
		<edge from-layer="1715" from-port="1" to-layer="1716" to-port="1" />
		<edge from-layer="1716" from-port="2" to-layer="1719" to-port="0" />
		<edge from-layer="1717" from-port="0" to-layer="1718" to-port="0" />
		<edge from-layer="1718" from-port="1" to-layer="1719" to-port="1" />
		<edge from-layer="1719" from-port="2" to-layer="1722" to-port="0" />
		<edge from-layer="1720" from-port="0" to-layer="1721" to-port="0" />
		<edge from-layer="1721" from-port="1" to-layer="1722" to-port="1" />
		<edge from-layer="1722" from-port="2" to-layer="1723" to-port="0" />
		<edge from-layer="1723" from-port="1" to-layer="1726" to-port="0" />
		<edge from-layer="1724" from-port="0" to-layer="1725" to-port="0" />
		<edge from-layer="1725" from-port="1" to-layer="1726" to-port="1" />
		<edge from-layer="1726" from-port="2" to-layer="1729" to-port="0" />
		<edge from-layer="1727" from-port="0" to-layer="1728" to-port="0" />
		<edge from-layer="1728" from-port="1" to-layer="1729" to-port="1" />
		<edge from-layer="1729" from-port="2" to-layer="1730" to-port="0" />
		<edge from-layer="1730" from-port="2" to-layer="1786" to-port="1" />
		<edge from-layer="1730" from-port="2" to-layer="1732" to-port="0" />
		<edge from-layer="1731" from-port="0" to-layer="1732" to-port="1" />
		<edge from-layer="1732" from-port="2" to-layer="1735" to-port="0" />
		<edge from-layer="1733" from-port="0" to-layer="1734" to-port="0" />
		<edge from-layer="1734" from-port="1" to-layer="1735" to-port="1" />
		<edge from-layer="1735" from-port="2" to-layer="1738" to-port="0" />
		<edge from-layer="1736" from-port="0" to-layer="1737" to-port="0" />
		<edge from-layer="1737" from-port="1" to-layer="1738" to-port="1" />
		<edge from-layer="1738" from-port="2" to-layer="1752" to-port="0" />
		<edge from-layer="1738" from-port="2" to-layer="1741" to-port="0" />
		<edge from-layer="1738" from-port="2" to-layer="1767" to-port="0" />
		<edge from-layer="1739" from-port="0" to-layer="1740" to-port="0" />
		<edge from-layer="1740" from-port="1" to-layer="1741" to-port="1" />
		<edge from-layer="1741" from-port="2" to-layer="1744" to-port="0" />
		<edge from-layer="1742" from-port="0" to-layer="1743" to-port="0" />
		<edge from-layer="1743" from-port="1" to-layer="1744" to-port="1" />
		<edge from-layer="1744" from-port="2" to-layer="1745" to-port="0" />
		<edge from-layer="1745" from-port="2" to-layer="1747" to-port="0" />
		<edge from-layer="1746" from-port="0" to-layer="1747" to-port="1" />
		<edge from-layer="1747" from-port="2" to-layer="1749" to-port="0" />
		<edge from-layer="1748" from-port="0" to-layer="1749" to-port="1" />
		<edge from-layer="1749" from-port="2" to-layer="1776" to-port="0" />
		<edge from-layer="1750" from-port="0" to-layer="1751" to-port="0" />
		<edge from-layer="1751" from-port="1" to-layer="1752" to-port="1" />
		<edge from-layer="1752" from-port="2" to-layer="1755" to-port="0" />
		<edge from-layer="1753" from-port="0" to-layer="1754" to-port="0" />
		<edge from-layer="1754" from-port="1" to-layer="1755" to-port="1" />
		<edge from-layer="1755" from-port="2" to-layer="1756" to-port="0" />
		<edge from-layer="1756" from-port="2" to-layer="1758" to-port="0" />
		<edge from-layer="1757" from-port="0" to-layer="1758" to-port="1" />
		<edge from-layer="1758" from-port="2" to-layer="1759" to-port="0" />
		<edge from-layer="1759" from-port="2" to-layer="1761" to-port="0" />
		<edge from-layer="1760" from-port="0" to-layer="1761" to-port="1" />
		<edge from-layer="1761" from-port="2" to-layer="1762" to-port="0" />
		<edge from-layer="1762" from-port="2" to-layer="1764" to-port="0" />
		<edge from-layer="1763" from-port="0" to-layer="1764" to-port="1" />
		<edge from-layer="1764" from-port="2" to-layer="1776" to-port="1" />
		<edge from-layer="1765" from-port="0" to-layer="1766" to-port="0" />
		<edge from-layer="1766" from-port="1" to-layer="1767" to-port="1" />
		<edge from-layer="1767" from-port="2" to-layer="1770" to-port="0" />
		<edge from-layer="1768" from-port="0" to-layer="1769" to-port="0" />
		<edge from-layer="1769" from-port="1" to-layer="1770" to-port="1" />
		<edge from-layer="1770" from-port="2" to-layer="1771" to-port="0" />
		<edge from-layer="1771" from-port="2" to-layer="1773" to-port="0" />
		<edge from-layer="1772" from-port="0" to-layer="1773" to-port="1" />
		<edge from-layer="1773" from-port="2" to-layer="1776" to-port="2" />
		<edge from-layer="1774" from-port="0" to-layer="1775" to-port="0" />
		<edge from-layer="1775" from-port="1" to-layer="1776" to-port="3" />
		<edge from-layer="1776" from-port="5" to-layer="1778" to-port="0" />
		<edge from-layer="1777" from-port="0" to-layer="1778" to-port="1" />
		<edge from-layer="1778" from-port="2" to-layer="1779" to-port="0" />
		<edge from-layer="1779" from-port="2" to-layer="1782" to-port="0" />
		<edge from-layer="1780" from-port="0" to-layer="1781" to-port="0" />
		<edge from-layer="1781" from-port="1" to-layer="1782" to-port="1" />
		<edge from-layer="1782" from-port="2" to-layer="1785" to-port="0" />
		<edge from-layer="1783" from-port="0" to-layer="1784" to-port="0" />
		<edge from-layer="1784" from-port="1" to-layer="1785" to-port="1" />
		<edge from-layer="1785" from-port="2" to-layer="1786" to-port="0" />
		<edge from-layer="1786" from-port="2" to-layer="1808" to-port="1" />
		<edge from-layer="1786" from-port="2" to-layer="1788" to-port="0" />
		<edge from-layer="1787" from-port="0" to-layer="1788" to-port="1" />
		<edge from-layer="1788" from-port="2" to-layer="1791" to-port="0" />
		<edge from-layer="1789" from-port="0" to-layer="1790" to-port="0" />
		<edge from-layer="1790" from-port="1" to-layer="1791" to-port="1" />
		<edge from-layer="1791" from-port="2" to-layer="1794" to-port="0" />
		<edge from-layer="1792" from-port="0" to-layer="1793" to-port="0" />
		<edge from-layer="1793" from-port="1" to-layer="1794" to-port="1" />
		<edge from-layer="1794" from-port="2" to-layer="1797" to-port="0" />
		<edge from-layer="1795" from-port="0" to-layer="1796" to-port="0" />
		<edge from-layer="1796" from-port="1" to-layer="1797" to-port="1" />
		<edge from-layer="1797" from-port="2" to-layer="1800" to-port="0" />
		<edge from-layer="1798" from-port="0" to-layer="1799" to-port="0" />
		<edge from-layer="1799" from-port="1" to-layer="1800" to-port="1" />
		<edge from-layer="1800" from-port="2" to-layer="1801" to-port="0" />
		<edge from-layer="1801" from-port="1" to-layer="1804" to-port="0" />
		<edge from-layer="1802" from-port="0" to-layer="1803" to-port="0" />
		<edge from-layer="1803" from-port="1" to-layer="1804" to-port="1" />
		<edge from-layer="1804" from-port="2" to-layer="1807" to-port="0" />
		<edge from-layer="1805" from-port="0" to-layer="1806" to-port="0" />
		<edge from-layer="1806" from-port="1" to-layer="1807" to-port="1" />
		<edge from-layer="1807" from-port="2" to-layer="1808" to-port="0" />
		<edge from-layer="1808" from-port="2" to-layer="1864" to-port="1" />
		<edge from-layer="1808" from-port="2" to-layer="1810" to-port="0" />
		<edge from-layer="1809" from-port="0" to-layer="1810" to-port="1" />
		<edge from-layer="1810" from-port="2" to-layer="1813" to-port="0" />
		<edge from-layer="1811" from-port="0" to-layer="1812" to-port="0" />
		<edge from-layer="1812" from-port="1" to-layer="1813" to-port="1" />
		<edge from-layer="1813" from-port="2" to-layer="1816" to-port="0" />
		<edge from-layer="1814" from-port="0" to-layer="1815" to-port="0" />
		<edge from-layer="1815" from-port="1" to-layer="1816" to-port="1" />
		<edge from-layer="1816" from-port="2" to-layer="1845" to-port="0" />
		<edge from-layer="1816" from-port="2" to-layer="1819" to-port="0" />
		<edge from-layer="1816" from-port="2" to-layer="1830" to-port="0" />
		<edge from-layer="1817" from-port="0" to-layer="1818" to-port="0" />
		<edge from-layer="1818" from-port="1" to-layer="1819" to-port="1" />
		<edge from-layer="1819" from-port="2" to-layer="1822" to-port="0" />
		<edge from-layer="1820" from-port="0" to-layer="1821" to-port="0" />
		<edge from-layer="1821" from-port="1" to-layer="1822" to-port="1" />
		<edge from-layer="1822" from-port="2" to-layer="1823" to-port="0" />
		<edge from-layer="1823" from-port="2" to-layer="1825" to-port="0" />
		<edge from-layer="1824" from-port="0" to-layer="1825" to-port="1" />
		<edge from-layer="1825" from-port="2" to-layer="1827" to-port="0" />
		<edge from-layer="1826" from-port="0" to-layer="1827" to-port="1" />
		<edge from-layer="1827" from-port="2" to-layer="1854" to-port="0" />
		<edge from-layer="1828" from-port="0" to-layer="1829" to-port="0" />
		<edge from-layer="1829" from-port="1" to-layer="1830" to-port="1" />
		<edge from-layer="1830" from-port="2" to-layer="1833" to-port="0" />
		<edge from-layer="1831" from-port="0" to-layer="1832" to-port="0" />
		<edge from-layer="1832" from-port="1" to-layer="1833" to-port="1" />
		<edge from-layer="1833" from-port="2" to-layer="1834" to-port="0" />
		<edge from-layer="1834" from-port="2" to-layer="1836" to-port="0" />
		<edge from-layer="1835" from-port="0" to-layer="1836" to-port="1" />
		<edge from-layer="1836" from-port="2" to-layer="1837" to-port="0" />
		<edge from-layer="1837" from-port="2" to-layer="1839" to-port="0" />
		<edge from-layer="1838" from-port="0" to-layer="1839" to-port="1" />
		<edge from-layer="1839" from-port="2" to-layer="1840" to-port="0" />
		<edge from-layer="1840" from-port="2" to-layer="1842" to-port="0" />
		<edge from-layer="1841" from-port="0" to-layer="1842" to-port="1" />
		<edge from-layer="1842" from-port="2" to-layer="1854" to-port="1" />
		<edge from-layer="1843" from-port="0" to-layer="1844" to-port="0" />
		<edge from-layer="1844" from-port="1" to-layer="1845" to-port="1" />
		<edge from-layer="1845" from-port="2" to-layer="1848" to-port="0" />
		<edge from-layer="1846" from-port="0" to-layer="1847" to-port="0" />
		<edge from-layer="1847" from-port="1" to-layer="1848" to-port="1" />
		<edge from-layer="1848" from-port="2" to-layer="1849" to-port="0" />
		<edge from-layer="1849" from-port="2" to-layer="1851" to-port="0" />
		<edge from-layer="1850" from-port="0" to-layer="1851" to-port="1" />
		<edge from-layer="1851" from-port="2" to-layer="1854" to-port="2" />
		<edge from-layer="1852" from-port="0" to-layer="1853" to-port="0" />
		<edge from-layer="1853" from-port="1" to-layer="1854" to-port="3" />
		<edge from-layer="1854" from-port="5" to-layer="1856" to-port="0" />
		<edge from-layer="1855" from-port="0" to-layer="1856" to-port="1" />
		<edge from-layer="1856" from-port="2" to-layer="1857" to-port="0" />
		<edge from-layer="1857" from-port="2" to-layer="1860" to-port="0" />
		<edge from-layer="1858" from-port="0" to-layer="1859" to-port="0" />
		<edge from-layer="1859" from-port="1" to-layer="1860" to-port="1" />
		<edge from-layer="1860" from-port="2" to-layer="1863" to-port="0" />
		<edge from-layer="1861" from-port="0" to-layer="1862" to-port="0" />
		<edge from-layer="1862" from-port="1" to-layer="1863" to-port="1" />
		<edge from-layer="1863" from-port="2" to-layer="1864" to-port="0" />
		<edge from-layer="1864" from-port="2" to-layer="1866" to-port="0" />
		<edge from-layer="1864" from-port="2" to-layer="1886" to-port="1" />
		<edge from-layer="1865" from-port="0" to-layer="1866" to-port="1" />
		<edge from-layer="1866" from-port="2" to-layer="1869" to-port="0" />
		<edge from-layer="1867" from-port="0" to-layer="1868" to-port="0" />
		<edge from-layer="1868" from-port="1" to-layer="1869" to-port="1" />
		<edge from-layer="1869" from-port="2" to-layer="1872" to-port="0" />
		<edge from-layer="1870" from-port="0" to-layer="1871" to-port="0" />
		<edge from-layer="1871" from-port="1" to-layer="1872" to-port="1" />
		<edge from-layer="1872" from-port="2" to-layer="1875" to-port="0" />
		<edge from-layer="1873" from-port="0" to-layer="1874" to-port="0" />
		<edge from-layer="1874" from-port="1" to-layer="1875" to-port="1" />
		<edge from-layer="1875" from-port="2" to-layer="1878" to-port="0" />
		<edge from-layer="1876" from-port="0" to-layer="1877" to-port="0" />
		<edge from-layer="1877" from-port="1" to-layer="1878" to-port="1" />
		<edge from-layer="1878" from-port="2" to-layer="1879" to-port="0" />
		<edge from-layer="1879" from-port="1" to-layer="1882" to-port="0" />
		<edge from-layer="1880" from-port="0" to-layer="1881" to-port="0" />
		<edge from-layer="1881" from-port="1" to-layer="1882" to-port="1" />
		<edge from-layer="1882" from-port="2" to-layer="1885" to-port="0" />
		<edge from-layer="1883" from-port="0" to-layer="1884" to-port="0" />
		<edge from-layer="1884" from-port="1" to-layer="1885" to-port="1" />
		<edge from-layer="1885" from-port="2" to-layer="1886" to-port="0" />
		<edge from-layer="1886" from-port="2" to-layer="1889" to-port="0" />
		<edge from-layer="1886" from-port="2" to-layer="1899" to-port="0" />
		<edge from-layer="1887" from-port="0" to-layer="1900" to-port="1" />
		<edge from-layer="1887" from-port="0" to-layer="2095" to-port="1" />
		<edge from-layer="1887" from-port="0" to-layer="2030" to-port="1" />
		<edge from-layer="1887" from-port="0" to-layer="2095" to-port="3" />
		<edge from-layer="1887" from-port="0" to-layer="2021" to-port="4" />
		<edge from-layer="1887" from-port="0" to-layer="2021" to-port="3" />
		<edge from-layer="1887" from-port="0" to-layer="2188" to-port="1" />
		<edge from-layer="1887" from-port="0" to-layer="1952" to-port="4" />
		<edge from-layer="1887" from-port="0" to-layer="1952" to-port="3" />
		<edge from-layer="1887" from-port="0" to-layer="1952" to-port="1" />
		<edge from-layer="1887" from-port="0" to-layer="2021" to-port="1" />
		<edge from-layer="1887" from-port="0" to-layer="2095" to-port="4" />
		<edge from-layer="1887" from-port="0" to-layer="1889" to-port="1" />
		<edge from-layer="1887" from-port="0" to-layer="1889" to-port="3" />
		<edge from-layer="1887" from-port="0" to-layer="1889" to-port="4" />
		<edge from-layer="1887" from-port="0" to-layer="1961" to-port="1" />
		<edge from-layer="1887" from-port="0" to-layer="2104" to-port="1" />
		<edge from-layer="1888" from-port="0" to-layer="2095" to-port="2" />
		<edge from-layer="1888" from-port="0" to-layer="2021" to-port="2" />
		<edge from-layer="1888" from-port="0" to-layer="1889" to-port="2" />
		<edge from-layer="1888" from-port="0" to-layer="1952" to-port="2" />
		<edge from-layer="1889" from-port="5" to-layer="1891" to-port="0" />
		<edge from-layer="1890" from-port="0" to-layer="1953" to-port="1" />
		<edge from-layer="1890" from-port="0" to-layer="1891" to-port="1" />
		<edge from-layer="1890" from-port="0" to-layer="2022" to-port="1" />
		<edge from-layer="1890" from-port="0" to-layer="2096" to-port="1" />
		<edge from-layer="1891" from-port="2" to-layer="1893" to-port="0" />
		<edge from-layer="1892" from-port="0" to-layer="1893" to-port="1" />
		<edge from-layer="1893" from-port="2" to-layer="1894" to-port="0" />
		<edge from-layer="1894" from-port="2" to-layer="1896" to-port="0" />
		<edge from-layer="1895" from-port="0" to-layer="1896" to-port="1" />
		<edge from-layer="1896" from-port="2" to-layer="1903" to-port="0" />
		<edge from-layer="1897" from-port="0" to-layer="2103" to-port="1" />
		<edge from-layer="1897" from-port="0" to-layer="2029" to-port="1" />
		<edge from-layer="1897" from-port="0" to-layer="1960" to-port="1" />
		<edge from-layer="1897" from-port="0" to-layer="1899" to-port="1" />
		<edge from-layer="1898" from-port="0" to-layer="1899" to-port="2" />
		<edge from-layer="1899" from-port="3" to-layer="1900" to-port="0" />
		<edge from-layer="1900" from-port="2" to-layer="1902" to-port="0" />
		<edge from-layer="1901" from-port="0" to-layer="2105" to-port="1" />
		<edge from-layer="1901" from-port="0" to-layer="1962" to-port="1" />
		<edge from-layer="1901" from-port="0" to-layer="1902" to-port="1" />
		<edge from-layer="1901" from-port="0" to-layer="2031" to-port="1" />
		<edge from-layer="1902" from-port="2" to-layer="1903" to-port="1" />
		<edge from-layer="1903" from-port="2" to-layer="1906" to-port="0" />
		<edge from-layer="1904" from-port="0" to-layer="1905" to-port="0" />
		<edge from-layer="1905" from-port="1" to-layer="1906" to-port="1" />
		<edge from-layer="1906" from-port="2" to-layer="1909" to-port="0" />
		<edge from-layer="1907" from-port="0" to-layer="1908" to-port="0" />
		<edge from-layer="1908" from-port="1" to-layer="1909" to-port="1" />
		<edge from-layer="1909" from-port="2" to-layer="1910" to-port="0" />
		<edge from-layer="1910" from-port="1" to-layer="1912" to-port="0" />
		<edge from-layer="1911" from-port="0" to-layer="1912" to-port="1" />
		<edge from-layer="1912" from-port="2" to-layer="1914" to-port="0" />
		<edge from-layer="1913" from-port="0" to-layer="1914" to-port="1" />
		<edge from-layer="1913" from-port="0" to-layer="2042" to-port="1" />
		<edge from-layer="1913" from-port="0" to-layer="1973" to-port="1" />
		<edge from-layer="1913" from-port="0" to-layer="2116" to-port="1" />
		<edge from-layer="1914" from-port="2" to-layer="1917" to-port="0" />
		<edge from-layer="1915" from-port="0" to-layer="1916" to-port="0" />
		<edge from-layer="1916" from-port="1" to-layer="1917" to-port="1" />
		<edge from-layer="1917" from-port="2" to-layer="1920" to-port="0" />
		<edge from-layer="1918" from-port="0" to-layer="1919" to-port="0" />
		<edge from-layer="1919" from-port="1" to-layer="1920" to-port="1" />
		<edge from-layer="1920" from-port="2" to-layer="1923" to-port="0" />
		<edge from-layer="1921" from-port="0" to-layer="1922" to-port="0" />
		<edge from-layer="1922" from-port="1" to-layer="1923" to-port="1" />
		<edge from-layer="1923" from-port="2" to-layer="1926" to-port="0" />
		<edge from-layer="1924" from-port="0" to-layer="1925" to-port="0" />
		<edge from-layer="1925" from-port="1" to-layer="1926" to-port="1" />
		<edge from-layer="1926" from-port="2" to-layer="1929" to-port="0" />
		<edge from-layer="1927" from-port="0" to-layer="1928" to-port="0" />
		<edge from-layer="1928" from-port="1" to-layer="1929" to-port="1" />
		<edge from-layer="1929" from-port="2" to-layer="1930" to-port="0" />
		<edge from-layer="1929" from-port="2" to-layer="1943" to-port="1" />
		<edge from-layer="1930" from-port="1" to-layer="1933" to-port="0" />
		<edge from-layer="1931" from-port="0" to-layer="1932" to-port="0" />
		<edge from-layer="1932" from-port="1" to-layer="1933" to-port="1" />
		<edge from-layer="1933" from-port="2" to-layer="1936" to-port="0" />
		<edge from-layer="1934" from-port="0" to-layer="1935" to-port="0" />
		<edge from-layer="1935" from-port="1" to-layer="1936" to-port="1" />
		<edge from-layer="1936" from-port="2" to-layer="1937" to-port="0" />
		<edge from-layer="1937" from-port="1" to-layer="1940" to-port="0" />
		<edge from-layer="1938" from-port="0" to-layer="1939" to-port="0" />
		<edge from-layer="1939" from-port="1" to-layer="1940" to-port="1" />
		<edge from-layer="1940" from-port="2" to-layer="1942" to-port="0" />
		<edge from-layer="1941" from-port="0" to-layer="1942" to-port="1" />
		<edge from-layer="1942" from-port="2" to-layer="1943" to-port="0" />
		<edge from-layer="1943" from-port="2" to-layer="1945" to-port="0" />
		<edge from-layer="1944" from-port="0" to-layer="2176" to-port="1" />
		<edge from-layer="1944" from-port="0" to-layer="2014" to-port="1" />
		<edge from-layer="1944" from-port="0" to-layer="2088" to-port="1" />
		<edge from-layer="1944" from-port="0" to-layer="1945" to-port="1" />
		<edge from-layer="1944" from-port="0" to-layer="2163" to-port="1" />
		<edge from-layer="1945" from-port="2" to-layer="1948" to-port="0" />
		<edge from-layer="1946" from-port="0" to-layer="1947" to-port="0" />
		<edge from-layer="1947" from-port="1" to-layer="1948" to-port="1" />
		<edge from-layer="1948" from-port="2" to-layer="1951" to-port="0" />
		<edge from-layer="1949" from-port="0" to-layer="1950" to-port="0" />
		<edge from-layer="1950" from-port="1" to-layer="1951" to-port="1" />
		<edge from-layer="1951" from-port="2" to-layer="1998" to-port="0" />
		<edge from-layer="1952" from-port="5" to-layer="1953" to-port="0" />
		<edge from-layer="1953" from-port="2" to-layer="1955" to-port="0" />
		<edge from-layer="1954" from-port="0" to-layer="1955" to-port="1" />
		<edge from-layer="1955" from-port="2" to-layer="1956" to-port="0" />
		<edge from-layer="1956" from-port="2" to-layer="1958" to-port="0" />
		<edge from-layer="1957" from-port="0" to-layer="1958" to-port="1" />
		<edge from-layer="1958" from-port="2" to-layer="1963" to-port="0" />
		<edge from-layer="1959" from-port="0" to-layer="1960" to-port="2" />
		<edge from-layer="1960" from-port="3" to-layer="1961" to-port="0" />
		<edge from-layer="1961" from-port="2" to-layer="1962" to-port="0" />
		<edge from-layer="1962" from-port="2" to-layer="1963" to-port="1" />
		<edge from-layer="1963" from-port="2" to-layer="1966" to-port="0" />
		<edge from-layer="1964" from-port="0" to-layer="1965" to-port="0" />
		<edge from-layer="1965" from-port="1" to-layer="1966" to-port="1" />
		<edge from-layer="1966" from-port="2" to-layer="1969" to-port="0" />
		<edge from-layer="1967" from-port="0" to-layer="1968" to-port="0" />
		<edge from-layer="1968" from-port="1" to-layer="1969" to-port="1" />
		<edge from-layer="1969" from-port="2" to-layer="1970" to-port="0" />
		<edge from-layer="1970" from-port="1" to-layer="1972" to-port="0" />
		<edge from-layer="1971" from-port="0" to-layer="1972" to-port="1" />
		<edge from-layer="1972" from-port="2" to-layer="1973" to-port="0" />
		<edge from-layer="1973" from-port="2" to-layer="1976" to-port="0" />
		<edge from-layer="1974" from-port="0" to-layer="1975" to-port="0" />
		<edge from-layer="1975" from-port="1" to-layer="1976" to-port="1" />
		<edge from-layer="1976" from-port="2" to-layer="1979" to-port="0" />
		<edge from-layer="1977" from-port="0" to-layer="1978" to-port="0" />
		<edge from-layer="1978" from-port="1" to-layer="1979" to-port="1" />
		<edge from-layer="1979" from-port="2" to-layer="1982" to-port="0" />
		<edge from-layer="1980" from-port="0" to-layer="1981" to-port="0" />
		<edge from-layer="1981" from-port="1" to-layer="1982" to-port="1" />
		<edge from-layer="1982" from-port="2" to-layer="1983" to-port="0" />
		<edge from-layer="1982" from-port="2" to-layer="1997" to-port="1" />
		<edge from-layer="1983" from-port="1" to-layer="1986" to-port="0" />
		<edge from-layer="1984" from-port="0" to-layer="1985" to-port="0" />
		<edge from-layer="1985" from-port="1" to-layer="1986" to-port="1" />
		<edge from-layer="1986" from-port="2" to-layer="1989" to-port="0" />
		<edge from-layer="1987" from-port="0" to-layer="1988" to-port="0" />
		<edge from-layer="1988" from-port="1" to-layer="1989" to-port="1" />
		<edge from-layer="1989" from-port="2" to-layer="1990" to-port="0" />
		<edge from-layer="1990" from-port="1" to-layer="1993" to-port="0" />
		<edge from-layer="1991" from-port="0" to-layer="1992" to-port="0" />
		<edge from-layer="1992" from-port="1" to-layer="1993" to-port="1" />
		<edge from-layer="1993" from-port="2" to-layer="1996" to-port="0" />
		<edge from-layer="1994" from-port="0" to-layer="1995" to-port="0" />
		<edge from-layer="1995" from-port="1" to-layer="1996" to-port="1" />
		<edge from-layer="1996" from-port="2" to-layer="1997" to-port="0" />
		<edge from-layer="1997" from-port="2" to-layer="1998" to-port="1" />
		<edge from-layer="1998" from-port="2" to-layer="1999" to-port="0" />
		<edge from-layer="1998" from-port="2" to-layer="2013" to-port="1" />
		<edge from-layer="1999" from-port="1" to-layer="2002" to-port="0" />
		<edge from-layer="2000" from-port="0" to-layer="2001" to-port="0" />
		<edge from-layer="2001" from-port="1" to-layer="2002" to-port="1" />
		<edge from-layer="2002" from-port="2" to-layer="2005" to-port="0" />
		<edge from-layer="2003" from-port="0" to-layer="2004" to-port="0" />
		<edge from-layer="2004" from-port="1" to-layer="2005" to-port="1" />
		<edge from-layer="2005" from-port="2" to-layer="2006" to-port="0" />
		<edge from-layer="2006" from-port="1" to-layer="2009" to-port="0" />
		<edge from-layer="2007" from-port="0" to-layer="2008" to-port="0" />
		<edge from-layer="2008" from-port="1" to-layer="2009" to-port="1" />
		<edge from-layer="2009" from-port="2" to-layer="2012" to-port="0" />
		<edge from-layer="2010" from-port="0" to-layer="2011" to-port="0" />
		<edge from-layer="2011" from-port="1" to-layer="2012" to-port="1" />
		<edge from-layer="2012" from-port="2" to-layer="2013" to-port="0" />
		<edge from-layer="2013" from-port="2" to-layer="2014" to-port="0" />
		<edge from-layer="2014" from-port="2" to-layer="2017" to-port="0" />
		<edge from-layer="2015" from-port="0" to-layer="2016" to-port="0" />
		<edge from-layer="2016" from-port="1" to-layer="2017" to-port="1" />
		<edge from-layer="2017" from-port="2" to-layer="2020" to-port="0" />
		<edge from-layer="2018" from-port="0" to-layer="2019" to-port="0" />
		<edge from-layer="2019" from-port="1" to-layer="2020" to-port="1" />
		<edge from-layer="2020" from-port="2" to-layer="2072" to-port="0" />
		<edge from-layer="2021" from-port="5" to-layer="2022" to-port="0" />
		<edge from-layer="2022" from-port="2" to-layer="2024" to-port="0" />
		<edge from-layer="2023" from-port="0" to-layer="2024" to-port="1" />
		<edge from-layer="2024" from-port="2" to-layer="2025" to-port="0" />
		<edge from-layer="2025" from-port="2" to-layer="2027" to-port="0" />
		<edge from-layer="2026" from-port="0" to-layer="2027" to-port="1" />
		<edge from-layer="2027" from-port="2" to-layer="2032" to-port="0" />
		<edge from-layer="2028" from-port="0" to-layer="2029" to-port="2" />
		<edge from-layer="2029" from-port="3" to-layer="2030" to-port="0" />
		<edge from-layer="2030" from-port="2" to-layer="2031" to-port="0" />
		<edge from-layer="2031" from-port="2" to-layer="2032" to-port="1" />
		<edge from-layer="2032" from-port="2" to-layer="2035" to-port="0" />
		<edge from-layer="2033" from-port="0" to-layer="2034" to-port="0" />
		<edge from-layer="2034" from-port="1" to-layer="2035" to-port="1" />
		<edge from-layer="2035" from-port="2" to-layer="2038" to-port="0" />
		<edge from-layer="2036" from-port="0" to-layer="2037" to-port="0" />
		<edge from-layer="2037" from-port="1" to-layer="2038" to-port="1" />
		<edge from-layer="2038" from-port="2" to-layer="2039" to-port="0" />
		<edge from-layer="2039" from-port="1" to-layer="2041" to-port="0" />
		<edge from-layer="2040" from-port="0" to-layer="2041" to-port="1" />
		<edge from-layer="2041" from-port="2" to-layer="2042" to-port="0" />
		<edge from-layer="2042" from-port="2" to-layer="2045" to-port="0" />
		<edge from-layer="2043" from-port="0" to-layer="2044" to-port="0" />
		<edge from-layer="2044" from-port="1" to-layer="2045" to-port="1" />
		<edge from-layer="2045" from-port="2" to-layer="2048" to-port="0" />
		<edge from-layer="2046" from-port="0" to-layer="2047" to-port="0" />
		<edge from-layer="2047" from-port="1" to-layer="2048" to-port="1" />
		<edge from-layer="2048" from-port="2" to-layer="2051" to-port="0" />
		<edge from-layer="2049" from-port="0" to-layer="2050" to-port="0" />
		<edge from-layer="2050" from-port="1" to-layer="2051" to-port="1" />
		<edge from-layer="2051" from-port="2" to-layer="2054" to-port="0" />
		<edge from-layer="2052" from-port="0" to-layer="2053" to-port="0" />
		<edge from-layer="2053" from-port="1" to-layer="2054" to-port="1" />
		<edge from-layer="2054" from-port="2" to-layer="2057" to-port="0" />
		<edge from-layer="2055" from-port="0" to-layer="2056" to-port="0" />
		<edge from-layer="2056" from-port="1" to-layer="2057" to-port="1" />
		<edge from-layer="2057" from-port="2" to-layer="2071" to-port="1" />
		<edge from-layer="2057" from-port="2" to-layer="2058" to-port="0" />
		<edge from-layer="2058" from-port="1" to-layer="2061" to-port="0" />
		<edge from-layer="2059" from-port="0" to-layer="2060" to-port="0" />
		<edge from-layer="2060" from-port="1" to-layer="2061" to-port="1" />
		<edge from-layer="2061" from-port="2" to-layer="2064" to-port="0" />
		<edge from-layer="2062" from-port="0" to-layer="2063" to-port="0" />
		<edge from-layer="2063" from-port="1" to-layer="2064" to-port="1" />
		<edge from-layer="2064" from-port="2" to-layer="2065" to-port="0" />
		<edge from-layer="2065" from-port="1" to-layer="2068" to-port="0" />
		<edge from-layer="2066" from-port="0" to-layer="2067" to-port="0" />
		<edge from-layer="2067" from-port="1" to-layer="2068" to-port="1" />
		<edge from-layer="2068" from-port="2" to-layer="2070" to-port="0" />
		<edge from-layer="2069" from-port="0" to-layer="2070" to-port="1" />
		<edge from-layer="2070" from-port="2" to-layer="2071" to-port="0" />
		<edge from-layer="2071" from-port="2" to-layer="2072" to-port="1" />
		<edge from-layer="2072" from-port="2" to-layer="2087" to-port="1" />
		<edge from-layer="2072" from-port="2" to-layer="2073" to-port="0" />
		<edge from-layer="2073" from-port="1" to-layer="2076" to-port="0" />
		<edge from-layer="2074" from-port="0" to-layer="2075" to-port="0" />
		<edge from-layer="2075" from-port="1" to-layer="2076" to-port="1" />
		<edge from-layer="2076" from-port="2" to-layer="2079" to-port="0" />
		<edge from-layer="2077" from-port="0" to-layer="2078" to-port="0" />
		<edge from-layer="2078" from-port="1" to-layer="2079" to-port="1" />
		<edge from-layer="2079" from-port="2" to-layer="2080" to-port="0" />
		<edge from-layer="2080" from-port="1" to-layer="2083" to-port="0" />
		<edge from-layer="2081" from-port="0" to-layer="2082" to-port="0" />
		<edge from-layer="2082" from-port="1" to-layer="2083" to-port="1" />
		<edge from-layer="2083" from-port="2" to-layer="2086" to-port="0" />
		<edge from-layer="2084" from-port="0" to-layer="2085" to-port="0" />
		<edge from-layer="2085" from-port="1" to-layer="2086" to-port="1" />
		<edge from-layer="2086" from-port="2" to-layer="2087" to-port="0" />
		<edge from-layer="2087" from-port="2" to-layer="2088" to-port="0" />
		<edge from-layer="2088" from-port="2" to-layer="2091" to-port="0" />
		<edge from-layer="2089" from-port="0" to-layer="2090" to-port="0" />
		<edge from-layer="2090" from-port="1" to-layer="2091" to-port="1" />
		<edge from-layer="2091" from-port="2" to-layer="2094" to-port="0" />
		<edge from-layer="2092" from-port="0" to-layer="2093" to-port="0" />
		<edge from-layer="2093" from-port="1" to-layer="2094" to-port="1" />
		<edge from-layer="2094" from-port="2" to-layer="2147" to-port="0" />
		<edge from-layer="2095" from-port="5" to-layer="2096" to-port="0" />
		<edge from-layer="2096" from-port="2" to-layer="2098" to-port="0" />
		<edge from-layer="2097" from-port="0" to-layer="2098" to-port="1" />
		<edge from-layer="2098" from-port="2" to-layer="2099" to-port="0" />
		<edge from-layer="2099" from-port="2" to-layer="2101" to-port="0" />
		<edge from-layer="2100" from-port="0" to-layer="2101" to-port="1" />
		<edge from-layer="2101" from-port="2" to-layer="2106" to-port="0" />
		<edge from-layer="2102" from-port="0" to-layer="2103" to-port="2" />
		<edge from-layer="2103" from-port="3" to-layer="2104" to-port="0" />
		<edge from-layer="2104" from-port="2" to-layer="2105" to-port="0" />
		<edge from-layer="2105" from-port="2" to-layer="2106" to-port="1" />
		<edge from-layer="2106" from-port="2" to-layer="2109" to-port="0" />
		<edge from-layer="2107" from-port="0" to-layer="2108" to-port="0" />
		<edge from-layer="2108" from-port="1" to-layer="2109" to-port="1" />
		<edge from-layer="2109" from-port="2" to-layer="2112" to-port="0" />
		<edge from-layer="2110" from-port="0" to-layer="2111" to-port="0" />
		<edge from-layer="2111" from-port="1" to-layer="2112" to-port="1" />
		<edge from-layer="2112" from-port="2" to-layer="2113" to-port="0" />
		<edge from-layer="2113" from-port="1" to-layer="2115" to-port="0" />
		<edge from-layer="2114" from-port="0" to-layer="2115" to-port="1" />
		<edge from-layer="2115" from-port="2" to-layer="2116" to-port="0" />
		<edge from-layer="2116" from-port="2" to-layer="2119" to-port="0" />
		<edge from-layer="2117" from-port="0" to-layer="2118" to-port="0" />
		<edge from-layer="2118" from-port="1" to-layer="2119" to-port="1" />
		<edge from-layer="2119" from-port="2" to-layer="2122" to-port="0" />
		<edge from-layer="2120" from-port="0" to-layer="2121" to-port="0" />
		<edge from-layer="2121" from-port="1" to-layer="2122" to-port="1" />
		<edge from-layer="2122" from-port="2" to-layer="2125" to-port="0" />
		<edge from-layer="2123" from-port="0" to-layer="2124" to-port="0" />
		<edge from-layer="2124" from-port="1" to-layer="2125" to-port="1" />
		<edge from-layer="2125" from-port="2" to-layer="2128" to-port="0" />
		<edge from-layer="2126" from-port="0" to-layer="2127" to-port="0" />
		<edge from-layer="2127" from-port="1" to-layer="2128" to-port="1" />
		<edge from-layer="2128" from-port="2" to-layer="2131" to-port="0" />
		<edge from-layer="2129" from-port="0" to-layer="2130" to-port="0" />
		<edge from-layer="2130" from-port="1" to-layer="2131" to-port="1" />
		<edge from-layer="2131" from-port="2" to-layer="2132" to-port="0" />
		<edge from-layer="2131" from-port="2" to-layer="2146" to-port="1" />
		<edge from-layer="2132" from-port="1" to-layer="2135" to-port="0" />
		<edge from-layer="2133" from-port="0" to-layer="2134" to-port="0" />
		<edge from-layer="2134" from-port="1" to-layer="2135" to-port="1" />
		<edge from-layer="2135" from-port="2" to-layer="2138" to-port="0" />
		<edge from-layer="2136" from-port="0" to-layer="2137" to-port="0" />
		<edge from-layer="2137" from-port="1" to-layer="2138" to-port="1" />
		<edge from-layer="2138" from-port="2" to-layer="2139" to-port="0" />
		<edge from-layer="2139" from-port="1" to-layer="2142" to-port="0" />
		<edge from-layer="2140" from-port="0" to-layer="2141" to-port="0" />
		<edge from-layer="2141" from-port="1" to-layer="2142" to-port="1" />
		<edge from-layer="2142" from-port="2" to-layer="2145" to-port="0" />
		<edge from-layer="2143" from-port="0" to-layer="2144" to-port="0" />
		<edge from-layer="2144" from-port="1" to-layer="2145" to-port="1" />
		<edge from-layer="2145" from-port="2" to-layer="2146" to-port="0" />
		<edge from-layer="2146" from-port="2" to-layer="2147" to-port="1" />
		<edge from-layer="2147" from-port="2" to-layer="2148" to-port="0" />
		<edge from-layer="2147" from-port="2" to-layer="2162" to-port="1" />
		<edge from-layer="2148" from-port="1" to-layer="2151" to-port="0" />
		<edge from-layer="2149" from-port="0" to-layer="2150" to-port="0" />
		<edge from-layer="2150" from-port="1" to-layer="2151" to-port="1" />
		<edge from-layer="2151" from-port="2" to-layer="2154" to-port="0" />
		<edge from-layer="2152" from-port="0" to-layer="2153" to-port="0" />
		<edge from-layer="2153" from-port="1" to-layer="2154" to-port="1" />
		<edge from-layer="2154" from-port="2" to-layer="2155" to-port="0" />
		<edge from-layer="2155" from-port="1" to-layer="2158" to-port="0" />
		<edge from-layer="2156" from-port="0" to-layer="2157" to-port="0" />
		<edge from-layer="2157" from-port="1" to-layer="2158" to-port="1" />
		<edge from-layer="2158" from-port="2" to-layer="2161" to-port="0" />
		<edge from-layer="2159" from-port="0" to-layer="2160" to-port="0" />
		<edge from-layer="2160" from-port="1" to-layer="2161" to-port="1" />
		<edge from-layer="2161" from-port="2" to-layer="2162" to-port="0" />
		<edge from-layer="2162" from-port="2" to-layer="2163" to-port="0" />
		<edge from-layer="2163" from-port="2" to-layer="2166" to-port="0" />
		<edge from-layer="2164" from-port="0" to-layer="2165" to-port="0" />
		<edge from-layer="2165" from-port="1" to-layer="2166" to-port="1" />
		<edge from-layer="2166" from-port="2" to-layer="2169" to-port="0" />
		<edge from-layer="2167" from-port="0" to-layer="2168" to-port="0" />
		<edge from-layer="2168" from-port="1" to-layer="2169" to-port="1" />
		<edge from-layer="2169" from-port="2" to-layer="2172" to-port="0" />
		<edge from-layer="2170" from-port="0" to-layer="2171" to-port="0" />
		<edge from-layer="2171" from-port="1" to-layer="2172" to-port="1" />
		<edge from-layer="2172" from-port="2" to-layer="2175" to-port="0" />
		<edge from-layer="2173" from-port="0" to-layer="2174" to-port="0" />
		<edge from-layer="2174" from-port="1" to-layer="2175" to-port="1" />
		<edge from-layer="2175" from-port="2" to-layer="2176" to-port="0" />
		<edge from-layer="2176" from-port="2" to-layer="2179" to-port="0" />
		<edge from-layer="2177" from-port="0" to-layer="2178" to-port="0" />
		<edge from-layer="2178" from-port="1" to-layer="2179" to-port="1" />
		<edge from-layer="2179" from-port="2" to-layer="2181" to-port="0" />
		<edge from-layer="2180" from-port="0" to-layer="2181" to-port="1" />
		<edge from-layer="2181" from-port="2" to-layer="2182" to-port="0" />
		<edge from-layer="2182" from-port="1" to-layer="2184" to-port="0" />
		<edge from-layer="2183" from-port="0" to-layer="2184" to-port="1" />
		<edge from-layer="2184" from-port="2" to-layer="2186" to-port="0" />
		<edge from-layer="2185" from-port="0" to-layer="2186" to-port="1" />
		<edge from-layer="2186" from-port="2" to-layer="2187" to-port="0" />
		<edge from-layer="2187" from-port="1" to-layer="2188" to-port="0" />
		<edge from-layer="2188" from-port="2" to-layer="2189" to-port="0" />
	</edges>
	<rt_info>
		<info name="OpenVINO Runtime" value="2026.2.0-21903-52ddc073857-releases/2026/2" />
		<Runtime_version value="2026.2.0-21903-52ddc073857-releases/2026/2" />
		<conversion_parameters>
			<input_model value="DIR/dpt_large.onnx" />
			<is_python_object value="False" />
		</conversion_parameters>
	</rt_info>
</net>
